log/conv_1x1_test.pt (torch_old, 471659 bytes, 28 tensors)

conv1.weight f4 [16, 3, 3, 3]
0	0x3e129bd9	0.14317264
1	0x3e199eaf	0.15001939
2	0xbbd55671	-0.0065105488
3	0xbc95af81	-0.018272163
4	0x3dc4e8bb	0.09614702
5	0xbe324934	-0.17410737
6	0xbc1be80a	-0.009515772
7	0xbdda504d	-0.106598474
8	0x3e36774c	0.17818946
9	0xbe18ee30	-0.14934611
10	0xb76201a0	-1.3471028e-05
11	0x3e07bbff	0.13255309
12	0xbc033159	-0.008007371
13	0x3e3f3fdc	0.18676704
14	0x3da9e119	0.08294887
15	0xbe09aa30	-0.13443828
16	0x3d03aed2	0.032149144
17	0xbc994975	-0.018711785
18	0xbda3905b	-0.07986518
19	0xbe1377eb	-0.14401214
20	0xbe01eeb4	-0.12688714
21	0xbe0c4cd2	-0.1370118
22	0x3e332885	0.17495926
23	0x3de4ae95	0.111661114
24	0xbdc6252a	-0.09675057
25	0xbe298894	-0.16556007
26	0xbd72a7a2	-0.0592419
27	0x3e01e8ea	0.12686506
28	0x3e1b3d8a	0.15160194
29	0xbe25c679	-0.16188993
30	0xbd56d569	-0.052449618
31	0x3d92a7fd	0.071609475
32	0xbd30aae6	-0.04313173
33	0x3e0fe782	0.14053157
34	0xbd74d38a	-0.059772052
35	0x3d68b44f	0.05681258
36	0xbd9e7577	-0.077372484
37	0xbcceac24	-0.025228567
38	0x3d4fb059	0.050705288
39	0xbcff9cff	-0.031202791
40	0x3e0626cb	0.13100736
41	0x3d2151e0	0.039384723
42	0x3e3e2ee1	0.1857257
43	0x3cd303a5	0.025758574
44	0xbe31ea33	-0.17374496
45	0xba49fabf	-0.00077049056
46	0xbdbd34b1	-0.09238566
47	0xbe3028cb	-0.17203061
48	0xbe07d924	-0.13266426
49	0xbe14b022	-0.14520314
50	0xbd8f6c6b	-0.07003101
51	0x3d638791	0.055549208
52	0xbde82985	-0.11336044
53	0xbc722346	-0.014778918
54	0x3d1c999c	0.03823243
55	0x3e254da6	0.16142902
56	0xbdf34317	-0.11878031
57	0x3e3f3da8	0.18675864
58	0xbe32c343	-0.17457299
59	0x3d307ee8	0.043089777
60	0xbdc50a42	-0.09621097
61	0x3c7a6730	0.015283391
62	0xbe199aea	-0.15000501
63	0x3d0812ca	0.033221044
64	0xbdb14528	-0.08655769
65	0x3d67bb7e	0.05657529
66	0xbd9916d0	-0.07475054
67	0x3d9d53f2	0.07682027
68	0x3c512ec2	0.012767496
69	0xbc5ff195	-0.0136684375
70	0x3d837b5d	0.06420014
71	0x3e29a144	0.16565424
72	0x3e3f9d90	0.18712449
73	0xbdda163a	-0.10648771
74	0x3a1469f8	0.00056615425
75	0x3c21593e	0.009847937
76	0x3db258c4	0.08708337
77	0xbe37e128	-0.17956984
78	0x3e0b096b	0.13577811
79	0xbe186ec3	-0.14886002
80	0xbdfcb27f	-0.12338733
81	0x3d9f0f5f	0.07766604
82	0xbe00c3e1	-0.12574722
83	0x3e15e7f4	0.14639264
84	0xbd495913	-0.049157213
85	0xbe3d94fd	-0.18513866
86	0x3e02429b	0.1272072
87	0xbe2682a2	-0.1626077
88	0x3e0ec141	0.13940908
89	0x3e2c92fe	0.16852948
90	0xbdac2e50	-0.08407271
91	0xbd6140f8	-0.0549936
92	0x3e197bed	0.1498868
93	0x3e34acb5	0.17644008
94	0x3cd5a7db	0.026081016
95	0x3d8c9774	0.06864825
96	0x3d835f47	0.06414657
97	0xbd31a2e6	-0.043368243
98	0xbdd3ab40	-0.10335398
99	0x3e27f1ba	0.16400805
100	0xbd729447	-0.05922344
101	0xbda89beb	-0.08232864
102	0x3d57540d	0.05257039
103	0x3de22149	0.11041505
104	0xbcf2920b	-0.029610654
105	0xbdea3ddd	-0.11437581
106	0xbd2a9e9f	-0.04165518
107	0x3e20096a	0.15628591
108	0x3d4ffcd0	0.05077821
109	0xbe172174	-0.14758855
110	0x3e2a3d30	0.16624904
111	0x3cead992	0.028668199
112	0x3d9b45e5	0.07581691
113	0x3e02663f	0.12734316
114	0xbe2819b4	-0.16416055
115	0x3dc608f8	0.096696794
116	0x3dcc0eab	0.09963735
117	0x3b840958	0.004029434
118	0x3e2ce26e	0.16883251
119	0xbd47e454	-0.048801735
120	0xbdf10e27	-0.117702775
121	0xbdbcae65	-0.092129506
122	0x3e1c5c24	0.15269524
123	0xbe16e4cd	-0.14735718
124	0x3df686f6	0.120374605
125	0xbdcab2af	-0.098973624
126	0xbc68e5c6	-0.0142149385
127	0xbe36a30f	-0.1783564
128	0x3e033dbe	0.12816522
129	0x3d94abdb	0.07259341
130	0xbc821f53	-0.015884077
131	0xbdd46575	-0.10370914
132	0x3d56ca95	0.05243929
133	0xbdf6b3d3	-0.120460175
134	0xbe367df3	-0.17821483
135	0x3e1c4e4c	0.15264243
136	0x3d398c18	0.04529962
137	0xbe265212	-0.16242245
138	0xbd530d20	-0.05152619
139	0xbdf1383d	-0.11778305
140	0x3b80f6f7	0.0039356905
141	0xbd2caf6d	-0.042159487
142	0x3e12b26d	0.14325877
143	0xbe219be7	-0.15782128
144	0xbda2ae5f	-0.07943415
145	0xbdcaa38a	-0.09894474
146	0x3d368bb8	0.04456684
147	0xbdb10e06	-0.08645253
148	0x3e017217	0.12641178
149	0xbe2ade8e	-0.1668646
150	0xbcc5cd70	-0.024145812
151	0xbdffbc6f	-0.12487113
152	0xbd94f6d6	-0.07273643
153	0x3dd1a613	0.10236754
154	0x3d5c1b4d	0.053736974
155	0x3d92eb5c	0.071737975
156	0xbe105466	-0.14094695
157	0x3e266017	0.16247593
158	0x3c6da4bc	0.014504608
159	0x3e22d5c1	0.15901853
160	0x3dc69a96	0.09697454
161	0x3d6a594c	0.057214066
162	0x3ddd7152	0.1081263
163	0x3e38ef3b	0.18060009
164	0xbe2773a2	-0.16352704
165	0xbe3bf0b0	-0.18353534
166	0xbd41ce83	-0.047316086
167	0x3d5f13e8	0.054462343
168	0xbc4a0604	-0.012330536
169	0x3e242cc7	0.16032706
170	0xbe248f15	-0.16070206
171	0x3d582a52	0.052774735
172	0xbb7d83a0	-0.003868319
173	0xbdc5b2b4	-0.096532255
174	0xbdb1a5b7	-0.08674186
175	0xbd281822	-0.04103864
176	0xbc4324c0	-0.011910617
177	0x3d63fdb6	0.05566188
178	0xbc82adc7	-0.015952004
179	0x3e1e82bc	0.15479559
180	0x3e1b06e9	0.15139355
181	0x3d86d67b	0.06583878
182	0x3dabf727	0.0839675
183	0xbe1ec1f1	-0.1550367
184	0x3d2f9ade	0.042872302
185	0xbe3a1bc3	-0.18174653
186	0x3e21e85a	0.15811291
187	0xbe2dd8ab	-0.16977184
188	0xbe2330e8	-0.15936625
189	0x3d6ec762	0.058295615
190	0x3dcdf5b7	0.10056632
191	0x3c5a2d9b	0.013316537
192	0xbde50dfd	-0.11184309
193	0xbdab2a66	-0.08357696
194	0xbccb675e	-0.024829563
195	0xbd2ea4ff	-0.04263782
196	0xbe281474	-0.16414052
197	0xbe0c4a44	-0.13700205
198	0x3d5cbc68	0.053890616
199	0x3e08bc27	0.13353024
200	0x3e322999	0.17398681
201	0xbe165d6e	-0.14684078
202	0xbe217754	-0.15768176
203	0xbe126f54	-0.14300281
204	0x3d2f7eea	0.042845644
205	0x3e1a65de	0.15077922
206	0x3d1a7877	0.03771254
207	0x3e1cf1ba	0.15326586
208	0x3dcdd97b	0.10051247
209	0x3da5176f	0.0806111
210	0x3deeb306	0.1165524
211	0xbdf549d4	-0.11976972
212	0xbe0271dc	-0.12738746
213	0x3d70f6a5	0.05882897
214	0x3dafca4b	0.08583506
215	0x3e0efbc4	0.13963228
216	0x3e3db557	0.18526207
217	0xbcaf3be6	-0.021390866
218	0xbd12058d	-0.035649825
219	0x3d57df68	0.05270329
220	0x3dbe283f	0.0928502
221	0xbe29fd06	-0.16600427
222	0x3e023ffb	0.12719719
223	0xbca9f248	-0.020745412
224	0x3e32ae97	0.17449413
225	0xbc8b0b00	-0.016973019
226	0xbe0a5fec	-0.13513154
227	0x3dcd39e5	0.10020808
228	0xbd128b88	-0.0357776
229	0x3c07ddab	0.008292596
230	0xbe09a249	-0.13440813
231	0x3e2a3738	0.16622627
232	0xbe288e17	-0.16460453
233	0xbe0f563f	-0.13997744
234	0x3b7b6663	0.0038360588
235	0xbe2fdd0b	-0.17174165
236	0x3d61021b	0.05493365
237	0x3dd14d60	0.10219836
238	0x3e07746c	0.13228005
239	0x3daecdc7	0.08535343
240	0x3db4c2ca	0.088262156
241	0x3e068ec9	0.13140406
242	0x3d292668	0.041296393
243	0xbc97a597	-0.018511577
244	0xbcbb2f39	-0.022849666
245	0x3e266358	0.16248834
246	0x39c2944c	0.00037113053
247	0x3c8109cb	0.01575174
248	0xba2da432	-0.0006623893
249	0xbdb944b7	-0.090463094
250	0x3dca2273	0.09869852
251	0x3c768ae2	0.015047761
252	0x3d681a63	0.05666579
253	0xbd924791	-0.071425565
254	0xbdee3380	-0.116309166
255	0xbd4a9d01	-0.049466137

conv1.bias f4 [16]
0	0xbdf4475d	-0.11927674
1	0x3d600ea1	0.05470145
2	0x3d3f0ca8	0.04664293
3	0x3dbd7098	0.09249991
4	0xbe1eea1a	-0.1551899
5	0xbcbc7a4f	-0.02300754
6	0x3e1d4e6a	0.15361944
7	0x3e18cc15	0.14921601
8	0x3d3d3ee5	0.04620256
9	0x3ce28e3b	0.027655711
10	0x3d043ae6	0.032282732
11	0x3b52e35b	0.0032178971
12	0x3e31c8d5	0.17361768
13	0x3dcfdc5b	0.10149451
14	0xbdc530d2	-0.09628452
15	0xbe068be6	-0.13139305

conv2.weight f4 [32, 16, 3, 3]
0	0xbd35103e	-0.044204943
1	0xbd792c67	-0.06083336
2	0xbd80ea8d	-0.06294737
3	0x3d5757bf	0.052573916
4	0xbd8d8b68	-0.06911355
5	0x3d929529	0.07157356
6	0xbd57e648	-0.052709848
7	0xbd590102	-0.052979477
8	0xbd967604	-0.073467284
9	0x3d75bfe3	0.05999745
10	0xbd0aab72	-0.03385491
11	0x3cc56e71	0.024100514
12	0x3da09332	0.07840575
13	0xbd6e495e	-0.058175437
14	0x3d83ae48	0.06429726
15	0xbd9293bf	-0.071570866
16	0x3d153996	0.03643187
17	0x3a8b98f1	0.0010650438
18	0xbccb2768	-0.024799064
19	0x3d658ed2	0.056044407
20	0x3d2c8472	0.042118497
21	0xbd3a2931	-0.04544944
22	0xba586f90	-0.000825637
23	0x3d1e9907	0.038720157
24	0x3d08dfa6	0.033416413
25	0xbd96a194	-0.07355037
26	0xba8c3b2c	-0.0010698787
27	0xbd92f7b1	-0.0717615
28	0xbd91ca97	-0.07118719
29	0xba6af699	-0.00089631375
30	0xbd870318	-0.06592387
31	0xbcd44c91	-0.025915416
32	0xbd57e1a6	-0.05270543
33	0xbd9552e3	-0.072912
34	0xbd6e7723	-0.058219086
35	0x3d8deead	0.069302894
36	0x3c938731	0.0180088
37	0x3d7353ac	0.059405968
38	0xbcd5757e	-0.026057001
39	0xbd51f435	-0.051258285
40	0xbd8752dd	-0.06607602
41	0xbc169747	-0.009191341
42	0x3cfa9edd	0.03059333
43	0xb914fe4e	-0.00014209116
44	0xbceb5e1f	-0.028731404
45	0xbd85e064	-0.0653694
46	0xbd587f28	-0.05285564
47	0x3d904da4	0.07046059
48	0x3cbded21	0.023184361
49	0xbd8dd79a	-0.06925888
50	0x3d696668	0.056982428
51	0x3d497bb4	0.049190238
52	0xbd319f7c	-0.043364987
53	0x3d896808	0.067092955
54	0xbd03ab7b	-0.03214596
55	0xbd9d2a5c	-0.07674095
56	0xbc22bce4	-0.00993273
57	0xbd13a312	-0.036044188
58	0x3ceb8511	0.028749974
59	0x3c82b58e	0.015955713
60	0x3cab92d7	0.020944042
61	0xbcd4a4df	-0.025957523
62	0x3d922111	0.07135213
63	0xbb09b4c4	-0.0021012286
64	0x3d397a12	0.04528243
65	0xbd1e9e9a	-0.038725473
66	0xbd4914d6	-0.049092136
67	0xbd98eee9	-0.074674435
68	0x3d070c60	0.032970786
69	0xbd01ed55	-0.031720478
70	0xbc5fba6a	-0.013655284
71	0xbd6c52af	-0.05769604
72	0x3caf89ef	0.021428077
73	0xbd908bf4	-0.07057944
74	0xbd5299ec	-0.051416323
75	0x3d87221d	0.065983035
76	0xbd910095	-0.07080189
77	0x3d9ff62d	0.07810626
78	0x3d6eca4f	0.058298405
79	0x3d87eb12	0.06636633
80	0xbd1bf48b	-0.03807501
81	0xbd95d83c	-0.07316634
82	0x3d8d4334	0.068975836
83	0xb9fdd9b0	-0.0004841811
84	0x3a72e11b	0.0009265111
85	0x3d11c915	0.035592157
86	0x3ce7317c	0.028221838
87	0x3d7acbe5	0.061229605
88	0xbd868fc3	-0.06570389
89	0xbc2dd8d8	-0.010610782
90	0xbd6307a3	-0.055427205
91	0xbc4c8c6f	-0.012484654
92	0x3d316557	0.043309536
93	0x3b95f27f	0.004576027
94	0xbd1a9d60	-0.03774774
95	0xbd8577fc	-0.06517026
96	0x3d97b263	0.074070714
97	0xbd315ff5	-0.043304402
98	0xbda05f81	-0.07830716
99	0x3c29ca0d	0.010363114
100	0x3b932de6	0.0044915555
101	0xbbee9806	-0.007281306
102	0xbd736682	-0.05942393
103	0x3d38ce18	0.04511842
104	0x3d2d93c8	0.042377263
105	0xbc3412e1	-0.010990829
106	0xbd65adaf	-0.05607384
107	0x3d65ef60	0.05613649
108	0x3d1db023	0.038498055
109	0xbb0ac7e4	-0.0021176273
110	0x3ca59a04	0.020215042
111	0xbd8d3f19	-0.068968005
112	0x3d3e64c2	0.04648281
113	0xbd8bd458	-0.06827611
114	0x3d2c8876	0.042122327
115	0x3d90435e	0.07044099
116	0xbd25d8d2	-0.04048998
117	0xbcbceb2d	-0.02306136
118	0x3d238cc5	0.03992917
119	0x394ed47a	0.00019724845
120	0x3ceebd25	0.029142926
121	0xbc15c4f9	-0.0091412
122	0xbcd21340	-0.025643945
123	0xbc2d8bc7	-0.010592408
124	0x3c3fbeec	0.011703234
125	0xbd948be5	-0.07253245
126	0x3d8856df	0.06657194
127	0x3cac9ed4	0.021071829
128	0xbc64907a	-0.0139504615
129	0x3d42676b	0.04746191
130	0xbd62a3d4	-0.05533202
131	0xbd9ce5cb	-0.07661017
132	0xbccb580f	-0.024822263
133	0xbd9a9203	-0.07547381
134	0x3ceaba67	0.028653337
135	0x3d928f29	0.07156212
136	0x3d6b0fc7	0.057388093
137	0x3d224b5d	0.039622653
138	0xbcba150d	-0.022715116
139	0xbd9496b5	-0.072553076
140	0xbd9918ce	-0.07475434
141	0x3d7e1ba9	0.062038098
142	0x3d1e7d84	0.03869392
143	0x3beaa5f7	0.007160898
144	0xbc661f9b	-0.014045621
145	0xbc38b87c	-0.011274453
146	0xbab7d918	-0.0014026491
147	0x3d949b5c	0.07256195
148	0xba57d1c3	-0.0008232856
149	0x3d4996e1	0.049216155
150	0xbd31d16c	-0.04341261
151	0xbd8dc4e3	-0.06922319
152	0x3d93a46b	0.072090946
153	0x3d4dc1bb	0.050233584
154	0x3d754493	0.05987985
155	0x3d0c9a66	0.034326933
156	0xbc970a2b	-0.018437466
157	0xbd36f364	-0.04466571
158	0xbc8c21d5	-0.017105976
159	0xbd052310	-0.03250414
160	0x3d6cc242	0.057802446
161	0x3d612d5a	0.05497489
162	0xba7cec89	-0.00096482836
163	0xbcc371c6	-0.023857962
164	0x3d7c608e	0.06161552
165	0x3d50aa23	0.050943505
166	0xbc6d0b10	-0.01446797
167	0xbd747d10	-0.05968958
168	0xbd846da5	-0.064662255
169	0x3d7c67d1	0.061622445
170	0xbd1d8e68	-0.038465887
171	0x3d29b347	0.041430738
172	0xb9e0d7fa	-0.00042885524
173	0x3d9d6d7d	0.07686899
174	0xbd42363a	-0.047414996
175	0x3a825b34	0.0009945394
176	0x3c396b3c	0.011317071
177	0x3d681832	0.0566637
178	0xbc23e3fc	-0.010003086
179	0xbd7bea98	-0.061503023
180	0xbc9d60ca	-0.019211192
181	0x3bd53422	0.006506459
182	0x3d6890ff	0.056778904
183	0x3d726fc3	0.059188616
184	0x3c6d478f	0.014482393
185	0xbc758f98	-0.014987849
186	0x3d359b33	0.044337463
187	0x3a12218f	0.00055744586
188	0xbd7a4475	-0.061100442
189	0x3d8a6fe4	0.06759623
190	0x3d721a65	0.059107203
191	0x3d79ee88	0.061018497
192	0xbd43168e	-0.04762893
193	0xbd93641b	-0.07196828
194	0x3d3ddaab	0.046351116
195	0x3d7bbf88	0.061461955
196	0xbcf58ecc	-0.029975317
197	0x3d899aa6	0.0671895
198	0xbd085e1a	-0.033292867
199	0xbd901bf4	-0.07036582
200	0x3bcdf740	0.006285578
201	0x3cb4bf88	0.022063985
202	0xbc9584b7	-0.01825176
203	0x3c0b15c7	0.008489079
204	0x3d4169b6	0.047219954
205	0x3c9bea68	0.019032672
206	0x3c4b4b08	0.012408026
207	0xbcb05f73	-0.021529889
208	0x3d9b0e16	0.07571046
209	0xbca991ea	-0.02069946
210	0x3c9b1824	0.01893241
211	0xbd713d2e	-0.058896236
212	0xbd86f779	-0.065901704
213	0xbc43a08e	-0.011940135
214	0x3d06f42a	0.032947697
215	0xbd8e509b	-0.06948968
216	0xbceb4aab	-0.028722128
217	0xbd464cea	-0.048413195
218	0xbc7c3e82	-0.015395762
219	0x3d374b73	0.04474969
220	0xbc7603dc	-0.015015569
221	0x3d4e876c	0.050422117
222	0x3d7e4693	0.062079024
223	0xbd936be3	-0.07198312
224	0x3d6c1309	0.05763534
225	0xbc87c46f	-0.016573159
226	0xbce63dd8	-0.028105661
227	0xbd7d481e	-0.061836354
228	0xbd8c73ed	-0.068580486
229	0x3bfb7208	0.0076735057
230	0x3d990dfa	0.07473369
231	0x3d97d2ce	0.07413255
232	0xba8afcd9	-0.0010603919
233	0x3d790de7	0.060804274
234	0x3cd57663	0.026057428
235	0x3cd8e166	0.026474666
236	0xbd6fd1e3	-0.058549773
237	0x3d9bdb93	0.0761024
238	0xbbfaea24	-0.0076573063
239	0x3c2a2c62	0.010386558
240	0xbcfd2819	-0.03090291
241	0x3d35572f	0.044272598
242	0xbd91258f	-0.07087242
243	0x3bd8dfb8	0.006618466
244	0xbd62c772	-0.055365987
245	0xbd2626b0	-0.04056424
246	0xbd6c373a	-0.057669856
247	0xbd401273	-0.046892595
248	0xbd9a73ad	-0.07541595
249	0xbc984ef0	-0.018592328
250	0xbd946d9c	-0.07247469
251	0xbd584887	-0.052803542
252	0x3d000e52	0.031263657
253	0xbca3c8f2	-0.01999328
254	0x3d7ca519	0.061680887
255	0xb94a46fa	-0.00019290662

conv2.bias f4 [32]
0	0xbcf9e4e4	-0.030504651
1	0xbd2df6c6	-0.04247167
2	0xbda1baaf	-0.07896935
3	0x3d828bcd	0.06374321
4	0xbd2e08a7	-0.04248872
5	0x3cf76de7	0.030203773
6	0xbd886d26	-0.066614434
7	0x3d3e443f	0.046451803
8	0xbb0dc450	-0.0021631904
9	0x3d92d2c6	0.07169108
10	0x3bafe184	0.0053674597
11	0xbc77c18c	-0.015121829
12	0x3c727c5a	0.014800156
13	0xbd9c0725	-0.0761855
14	0x3c1fb0c6	0.009746736
15	0xbce5f800	-0.028072357
16	0x3d4161ee	0.047212534
17	0xbc99da1f	-0.018780766
18	0xbd6ccb3a	-0.057811
19	0xbd341fcf	-0.043975648
20	0x3d4bd02c	0.049759075
21	0xbce2ec6c	-0.027700625
22	0x3d8e782c	0.06956515
23	0x3d562d2e	0.05228918
24	0xbc3388e0	-0.0109579265
25	0xbcd6975f	-0.026195226
26	0xbd3e39a2	-0.04644168
27	0x3d00e244	0.031465784
28	0x3d24c654	0.040228203
29	0xbc93561c	-0.017985396
30	0x3da106fe	0.07862662
31	0x39204a64	0.00015286502

conv3.weight f4 [32, 32, 3, 3]
0	0xbd4dd8dc	-0.05025564
1	0x3d18c6d7	0.037299003
2	0xbce0c800	-0.027439117
3	0x3d3d571d	0.046225656
4	0x38da4120	0.000104071805
5	0xbc8ec50f	-0.01742795
6	0x3cd1547f	0.025552986
7	0x3b6b36aa	0.0035890737
8	0xbd5fa897	-0.05460414
9	0x3cf8ba2e	0.030362215
10	0x3cc035e5	0.023463199
11	0x3c792751	0.015207128
12	0xbd5ed8a9	-0.054405842
13	0xbc1b3db0	-0.009475157
14	0x3d0e5683	0.034750473
15	0x3d24fe46	0.040281557
16	0x3d5590b7	0.052139964
17	0x3c3e7a85	0.011625891
18	0x3cc78bf1	0.024358721
19	0xbd4c3647	-0.04985645
20	0xbd53c098	-0.051697344
21	0xbba226cc	-0.0049484726
22	0x3b7de1c9	0.0038739315
23	0xbd2a9e25	-0.041654725
24	0xbd4f8006	-0.050659202
25	0xbd389ff9	-0.045074437
26	0xbd23fb1a	-0.04003439
27	0xbb119c0d	-0.0022218258
28	0x3d367106	0.04454138
29	0xbd3de37f	-0.046359535
30	0xbcad0acd	-0.021123314
31	0x3c3528ef	0.011057123
32	0xbd173e89	-0.036924873
33	0x3ca79374	0.020456053
34	0x3a568ea1	0.00081847055
35	0x3d1823b1	0.037143413
36	0xbd41604f	-0.047210988
37	0x3c309518	0.010777734
38	0xbd0a6f0a	-0.0337973
39	0xbd5e9c56	-0.054348312
40	0xbc6b7a1e	-0.014372377
41	0xbc083b28	-0.008314885
42	0xbd325dfe	-0.04354667
43	0x3b4605ea	0.0030215927
44	0x3cb26e5e	0.021781143
45	0xbd1ef891	-0.03881127
46	0x3c7ce6bd	0.015435872
47	0x3cd4cb25	0.025975773
48	0x3c81a14e	0.015823986
49	0x3d42ecfc	0.047589287
50	0x3d53814c	0.05163698
51	0xbcadd828	-0.021221235
52	0x3c8225ed	0.015887225
53	0xbd4d8733	-0.050177764
54	0xbbd848ea	-0.006600489
55	0x3d1ed780	0.038779736
56	0xbcce74a4	-0.025202103
57	0xba8c6984	-0.0010712598
58	0xbbf19d81	-0.0073735123
59	0x3d36f079	0.044662926
60	0x3d31f8d3	0.043450188
61	0xbc8346ae	-0.016024914
62	0x3a205a76	0.00061169954
63	0xbc5b7f69	-0.013397076
64	0xbd273b11	-0.040827814
65	0xbc33c512	-0.010972278
66	0xbd563d01	-0.05230427
67	0x3d3ddf4e	0.046355538
68	0xbcc59a89	-0.02412154
69	0xbb94ae29	-0.004537363
70	0x3bd65eff	0.006542086
71	0x3cb44716	0.022006553
72	0xbd131680	-0.03591013
73	0xbce748e4	-0.028233
74	0x3d583853	0.05278809
75	0xbbc5d0d4	-0.006036857
76	0x3d09ea1e	0.033670537
77	0x3c779059	0.015110099
78	0xbd15f721	-0.036612634
79	0x3cc777db	0.024349144
80	0x3d2f12c5	0.04274251
81	0xbc69807b	-0.014251824
82	0xba616394	-0.0008597907
83	0x3ca94244	0.02066148
84	0x3c6975b3	0.014249253
85	0xbcbb1f3a	-0.022842038
86	0xbbe525f9	-0.006993052
87	0xbc23a0e6	-0.009987092
88	0xbc88ff7b	-0.016723385
89	0x3ccabc0d	0.024747873
90	0x3d5171eb	0.05113403
91	0x3d021717	0.0317603
92	0x3b39e98c	0.0028367965
93	0xbcdef484	-0.027216204
94	0x3d2bb146	0.041917108
95	0xbd31213d	-0.04324459
96	0x3d454434	0.048160747
97	0x3d07dd8c	0.033170268
98	0x3d47741a	0.048694707
99	0x3ccf1074	0.0252764
100	0xbd2b46e2	-0.041815646
101	0xbcd9ac88	-0.026571527
102	0xbd21cf3b	-0.03950427
103	0x3d27cea0	0.040968537
104	0xbc28f500	-0.010312319
105	0x3d355e19	0.04427919
106	0x3d34d91f	0.044152375
107	0x39c23b2e	0.00037046656
108	0x3d4666e3	0.048437964
109	0x3c23eb04	0.010004763
110	0xbd0e5f46	-0.03475883
111	0x3d023d28	0.031796604
112	0x3d02d5cf	0.031942185
113	0xbce44a79	-0.027867543
114	0x3ca77d55	0.020445505
115	0xba12e011	-0.00056028465
116	0x39fb0352	0.00047876925
117	0x3d142026	0.03616347
118	0xbbe96796	-0.007122944
119	0xbd3d44f8	-0.04620835
120	0xbc44346a	-0.011975387
121	0x3b1dcd7a	0.0024078772
122	0xbd480016	-0.048828207
123	0x3b0d9617	0.0021604353
124	0xbc2d097b	-0.010561342
125	0x3d200f69	0.039077196
126	0x3d20cdb7	0.039258685
127	0xbcb6f760	-0.022334754
128	0x3ce68d4d	0.02814355
129	0x3d2688c2	0.040657766
130	0xba97442c	-0.0011540703
131	0xbb3a280b	-0.0028405215
132	0xbc73e81c	-0.014886882
133	0x3d2f89ec	0.042856142
134	0x3cefce03	0.029273039
135	0x3c26aaca	0.010172555
136	0x3d2db39c	0.042407617
137	0xbcee8687	-0.029116882
138	0x3d11c90d	0.035592128
139	0x3d5e8347	0.054324415
140	0x3cb2aaa6	0.021809887
141	0xbd53b081	-0.051682
142	0xbd4335d3	-0.047658753
143	0xbd5dfba6	-0.05419507
144	0x3d0958d5	0.033531982
145	0xbc9b57bb	-0.018962732
146	0x3c30be2b	0.010787527
147	0xbc5a3e39	-0.013320499
148	0xbb9a82b7	-0.0047152895
149	0x3d264dc1	0.040601496
150	0xbd350b9e	-0.044200532
151	0x3d5ddef9	0.05416772
152	0xbd0b535f	-0.034015056
153	0x3c4c83ad	0.012482566
154	0x3c9aed8d	0.018912101
155	0x3d4833d9	0.04887757
156	0xbd20970a	-0.039206542
157	0x3b8de10f	0.0043298076
158	0x3d469a3f	0.048486944
159	0xbc6e583e	-0.014547406
160	0xbc62cca8	-0.013842739
161	0xbcd21a64	-0.02564735
162	0x3d5c7de0	0.05383098
163	0xbcd1a3b9	-0.025590764
164	0x3d21c8bc	0.039498076
165	0x38f5d6e0	0.00011722534
166	0xbc0d8fd3	-0.008640247
167	0x3d568fd7	0.05238327
168	0x3d1e418a	0.03863672
169	0x3b218d3c	0.0024650833
170	0x3a8c454e	0.0010701807
171	0x3a2671cf	0.0006349356
172	0xbd26b132	-0.04069633
173	0x3d1a3cde	0.037655704
174	0xba88161a	-0.0010382563
175	0x3d0a2e21	0.0337354
176	0xbd502671	-0.05081791
177	0xbd5922d2	-0.053011723
178	0xbd1073c1	-0.03526664
179	0xbcf88d82	-0.030340914
180	0x3c8830b3	0.016624784
181	0xbd269d5a	-0.040677406
182	0xbcf33ac0	-0.0296911
183	0x3cbd34fd	0.023096556
184	0xbca4b280	-0.020104647
185	0x3c86e810	0.016468078
186	0x3a8c5964	0.0010707793
187	0x3ce6e27f	0.028184174
188	0x3a8ae844	0.0010597785
189	0xbd322513	-0.043492388
190	0x3d07a51a	0.033116437
191	0x39d6f2f4	0.00040998275
192	0xbcb89cf5	-0.02253578
193	0x39d6d438	0.00040975376
194	0x3d1c4aad	0.038157154
195	0x3d5d89ea	0.054086603
196	0xbd1e47ee	-0.038642816
197	0xbd51cd33	-0.051221084
198	0xbc91ad07	-0.017782701
199	0x3d0c2a7b	0.0342202
200	0x3cdca852	0.02693573
201	0x3bb09655	0.0053890147
202	0x3a3eacea	0.0007273691
203	0x3ca77f56	0.02044646
204	0xbcbe3b60	-0.023221672
205	0xbd0c892d	-0.03431051
206	0x3bdd869a	0.0067604305
207	0x3ac6b494	0.0015160018
208	0x3d38d2f7	0.045123067
209	0xba4b2ffd	-0.0007750986
210	0xbd11a2d1	-0.035555664
211	0x3d360236	0.044435702
212	0xbd099308	-0.033587486
213	0xbd04a666	-0.032385252
214	0xb986dea1	-0.00025724343
215	0x3cf09094	0.029365815
216	0xbc9c9a52	-0.019116554
217	0x3d3d631e	0.046237104
218	0x3c43fa8c	0.0119615905
219	0x3d3f57da	0.04671464
220	0x3cfe8f59	0.031074213
221	0x3c923dd4	0.017851748
222	0x3d412d1a	0.047162153
223	0xbd25e422	-0.040500768
224	0xbcf5dd5b	-0.030012777
225	0xbca1c4af	-0.019747106
226	0xbceb5022	-0.028724734
227	0x3c8866e6	0.016650628
228	0xbb60d187	-0.0034304576
229	0x3d586800	0.052833557
230	0xbcd68307	-0.026185526
231	0x3ba0dc50	0.004909076
232	0x3d56744c	0.052357003
233	0x3a323a04	0.0006798806
234	0x3c7d7ad9	0.015471184
235	0xbd03c61b	-0.03217135
236	0xbd4a50b8	-0.049393386
237	0x3b3dbace	0.0028950456
238	0xba6056a5	-0.0008557833
239	0xbd43b717	-0.04778203
240	0xbcff0ece	-0.03113499
241	0xbcc08366	-0.023500156
242	0x3bdc3fb6	0.006721462
243	0xbbdd6e44	-0.0067575295
244	0xba836134	-0.0010023476
245	0xbd38da38	-0.045129985
246	0xbc271cec	-0.010199767
247	0x3bf64976	0.0075160814
248	0xbd36357b	-0.044484597
249	0xbc8babbf	-0.017049668
250	0x3d1e5dbc	0.03866361
251	0xbd144227	-0.0361959
252	0x3d535051	0.051590268
253	0x3d210312	0.03930957
254	0xbcc88f4a	-0.024482388
255	0xb9c0d935	-0.00036782926

conv3.bias f4 [32]
0	0x3c782130	0.015144631
1	0xbd032679	-0.032019112
2	0xba2831b1	-0.0006416096
3	0x3cab80bd	0.02093541
4	0xbd360597	-0.044438925
5	0x3cba9094	0.022774018
6	0xbcc90e02	-0.024542812
7	0xbc93b625	-0.01803119
8	0xbd2a817f	-0.041627403
9	0x3ce897dd	0.028392727
10	0x3cb58ada	0.022160936
11	0xbcc05830	-0.023479551
12	0x3c6c5f9a	0.01442709
13	0x3d5b7148	0.05357483
14	0x3d3ae278	0.045626134
15	0xbcdcaa29	-0.026936607
16	0xbcb2efaf	-0.021842806
17	0x3ad328f8	0.0016110232
18	0x3b54d438	0.0032475125
19	0x3d3464b1	0.04404134
20	0x3d4e2fce	0.05033856
21	0xbd31e0bd	-0.043427218
22	0x3a39da48	0.00070897164
23	0x3d53eca2	0.051739343
24	0xbcd9fdd1	-0.026610287
25	0xbce67918	-0.028133914
26	0xbcc7ce4d	-0.024390364
27	0x3d3f71f6	0.04673954
28	0xbd192d4a	-0.037396707
29	0x3d1b1e2e	0.03787058
30	0xbcc2f12f	-0.023796646
31	0x3d0c563e	0.034261934

conv4.weight f4 [32, 32, 3, 3]
0	0x3d422521	0.04739869
1	0xbc1e069d	-0.009645131
2	0x3b9444dd	0.0045248107
3	0xbcac8f74	-0.021064498
4	0xbc31fae4	-0.01086304
5	0xbd4b2971	-0.04960007
6	0x3b14dab0	0.0022713356
7	0xbcfc22e5	-0.030778358
8	0x3c1ca444	0.009560648
9	0xbbb53328	-0.00552978
10	0xbc6bd25b	-0.014393414
11	0xbd4b5d90	-0.049649775
12	0x3cc82a24	0.024434157
13	0xbc5d3963	-0.013502452
14	0xbb9cf4d9	-0.0047899303
15	0xbc425a1c	-0.011862304
16	0xbd2f2338	-0.042758197
17	0xbce039cf	-0.027371315
18	0x3c43291d	0.011911658
19	0x3c86ec7c	0.016470186
20	0x3d52fb94	0.051509455
21	0x3d55ff92	0.052245684
22	0x3c9b03a1	0.018922629
23	0x3d039cfc	0.032132134
24	0xbc5e6a68	-0.013575174
25	0x3c5ad22e	0.013355775
26	0xbc7c071f	-0.015382557
27	0x3d427932	0.047478862
28	0x3d274ab0	0.040842712
29	0x3d033450	0.03203231
30	0xbd23d038	-0.039993495
31	0xbcb1ccb8	-0.021704063
32	0x3d56d46e	0.052448682
33	0xbbb80e65	-0.0056169503
34	0xbc15bc00	-0.009139061
35	0x3ce9c751	0.028537424
36	0x3cbc6bb6	0.02300058
37	0xbd1e7594	-0.03868635
38	0x3ca5fab3	0.020261144
39	0xbca82e42	-0.02052987
40	0x3d13fa85	0.036127586
41	0x3d1274df	0.03575599
42	0xbc305227	-0.010761774
43	0xbd1bf25e	-0.038072936
44	0xbd4b2deb	-0.049604338
45	0xbc4e7b0e	-0.012602581
46	0xbd5d6037	-0.054046836
47	0xbcf88b1a	-0.030339766
48	0xba0d9e00	-0.0005402267
49	0x3d4418e4	0.0478753
50	0xbc16d754	-0.009206612
51	0xbd3e3f66	-0.04644718
52	0x3c636f02	0.013881447
53	0x3d32b863	0.043632876
54	0xbccb8454	-0.024843372
55	0x3c513507	0.01276899
56	0x3a5e4593	0.00084789953
57	0x3d4e05cc	0.050298497
58	0x3d189a59	0.037256572
59	0xbd278426	-0.04089751
60	0xbd031f8f	-0.03201252
61	0x3d1b2baa	0.03788344
62	0xbc32756f	-0.010892256
63	0xbc55028a	-0.013001094
64	0xba2bd5cf	-0.0006554992
65	0x3d21e1aa	0.03952185
66	0xba526b9c	-0.00080268993
67	0xbd5f1ae1	-0.054468993
68	0x3d1e2d75	0.03861757
69	0xbd06debe	-0.032927267
70	0xbd42373f	-0.047415968
71	0xbc0a51e9	-0.00844238
72	0x3bc4c5ce	0.0060050255
73	0xbca92cd9	-0.020651268
74	0x3cacbb99	0.021085547
75	0x3d54ece0	0.051983714
76	0x3d3d05b6	0.046148024
77	0xbcdeaa65	-0.02718086
78	0xbc0451b7	-0.008076123
79	0xbc76cce3	-0.015063497
80	0x3d2d94cb	0.04237823
81	0x3c52a87a	0.012857551
82	0xbd0305e2	-0.031988032
83	0x3c084c1c	0.008318927
84	0x3cdd622b	0.02702435
85	0x3b9b7cf9	0.0047451225
86	0x3c067639	0.008206897
87	0x3c3366d0	0.010949805
88	0x3c0c6f5a	0.00857147
89	0xbd317818	-0.04332742
90	0x3d2fd13b	0.042924147
91	0xbd1f4678	-0.038885564
92	0x3baf699d	0.0053531663
93	0xba244b4f	-0.00062673254
94	0x3c8a962d	0.016917313
95	0x3d52aa59	0.051431987
96	0xbd4abc25	-0.049495835
97	0xbcf9c509	-0.030489461
98	0xbcf07439	-0.029352294
99	0x3c828a7c	0.015935175
100	0xbd51e811	-0.051246706
101	0x3b2ce518	0.0026381668
102	0x3c3a2da0	0.011363417
103	0x3cd7a868	0.02632542
104	0xbcb213e1	-0.021737995
105	0x3d2864b6	0.04111167
106	0x3d232070	0.039825857
107	0xba53cb7e	-0.0008079334
108	0x3d15c492	0.036564417
109	0x3d4aa48f	0.04947334
110	0xbd2b0b3d	-0.041758765
111	0x3cc69908	0.024242893
112	0x3a6525db	0.00087412976
113	0x3d2c8762	0.0421213
114	0x39ca4adb	0.00038584214
115	0xbd4d26ec	-0.050085947
116	0xbc2f8175	-0.010712017
117	0x3d396147	0.045258787
118	0x3cce3191	0.02517012
119	0x3cf12f27	0.02944143
120	0xbd0b4f09	-0.03401092
121	0x3cb10db1	0.021612974
122	0xbbde04d0	-0.006775476
123	0x3cbef4b5	0.023310045
124	0x3d3741cd	0.044740487
125	0xbc3ec37b	-0.011643286
126	0xbd54a91e	-0.051919095
127	0x3d174a1b	0.036935907
128	0x3afae362	0.0019141252
129	0x3cdbc6d0	0.0268282
130	0xbcc464ce	-0.023973849
131	0x3d24371c	0.04009162
132	0xbcb2f19f	-0.02184373
133	0x3cca88c3	0.024723416
134	0xbc07cc49	-0.0082884515
135	0xbbb9399b	-0.005652619
136	0xbc382ff7	-0.011241904
137	0xbc8c980a	-0.017162342
138	0x3cb83e7e	0.022490736
139	0x3c646e57	0.013942323
140	0xbccae732	-0.024768446
141	0xba3a0e12	-0.00070974336
142	0xbc7562b5	-0.014977147
143	0xbbdac1c1	-0.0066759293
144	0x3adc266e	0.0016796121
145	0x3d094bf0	0.033519685
146	0xbd45f665	-0.048330683
147	0xbc82a286	-0.015946638
148	0xbcb5d5d5	-0.02219669
149	0x3b99c788	0.0046929754
150	0x3cf5c4ed	0.030001128
151	0x3c933571	0.017969819
152	0xbcf58f43	-0.02997554
153	0xbbaf501e	-0.005350127
154	0xbc14147c	-0.009038087
155	0x3d0ce52e	0.03439825
156	0x3ce039f2	0.02737138
157	0xbd42681e	-0.047462575
158	0x3d4e1524	0.05031313
159	0xbc1ad3cb	-0.009449909
160	0xbb4c0eb2	-0.0031136689
161	0xbd3d4f10	-0.046217978
162	0x3a8144e2	0.0009862448
163	0x3c32e57d	0.010918972
164	0xbc9ce585	-0.019152412
165	0x3c9d1525	0.019175122
166	0xbc9892ff	-0.01862478
167	0x3d27d1ee	0.04097169
168	0xbc9ffb2b	-0.019528946
169	0x3ced3294	0.028954782
170	0x3d4dea2a	0.050272144
171	0xbd1040d0	-0.03521806
172	0x3d300021	0.042968873
173	0x3a850084	0.0010147248
174	0x3c09957a	0.008397454
175	0xbd3116b2	-0.043234535
176	0xbd0afaff	-0.033930775
177	0xbd28daba	-0.04122422
178	0x3c56fd19	0.013121867
179	0x3c9bada1	0.019003691
180	0xbd2da257	-0.042391147
181	0xbd3c4ca3	-0.045971524
182	0x3d44a644	0.048010126
183	0xbc0ab2b6	-0.00846546
184	0xb886a328	-6.420008e-05
185	0x3d039831	0.032127563
186	0xbd26b2d2	-0.04069788
187	0x3d1c43de	0.03815066
188	0x3cccc043	0.024994021
189	0x3d5ab8de	0.05339896
190	0xbb516988	-0.003195377
191	0xbd1f0a26	-0.038828038
192	0x3cca615a	0.024704624
193	0x3c562d96	0.013072392
194	0x3b1b947a	0.0023739622
195	0xbd5fe1b3	-0.054658603
196	0xbc834374	-0.016023375
197	0xbcaba9d5	-0.020955006
198	0x3cc509cc	0.024052523
199	0xbb4aad35	-0.0030925993
200	0xbb8c3f6d	-0.004280022
201	0x3d1ad471	0.037800256
202	0xbca5bc86	-0.020231497
203	0xbcdf3948	-0.027248994
204	0x3d1fee5f	0.039045688
205	0xbd081e10	-0.033231795
206	0xbce20e16	-0.027594607
207	0xbaf7a3b4	-0.0018893392
208	0xbcec28a0	-0.028827965
209	0x3c469012	0.01211931
210	0xbd54d464	-0.051960364
211	0x3c90e8a8	0.017689064
212	0x3c4e4029	0.012588539
213	0xbd2e4ade	-0.042551868
214	0x3c240dfe	0.010013102
215	0xbc8c1cfc	-0.017103665
216	0x3d3986bf	0.04529452
217	0xbcb4b004	-0.022056587
218	0x3bf8612d	0.0075799436
219	0xbd36bc6e	-0.044613294
220	0x3d31948f	0.043354567
221	0x3d310a42	0.043222673
222	0x3c88b03f	0.016685603
223	0xbd471254	-0.048601463
224	0xbcbb5763	-0.022868818
225	0xbb6bd27a	-0.0035983608
226	0xbc9c3bc3	-0.019071465
227	0xbca58793	-0.020206248
228	0x3cd52770	0.026019782
229	0x3c8a3cb4	0.016874649
230	0xbd44cee4	-0.04804887
231	0x3b560ecf	0.0032662635
232	0xbd346a86	-0.0440469
233	0xbc47ef47	-0.012203044
234	0x3c29061e	0.0103164
235	0x3d2b721f	0.04185688
236	0xbcc45e0b	-0.023970624
237	0xbca806bb	-0.020511022
238	0xbaea1b9c	-0.0017861011
239	0xbd4d0401	-0.050052647
240	0x3ca962f4	0.020677067
241	0xbcc7cbb2	-0.024389122
242	0x3d10c275	0.0353417
243	0xbcd859bf	-0.026409982
244	0xbc8a48fc	-0.016880505
245	0xbd41e833	-0.047340583
246	0xbcb970f5	-0.02263687
247	0x3d41d489	0.04732183
248	0xbd2be56a	-0.041966833
249	0xbbbd6c67	-0.005780745
250	0xbc0079aa	-0.007841507
251	0x3d5a6006	0.05331423
252	0xbd14038e	-0.036136203
253	0xbc8d30e7	-0.017235233
254	0x3d4ff7cd	0.05077343
255	0xbc26b808	-0.010175712

conv4.bias f4 [32]
0	0x39b0b80e	0.00033706467
1	0xbce5eccc	-0.028067015
2	0x39473a8a	0.00018999926
3	0x3ccc2d42	0.024923924
4	0xbc14de9e	-0.009086279
5	0x3d205945	0.039147634
6	0xbcd17a6d	-0.025571072
7	0x3d4dab97	0.05021247
8	0x3d183b10	0.0371657
9	0xbd23b447	-0.039966848
10	0x3ca81b6d	0.02052089
11	0xbc821035	-0.015876869
12	0x3c843306	0.016137611
13	0xbcf350e6	-0.029701661
14	0x3bcea06e	0.006305746
15	0x3ca2c866	0.019870948
16	0xbd5f8383	-0.05456878
17	0xbbdd2b68	-0.006749559
18	0xbc890dce	-0.016730215
19	0x3d52aa2a	0.051431812
20	0x3cbd4df1	0.023108454
21	0x3d4c169f	0.04982626
22	0xbc4bc2a4	-0.012436543
23	0xb9ef6c96	-0.00045666535
24	0x3ceed8be	0.029156085
25	0xbb933549	-0.004492436
26	0xbd515673	-0.051107835
27	0x3ca39527	0.019968582
28	0xbd244bbc	-0.04011129
29	0xbd10cf21	-0.035353784
30	0xbcab9656	-0.02094571
31	0x3d0dd03e	0.034622423

conv5.weight f4 [32, 32, 3, 3]
0	0xbd153321	-0.036425713
1	0xbd06e4b7	-0.032932963
2	0x3ccafe1b	0.02477937
3	0xbd3ecb6a	-0.04658071
4	0x3c138272	0.009003269
5	0xba01fcd9	-0.0004958637
6	0x3d0b3b5d	0.03399216
7	0x3d14ac74	0.036297277
8	0xba690f90	-0.00088905636
9	0xbc8a8e6f	-0.01691362
10	0x3d402561	0.046910647
11	0x3c23dd9b	0.010001565
12	0x3cdcbc73	0.026945328
13	0xbd2c69ba	-0.042093016
14	0x3cdd9397	0.027047915
15	0xbd53203d	-0.051544417
16	0xbd19e065	-0.037567515
17	0xbc821b8b	-0.015882274
18	0x37855fe0	1.589948e-05
19	0xbc436782	-0.011926534
20	0xbcd338c5	-0.025783906
21	0x3d3964dd	0.045262206
22	0xb92a464c	-0.00016238651
23	0xbc3e47b2	-0.011613773
24	0xbb8a776e	-0.004225663
25	0xbd0536c5	-0.032522935
26	0xbd238b90	-0.03992802
27	0x3cdc8ba3	0.026922053
28	0xbb9dbbfa	-0.0048136683
29	0xbb229498	-0.0024807807
30	0xbcb6a5c9	-0.02229585
31	0x3ce1f998	0.027584836
32	0xbbb8f2e0	-0.0056441873
33	0x3d120671	0.035650674
34	0x3d1840e5	0.037171263
35	0xbd566f1f	-0.052352067
36	0x3cfb4d50	0.030676514
37	0x3cd90fd9	0.026496815
38	0xbc7b8eca	-0.015353868
39	0x3d27d7fa	0.040977456
40	0xbce3c64d	-0.027804518
41	0x3b064936	0.0020490414
42	0xbc93d379	-0.018045174
43	0xbccff680	-0.025386095
44	0xbd4c1b37	-0.04983064
45	0xbcf72f30	-0.030173868
46	0xb930a114	-0.00016844674
47	0xbc55120b	-0.01300479
48	0xbce3639f	-0.027757464
49	0xbbf0aac2	-0.0073445747
50	0xbd404c2d	-0.046947647
51	0xbc53aa46	-0.012919014
52	0x3b01b9b7	0.0019794533
53	0x3d19798b	0.037469428
54	0xbd31f6a1	-0.043448094
55	0xbcd974ce	-0.026544955
56	0x3d0cbd7c	0.034360394
57	0xba8c0a74	-0.0010684268
58	0xbd502791	-0.050818983
59	0xbcdf3542	-0.027247075
60	0x3cb98b37	0.02264939
61	0x3d2b35f8	0.041799515
62	0x3c06663e	0.008203087
63	0xbc0ab58c	-0.008466136
64	0x3cc014bc	0.023447387
65	0xba3fcae5	-0.00073163054
66	0xbc99fdb7	-0.018797738
67	0x3c1e847b	0.0096751405
68	0x3d5809e5	0.05274381
69	0xbd333f8d	-0.04376178
70	0xbbab9441	-0.005236179
71	0xbd530e3a	-0.05152724
72	0x3cd9a1c6	0.026566397
73	0xbc5c2b11	-0.013438002
74	0xb96c7d78	-0.00022553455
75	0xbd2c92a1	-0.042132024
76	0x3a892568	0.0010463418
77	0x3883f098	6.291381e-05
78	0x3c16a948	0.009195633
79	0x3b8824f7	0.004154797
80	0xbbfed160	-0.0077764243
81	0x3a0866d4	0.0005203311
82	0x3d233c3a	0.03985236
83	0x3cf26480	0.029588938
84	0xbca279b0	-0.019833416
85	0x3ba6a4f0	0.00508558
86	0xbb380016	-0.0028076223
87	0xbd2d1a78	-0.04226157
88	0x3d2e733a	0.042590357
89	0xbb0021f7	-0.0019551495
90	0xbd3ddad7	-0.04635128
91	0x3d37c1e8	0.044862658
92	0xbc825cc3	-0.015913373
93	0xbd55fe58	-0.052244514
94	0xb9217fb4	-0.0001540173
95	0x3d1ac37f	0.037784096
96	0xbb4d98b6	-0.003137154
97	0xbb4ab62a	-0.0030931332
98	0x3a842918	0.0010083048
99	0x3cd20600	0.025637627
100	0xbcae29b9	-0.02126013
101	0xbcdd6f70	-0.027030677
102	0xbd14a98e	-0.036294512
103	0x3cb79cfe	0.022413727
104	0x3c9ce305	0.01915122
105	0x3cf8fb27	0.030393196
106	0x3cb72257	0.022355242
107	0x3c7c01a6	0.015381252
108	0x3bbcea9f	0.0057652737
109	0x3d175957	0.036950435
110	0x3ce760bb	0.028244367
111	0xbd513fe4	-0.05108632
112	0xbc00b749	-0.007856199
113	0xb7b807e0	-2.1938176e-05
114	0xbd3897ae	-0.045066528
115	0xbbc0bce8	-0.0058818944
116	0x3a25a931	0.0006319462
117	0x3bddd09c	0.006769253
118	0x3d1f437b	0.038882714
119	0x3cc3134b	0.02381291
120	0xbc4fe151	-0.012687997
121	0x3b90c4ca	0.0044179903
122	0x3c935935	0.017986873
123	0x3d42481b	0.047432046
124	0x3b7683c7	0.0037615167
125	0x3d44758a	0.047963656
126	0xbd245bbe	-0.040126555
127	0xbd52157a	-0.051290013
128	0x3cc06e0d	0.023489976
129	0x3d4a504a	0.049392976
130	0x3d21eb6c	0.039531156
131	0x3a68afda	0.00088763016
132	0x3c356e16	0.01107361
133	0xbd1a8dc2	-0.037732847
134	0x3d279739	0.0409157
135	0xbc11adff	-0.008891582
136	0xbca7a81d	-0.020465905
137	0x3cb23930	0.021755785
138	0x3d387601	0.045034412
139	0xbba873f0	-0.005140774
140	0xbd3ac02d	-0.04559343
141	0xbb771261	-0.0037700164
142	0xbb9aa74a	-0.0047196494
143	0x3cc22deb	0.023703536
144	0x3bf573b6	0.0074906005
145	0x3d50f709	0.05101684
146	0xbc8c4be6	-0.017126035
147	0x3c8f1f81	0.017471077
148	0x3d165cd5	0.036709625
149	0xbd25fe8d	-0.04052596
150	0xbc3245d0	-0.010880902
151	0xbd51aac4	-0.051188245
152	0xbd578a3b	-0.05262206
153	0xbd05bab3	-0.032648753
154	0x3d3c2e40	0.045942545
155	0xbd2d58d6	-0.04232105
156	0xbbdccf76	-0.0067385985
157	0x3abe63ec	0.0014525629
158	0x38b49208	8.610269e-05
159	0x3c605e55	0.0136943655
160	0x3c283524	0.010266576
161	0x3d2297b8	0.03969547
162	0xbc2a089c	-0.010378029
163	0xbc25afb2	-0.01011269
164	0xbd04246b	-0.032261293
165	0xbc6c04f6	-0.01440548
166	0x3b86222d	0.0040934295
167	0xbcd96094	-0.02653531
168	0xbc2f77f9	-0.010709756
169	0x3d276e8e	0.040876918
170	0xbb18fa0b	-0.0023342397
171	0xbcd8c592	-0.026461396
172	0x39514fd0	0.00019961526
173	0xba8c7943	-0.0010717291
174	0x3d10fdfc	0.03539847
175	0x3cd894fe	0.026438233
176	0x3c9837c2	0.018581275
177	0x3ca31d28	0.019911364
178	0x3d42f98e	0.047601275
179	0xbc6a30d1	-0.014293865
180	0x3d068918	0.032845587
181	0xbd0906ba	-0.03345368
182	0x3cb791e6	0.022408437
183	0x3d1dbb85	0.03850891
184	0xbd516bcd	-0.051128197
185	0x3c2af594	0.010434527
186	0x3c8d54f9	0.017252432
187	0x3d2e764d	0.04259329
188	0x3d5ed52d	0.05440252
189	0xbc71919f	-0.014744191
190	0xbc41afd3	-0.011821705
191	0x3c6aa3a9	0.014321246
192	0xbcb4472c	-0.022006594
193	0x3d571fd3	0.052520584
194	0xbd1bd422	-0.038044102
195	0x3bf24b0d	0.0073942007
196	0xbd0be5aa	-0.03415457
197	0x3d27347d	0.04082154
198	0xbcf6626d	-0.03007623
199	0x3d21ebe4	0.039531603
200	0xbcddaa01	-0.027058603
201	0x3a019797	0.0004943548
202	0x3d591bc2	0.053004988
203	0xbccea330	-0.025224298
204	0xbd23875e	-0.039924018
205	0x3b1aadaa	0.0023602047
206	0x3c9daeb7	0.01924835
207	0xbd3a2c1d	-0.045452226
208	0xbd1b1ab0	-0.037867248
209	0x3b7e509e	0.0038805376
210	0x3cd24f27	0.025672508
211	0x3cf0fdb7	0.029417856
212	0xbd2a0cad	-0.041515995
213	0x3d3e4a90	0.046457827
214	0xbcecb918	-0.028896853
215	0x3d08b70f	0.033377703
216	0xbd511d81	-0.051053528
217	0x3c136c6c	0.008998018
218	0x3d54a116	0.051911436
219	0xbc0181bc	-0.007904466
220	0x3cbeb1fd	0.02327823
221	0xbc30d1f7	-0.010792247
222	0xbce3e5cb	-0.027819535
223	0xbcf0a4b6	-0.029375415
224	0xba00f3fe	-0.000491917
225	0x3cee5532	0.029093359
226	0x3d239006	0.039932273
227	0xbcdd895f	-0.027043043
228	0x3d2282c6	0.039675497
229	0x3ce10c9d	0.027471835
230	0xbc437480	-0.011929631
231	0x3ceb0109	0.028687017
232	0xbd0cb34c	-0.03435068
233	0x3a93939e	0.0011259203
234	0x3ca0ba70	0.01962015
235	0x3c3d05ab	0.011536996
236	0xbc9190fb	-0.017769327
237	0x3a98c4b8	0.0011655306
238	0xbd1b9f56	-0.03799375
239	0xba8b78a0	-0.0010640807
240	0xbc1aa9e8	-0.009439923
241	0x3c8dafcc	0.01729574
242	0xbc801390	-0.015634328
243	0xbd2f3122	-0.042771466
244	0x3cd71bfc	0.026258461
245	0x3d0ae02a	0.033905186
246	0x3c3f8429	0.011689224
247	0xbcdaa297	-0.026688857
248	0xbce37ae0	-0.027768552
249	0xbc045c36	-0.008078625
250	0xbd2f664c	-0.042822167
251	0xbd043036	-0.03227254
252	0x3d232388	0.039828807
253	0x3ca7b0a5	0.020469973
254	0x3c8694f3	0.016428446
255	0xba87db41	-0.0010365025

conv5.bias f4 [32]
0	0x3cb8c1c9	0.022553341
1	0xbbb4613b	-0.005504755
2	0xbca70ee6	-0.020392846
3	0x3c6bb646	0.014386719
4	0x3c952f60	0.018211067
5	0xbbc6f946	-0.006072196
6	0x3d41fe70	0.04736179
7	0xbcd78b1f	-0.026311455
8	0x3c82fb48	0.01598896
9	0x3d29a011	0.041412417
10	0x3ce5aba5	0.028035948
11	0xbd2e8a30	-0.042612255
12	0xbcf419ae	-0.029797401
13	0x3cc7f01e	0.024406489
14	0x3ce3b3e6	0.027795743
15	0xbd05ed7d	-0.03269719
16	0xbd3d1e00	-0.04617119
17	0x3b174aaa	0.0023085275
18	0xbd0c9607	-0.034322765
19	0x3cb4fc86	0.022093069
20	0x3c247e50	0.010039881
21	0x3bce404c	0.006294286
22	0xbad4bb47	-0.0016230129
23	0x3c38d7a0	0.011281878
24	0xbd536274	-0.051607564
25	0x3bda7ce3	0.0066677197
26	0xbbc75194	-0.006082723
27	0xbba4ba5c	-0.0050270986
28	0xb9b0e0f0	-0.00033736927
29	0xbc951d36	-0.018202405
30	0x3d1f69d2	0.038919277
31	0xbbf0abdd	-0.0073447064

conv6.weight f4 [32, 32, 3, 3]
0	0x3d1e7930	0.038689792
1	0x3c1810d6	0.009281358
2	0x3d4e57a0	0.050376534
3	0xbba00832	-0.0048837895
4	0xbcfb260c	-0.03065779
5	0xbd3d6a46	-0.04624393
6	0xbbc63e9a	-0.006049943
7	0xba4682cd	-0.00075725914
8	0xbc86c328	-0.01645048
9	0xbd037e87	-0.032103088
10	0x3d58d95e	0.052941673
11	0x3b086e67	0.0020817758
12	0x39caf88a	0.00038713618
13	0x3d3a924e	0.045549683
14	0x3d06e829	0.03293625
15	0xbce74f14	-0.02823595
16	0x3c651192	0.01398124
17	0xbc8c5fc8	-0.017135516
18	0x3ca5eabb	0.02025353
19	0xbd54941b	-0.051899057
20	0x3d15387c	0.03643082
21	0x3cc9d086	0.024635565
22	0xbbd18056	-0.0063934727
23	0x3c2744fa	0.010209316
24	0x3d0088c6	0.031380437
25	0xbd0a897d	-0.033822525
26	0x3b1fdb45	0.002439217
27	0x3c998cfc	0.018743984
28	0xbbe368a7	-0.0069399658
29	0x3c88d97e	0.01670527
30	0x3cec3358	0.028833076
31	0x3d391de0	0.045194507
32	0xbcb1c27e	-0.021699186
33	0xbd02b623	-0.03191198
34	0xbbe25a2a	-0.006907721
35	0x3cb81eec	0.022475682
36	0xbd3560a9	-0.044281635
37	0x3d332091	0.04373223
38	0xbd590e4c	-0.05299215
39	0xbd0db48d	-0.034596015
40	0xbd118a7d	-0.035532463
41	0xbbc19cf7	-0.0059086042
42	0x3d0e89fc	0.03479956
43	0xbba64338	-0.005073931
44	0x3c87753c	0.016535394
45	0x3d5b6ff2	0.053573556
46	0xba2d6257	-0.000661408
47	0xbcb028b7	-0.02150379
48	0xbc8fc656	-0.017550629
49	0x3d19f042	0.037582643
50	0x3ca5e3c5	0.02025021
51	0xbc76536b	-0.015034537
52	0xbd17df76	-0.037078343
53	0xbd30a9f0	-0.043130815
54	0x3b5d957a	0.0033811019
55	0x3b924019	0.0044632074
56	0xbd190c14	-0.037365034
57	0xbb238052	-0.002494831
58	0xbd1eeda8	-0.038800865
59	0xbc0787b8	-0.008272104
60	0x3ca6bfca	0.020355124
61	0x3c5ed828	0.01360134
62	0x3b2697b3	0.002542001
63	0x3ae62460	0.0017558448
64	0xbcdca7ce	-0.026935484
65	0xbd4800d6	-0.048828922
66	0xbd3a69e3	-0.045511138
67	0x3c59e2fe	0.013298748
68	0xb9cce126	-0.0003907766
69	0xbd5d04b3	-0.05395956
70	0xba01c84f	-0.0004950808
71	0xbcfc1093	-0.030769622
72	0x3c33cdd8	0.01097437
73	0x3d2b0242	0.0417502
74	0xbd43784f	-0.047722157
75	0x3cd7cdce	0.026343253
76	0x3c2fc09c	0.010727074
77	0x3d2dc65c	0.0424255
78	0x3d57ed0b	0.052716296
79	0x3cc31295	0.023812572
80	0x3b90a6e6	0.004414427
81	0xbcee293d	-0.029072398
82	0x3cd033dd	0.025415355
83	0xbd3f7a95	-0.046747763
84	0xbd2f4110	-0.042786658
85	0xbc8b42bf	-0.0169996
86	0xb9d97488	-0.00041476288
87	0xbc236fd3	-0.009975391
88	0xbc7ef89b	-0.015562202
89	0xbc7b1f0c	-0.015327226
90	0x3bf0ed8c	0.0073525365
91	0x3bdf6f51	0.00681869
92	0xba4d283d	-0.00078261254
93	0x3d015b65	0.0315813
94	0xbccce23e	-0.025010224
95	0xbcbe90df	-0.02326244
96	0xbc732959	-0.014841401
97	0x3d11dcdd	0.035611022
98	0xbd1e21c9	-0.03860644
99	0x3d178709	0.036994014
100	0xbc6ae37b	-0.014336462
101	0xbd46189d	-0.048363317
102	0xbba602b7	-0.0050662416
103	0xbcc975c2	-0.024592284
104	0xbcb5b9f8	-0.022183403
105	0xbd1f9c2b	-0.038967293
106	0x3c4a6a53	0.012354451
107	0x3c1ad19a	0.009449387
108	0x3d48e957	0.049050655
109	0x3d5e8fe0	0.05433643
110	0xbd199467	-0.037495043
111	0xbd220bd7	-0.039562073
112	0xbca41608	-0.020030037
113	0xbcd7a22e	-0.02632245
114	0xbd434055	-0.047668774
115	0x3b8abf9a	0.0042342665
116	0xbbac638c	-0.0052608903
117	0x3d4100a9	0.04711977
118	0x3d22aa4b	0.039713185
119	0x3d0a2ce7	0.03373423
120	0x3c2d3d8a	0.010573754
121	0xbc69ea19	-0.014277005
122	0x3be184a1	0.0068822657
123	0xbc41452a	-0.011796275
124	0x3c8b2b2a	0.016988356
125	0x3cdac8ba	0.026707042
126	0x3d2d65b6	0.042333327
127	0x3c5586b8	0.013032608
128	0x3d0a8ed7	0.03382763
129	0xbd4a8288	-0.04944089
130	0x3cfb6b77	0.030690892
131	0xbcf4b8f5	-0.02987335
132	0xba1b81f4	-0.0005932145
133	0x3d238148	0.039918214
134	0x3d3f1005	0.046646137
135	0xbd49d313	-0.04927356
136	0xbd48755e	-0.048940055
137	0x3bc80e24	0.0061052013
138	0x3d537789	0.05162767
139	0xbc83ed1c	-0.016104273
140	0x3bb53709	0.0055302423
141	0x3bf7c1b6	0.007560934
142	0x3c8d1d22	0.017225806
143	0xbc8ce872	-0.017200682
144	0x3c912bcd	0.017721081
145	0xbd12a412	-0.035801
146	0x3c934246	0.017975938
147	0xbd14c87a	-0.036324
148	0x3c1f2bb5	0.00971501
149	0x3938c3c4	0.00017620536
150	0xbd49fa9d	-0.04931127
151	0x3a021e31	0.00049636053
152	0xbc59409d	-0.013260034
153	0xbce6607c	-0.02812218
154	0xbd0c7ec7	-0.03430059
155	0x3d19fa91	0.037592474
156	0xbd020622	-0.03174413
157	0x3cf0b175	0.029381493
158	0x3d2c71d0	0.042100728
159	0x3d050cbb	0.032482844
160	0x3caac62d	0.02084645
161	0xbad07ece	-0.0015906931
162	0x3d49bb2b	0.049250763
163	0xba16d28e	-0.0005753421
164	0xbcf39a80	-0.029736757
165	0x3cfa4cb9	0.030554162
166	0xbd18f234	-0.037340358
167	0x3d1cb2d6	0.03825649
168	0x3d5af21e	0.053453557
169	0x3cf1fdc8	0.029539958
170	0xbc23640f	-0.009972586
171	0xbd0acd35	-0.033887107
172	0xbd2b7ff8	-0.041870087
173	0x3d257280	0.0403924
174	0xbd5051d2	-0.05085928
175	0xbd1785f7	-0.036992993
176	0xbce643f5	-0.028108576
177	0x3d57c1de	0.05267512
178	0xbd298e2d	-0.041395355
179	0xbd3e632f	-0.046481308
180	0xbd11f0fd	-0.035630215
181	0x3d15b75a	0.03655181
182	0xbced64e6	-0.028978776
183	0xb81e1b20	-3.7695398e-05
184	0xbd5bd482	-0.05366946
185	0xbce4fb07	-0.02795173
186	0xbd172f96	-0.036910616
187	0x3ce1bbd7	0.02755539
188	0x3d5b455b	0.05353294
189	0x3ce29ab5	0.02766166
190	0xbced22c1	-0.028947236
191	0xbd090c18	-0.0334588
192	0xbc1b5638	-0.009481005
193	0xbd02ca27	-0.03193107
194	0x3d42f23f	0.047594305
195	0x3d55b042	0.052170046
196	0xbbf2b0f6	-0.0074063493
197	0xbaa0f936	-0.0012281302
198	0xbb53f581	-0.0032342377
199	0xbc4ef343	-0.01263124
200	0xbd54bbc8	-0.051936895
201	0xbca8387b	-0.020534744
202	0x3cdd4b43	0.027013427
203	0xbd22f6b3	-0.039786052
204	0x3d386d59	0.045026157
205	0x3cb3fb7a	0.0219705
206	0x3d070edd	0.03297316
207	0x3bb0b1a3	0.0053922697
208	0xbba79e70	-0.005115323
209	0xbd48be36	-0.049009524
210	0x3b93bc4d	0.004508531
211	0x3d4fa498	0.05069408
212	0xbc66be46	-0.014083451
213	0x3b037552	0.0020058942
214	0xbb7dcd03	-0.0038726933
215	0xbb8fe080	-0.004390776
216	0xb83801f0	-4.3870823e-05
217	0x3c9c1c8d	0.019056583
218	0x3c4520e7	0.01203177
219	0x3d0c30be	0.03422617
220	0x3c0d93ba	0.008641178
221	0x3d03da66	0.032190703
222	0x3d188d41	0.037244085
223	0xbaf447be	-0.0018637103
224	0x3d03b701	0.032156948
225	0x3d0dd5e7	0.03462782
226	0xbd210f9f	-0.039321538
227	0xbbb3c88a	-0.0054865526
228	0x3c8e65e4	0.01738257
229	0xbc194c35	-0.009356548
230	0xbc38f242	-0.0112882275
231	0xbd17ce2d	-0.03706186
232	0x3d3bc482	0.0458417
233	0x3ca7b72f	0.020473091
234	0xbc3ddea2	-0.011588724
235	0x3d55b4cc	0.052174374
236	0x3b926787	0.004467908
237	0x3d5cc39c	0.053897485
238	0x3bdb7694	0.006697485
239	0xbce51e9f	-0.027968703
240	0x3d597503	0.053090107
241	0xbcd0ebd0	-0.02550307
242	0xbc838517	-0.016054673
243	0xbcb34ec8	-0.021888152
244	0xbd44eb17	-0.04807576
245	0xbcfe4cd8	-0.031042501
246	0x3c841661	0.016123952
247	0x3d532a81	0.051554207
248	0x3d44e217	0.04806718
249	0xbbbae0e0	-0.0057030767
250	0x3d5ab8fd	0.053399075
251	0xbd325b8b	-0.043544333
252	0xb8102580	-3.43672e-05
253	0x3d139058	0.03602633
254	0xbc03f612	-0.008054273
255	0xbcefe7bd	-0.029285306

conv6.bias f4 [32]
0	0xbc217f82	-0.00985706
1	0xbc3eca37	-0.011644891
2	0x3d4e0cc5	0.050305147
3	0xbcd0dc93	-0.025495803
4	0xbcad8376	-0.02118085
5	0xbd154ec0	-0.036452055
6	0xbd5ab4a1	-0.053394917
7	0xb9ac2aec	-0.00032838376
8	0xbd36cbd7	-0.04462799
9	0xbca57cc1	-0.020201089
10	0xbcc8fc77	-0.024534447
11	0x3a9a04e4	0.0011750725
12	0xbd0627d0	-0.032752812
13	0xbd56a665	-0.05240478
14	0xba65cf43	-0.0008766541
15	0xbd2e4bac	-0.042552635
16	0x3cb69a67	0.022290422
17	0xbd2fe35a	-0.04294143
18	0x3c1db733	0.009626198
19	0xbcf2ec98	-0.029653832
20	0x3d04a5ef	0.03238481
21	0xbb9955ee	-0.004679433
22	0xbc940681	-0.018069508
23	0xba1903d0	-0.0005837055
24	0x3b266654	0.0025390582
25	0xbce065d4	-0.027392305
26	0x3c2c0ae4	0.010500643
27	0x3d5f49d0	0.054513752
28	0xbd0c0188	-0.034181148
29	0x3d413049	0.04716519
30	0x3d50d724	0.050986424
31	0xbcbe82ee	-0.023255792

conv7.weight f4 [2, 32, 1, 1]
0	0xbe150a08	-0.14554608
1	0x3d63494c	0.055489823
2	0x3dd14b6a	0.10219462
3	0xbe0c66c6	-0.1371108
4	0x3d8497ff	0.064743035
5	0x3dcc84d3	0.09986272
6	0x3e04b649	0.12960161
7	0x3dfa9cc9	0.12236936
8	0xbe1b39a9	-0.15158714
9	0x3e28bd46	0.16478452
10	0xbcac2cae	-0.021017399
11	0xbd8e4427	-0.06946593
12	0x3d59c4ed	0.05316632
13	0x3e03c6bc	0.1286878
14	0x3d960cfa	0.07326694
15	0x3e149109	0.14508452
16	0x3d10cd67	0.035352137
17	0x3e0529c1	0.13004209
18	0xbdf7693f	-0.12080621
19	0x3c4e6892	0.012598174
20	0xbe02f773	-0.12789707
21	0x3d1fbb87	0.0389972
22	0x3e088327	0.1333128
23	0xbe21fb38	-0.15818489
24	0x3c5fbe06	0.013656145
25	0x3e26fbe9	0.16307034
26	0xbdf7ebc9	-0.12105519
27	0xbcdc6614	-0.026904143
28	0xbcf8527f	-0.030312775
29	0x3dbd2081	0.09234715
30	0x3c1d1c04	0.009589199
31	0x3e18c5b9	0.14919175
32	0xbc9d2207	-0.019181265
33	0xbd369daf	-0.044583973
34	0xbd06ee53	-0.032942127
35	0xbe17e3ef	-0.14833044
36	0x3e2d1c3e	0.16905305
37	0xbd6c789a	-0.057732202
38	0xbe1d8b83	-0.15385251
39	0x3dcef621	0.10105539
40	0xbb1b5643	-0.002370254
41	0x3dade949	0.08491761
42	0xbe2bf3ba	-0.16792193
43	0x3deb49b2	0.11488666
44	0xbd8aa96b	-0.06770595
45	0xbd548d0e	-0.051892333
46	0x3e1e0f9f	0.15435646
47	0xbcc75ebe	-0.024337169
48	0xbcc8d85f	-0.024517236
49	0xbd127498	-0.035755724
50	0xbda62050	-0.08111632
51	0xbd24e5c5	-0.040258188
52	0x3d605248	0.05476597
53	0xbdac3122	-0.08407809
54	0xb8bebcf8	-9.095104e-05
55	0xbe23d5e7	-0.15999566
56	0xbbcfbbf9	-0.0063395468
57	0xbd8321b6	-0.06402914
58	0x3d90e698	0.07075232
59	0xbdb00e1b	-0.085964404
60	0x3c7033b6	0.014660766
61	0xbd77007a	-0.06030319
62	0x3dc2c95c	0.095110625
63	0xbe2cd077	-0.16876398

conv7.bias f4 [2]
0	0x3e29d0b5	0.16583522
1	0xbd506290	-0.050875247

transconv1.weight f4 [32, 2, 1, 1]
0	0x3d977b92	0.07396616
1	0x3e918e0b	0.28428683
2	0x3f0248bc	0.50892234
3	0x3ed8e904	0.42365277
4	0xbd5e50b2	-0.054276176
5	0xbe647deb	-0.22313659
6	0xbeca1674	-0.39470255
7	0xbef5509b	-0.4791306
8	0x3e45053b	0.19240277
9	0xbe558bc5	-0.20854099
10	0x3db1a649	0.086742945
11	0x3f26b6c5	0.65122634
12	0x3ef42eb3	0.4769188
13	0x3f1ced3f	0.6129951
14	0xbf1141d8	-0.56741095
15	0xbe8b8f35	-0.27257696
16	0xbf17abf5	-0.5924676
17	0x3edd1cfc	0.43186176
18	0xbf1becd7	-0.60908264
19	0xbeacb1dc	-0.33729446
20	0x3d7ac49f	0.06122267
21	0xbedad91a	-0.4274376
22	0xbf24ee79	-0.6442638
23	0x3f2acc5c	0.6671808
24	0xbecdb4a2	-0.40176874
25	0x3e7eff93	0.24902181
26	0xbea327c1	-0.31866267
27	0x3e6c6476	0.23085198
28	0x3f0f361b	0.55941933
29	0x3f0f655d	0.56014043
30	0x3f020687	0.5079121
31	0x3ee35ff8	0.44409156
32	0x3f2dc400	0.678772
33	0xbe05e8f7	-0.1307715
34	0xbedf6256	-0.43629712
35	0xbed56ebe	-0.41686052
36	0x3f1b1a9f	0.60587496
37	0xbed14601	-0.4087372
38	0xbee20413	-0.44143733
39	0xbef232ef	-0.47304484
40	0x3ee7abcf	0.45248267
41	0xbf09efe2	-0.5388166
42	0x3f2d0dce	0.6759919
43	0x3e61f911	0.22067668
44	0x3d8b470b	0.0680066
45	0x3ee85d7f	0.45383832
46	0x3ebdf97d	0.37104407
47	0x3f034475	0.5127633
48	0xbf045be7	-0.5170273
49	0x3d86480f	0.06556713
50	0x3e3db80b	0.18527238
51	0xbef7442d	-0.48294201
52	0x3eee79ef	0.46577403
53	0xbef7b9be	-0.48383898
54	0xbed6afef	-0.41931102
55	0x3eff8ab1	0.499105
56	0xbf0c8f8b	-0.5490653
57	0x3edf9390	0.4366727
58	0xbf1c10c2	-0.6096307
59	0x3d69bc1d	0.057064164
60	0x3eec9ef3	0.4621502
61	0x3db1a268	0.08673555
62	0xbee639e4	-0.44966042
63	0x3e8e0ee5	0.2774574

transconv1.bias f4 [32]
0	0x3ebca484	0.36844265
1	0x3f2fd3e8	0.6868272
2	0xbe3ee806	-0.18643197
3	0xbf0c430a	-0.54789793
4	0x3e0a9e13	0.13536863
5	0xbf056616	-0.52108896
6	0xbecc8d20	-0.3995142
7	0x3ef3fb30	0.47652578
8	0xbd276c55	-0.040874798
9	0x3f2ccc03	0.674988
10	0x3f28ef5e	0.65990245
11	0x3e039cf4	0.12852842
12	0x3da5891e	0.08082794
13	0x3f2309b8	0.63686705
14	0x3f0facee	0.56123245
15	0x3f3305b0	0.69930553
16	0x3e494079	0.196535
17	0xbc82f496	-0.015985768
18	0x3ee8f3bf	0.45498464
19	0xbce93766	-0.028468799
20	0xbf24690d	-0.64222795
21	0xbddb3113	-0.107027195
22	0xbe8a9893	-0.2706953
23	0xbd85c256	-0.06531207
24	0x3f214c05	0.6300662
25	0xbf1e3529	-0.61799866
26	0xbf1304e6	-0.5742935
27	0xbe19211e	-0.1495404
28	0x3ab0f2a1	0.0013500043
29	0x3e9f5282	0.31117636
30	0x3dba9fbc	0.09112498
31	0xbecb3551	-0.39689115
