wentao_models/log_ConvAutoencoder_conv1x1_512_tanh_out/bionoi_autoencoder.pt (torch_old, 265716 bytes, 20 tensors)

module.conv1.weight f4 [16, 3, 3, 3]
-0.019839007 -0.020823603 -0.020847183 -0.016313782 -0.016078398 -0.01635516 -0.008572519 -0.00945804
-0.008100536 0.047629096 0.053756487 0.054361295 0.043858908 0.051087923 0.051109876 0.030470628
0.035032663 0.037487246 0.13477959 0.14078008 0.14104678 0.12852663 0.13466688 0.13464527
0.110731654 0.115042076 0.11622775 0.13082351 0.13226737 0.13036944 0.14143158 0.14400628
0.1402989 0.13924202 0.14062226 0.13751468 0.038372487 0.036332823 0.034388788 0.049945325
0.04925841 0.045816146 0.046434395 0.044174563 0.042004094 -0.062790304 -0.06768997 -0.067127645
-0.06009373 -0.064192854 -0.06409984 -0.06092561 -0.06584049 -0.064420834 -0.0026744495 -0.0030791697
-0.0047881515 0.010664688 0.012679776 0.008972209 0.0129940165 0.012449494 0.0116902115 0.092410184
0.10086441 0.097856306 0.10333835 0.115133956 0.10857665 0.08069437 0.088045366 0.08628938
0.16504814 0.1740301 0.17151874 0.16663796 0.17712411 0.172612 0.1413469 0.14893551
0.14689977 -0.05912824 -0.057004016 -0.056608785 -0.05943224 -0.05732169 -0.05712721 -0.057783123
-0.055955708 -0.05547568 -0.023903077 -0.020935092 -0.02090926 -0.021353807 -0.018116502 -0.018830748
-0.023456614 -0.020727623 -0.020781431 0.055064756 0.05617968 0.055699177 0.057575148 0.058927532
0.057679 0.05490171 0.055736434 0.054988205 0.10949905 0.112265065 0.10702841 0.13069738
0.13486171 0.12657547 0.13814186 0.14107607 0.1329403 0.04926905 0.047335207 0.0447278
0.06892384 0.069386005 0.063346654 0.07533564 0.074797414 0.06947472 -0.013279777 -0.016705208
-0.015346524 -0.008728293 -0.010511298 -0.010988914 -0.008334834 -0.010542014 -0.010176932 6.266141e-09
6.3588845e-09 6.2025776e-09 6.4713777e-09 6.559787e-09 6.4116885e-09 6.3217076e-09 6.373377e-09 6.263865e-09
1.2794352e-09 1.3480405e-09 1.1937338e-09 1.1063483e-09 1.1370488e-09 1.0210695e-09 8.168011e-10 8.0691664e-10
6.92923e-10 -8.892997e-10 -8.598974e-10 -1.0005513e-09 -1.15185e-09 -1.1638294e-09 -1.2821393e-09 -1.5169659e-09
-1.5675048e-09 -1.6760805e-09 -0.029023375 -0.027648473 -0.026707463 -0.030591173 -0.028309971 -0.028557988
-0.030820122 -0.029432695 -0.028897667 -0.0106225815 -0.009367159 -0.007309567 -0.011167994 -0.008969694
-0.008340323 -0.011483519 -0.010621406 -0.009104249 0.0072509088 0.0067507145 0.0074854065 0.008330924
0.008369838 0.007947668 0.009535154 0.008526345 0.008693068 -0.07595406 -0.072308555 -0.06988081
-0.08016837 -0.074067995 -0.07478789 -0.08078275 -0.07705743 -0.07569235 -0.026637984 -0.023655433
-0.01833551 -0.028203126 -0.022600394 -0.021060906 -0.029108698 -0.026959393 -0.023059718 0.017830309
0.01649009 0.018579641 0.020572681 0.020722087 0.019782351 0.023735825 0.021125836 0.02173862
-1.8753331e-05 -1.7895776e-05 -1.7290398e-05 -1.8920928e-05 -1.7713186e-05 -1.7781265e-05 -1.8394e-05 -1.7646542e-05
-1.7317407e-05 -8.083919e-06 -6.6730786e-06 -5.1734874e-06 -8.419097e-06 -6.657444e-06 -6.1487194e-06 -8.8341185e-06
-8.020363e-06 -6.9964112e-06 7.385327e-06 7.4951154e-06 8.050569e-06 7.91586e-06 8.226516e-06 7.950614e-06
7.867486e-06 7.460199e-06 7.5838057e-06 -0.0018636448 -0.0021663958 -0.0034835925 0.008366284 0.009930317
0.0070847487 0.010148915 0.009731038 0.009148416 0.07132649 0.078149565 0.07601443 0.07953279
00000000: 6a85 a2bc 4396 aabc b6c7 aabc 7ba4 85bc
00000010: d8b6 83bc 42fb 85bc c073 0cbc e5f5 1abc
00000020: 1cb8 04bc ba16 433d c32f 5c3d f3a9 5e3d
00000030: 66a5 333d 9241 513d 9758 513d 8a9d f93c
00000040: 697e 0f3d 3a8c 193d a903 0a3e a728 103e
00000050: 916e 103e 7c9c 033e 1de6 093e 73e0 093e
00000060: 47c7 e23d 2e9b eb3d d108 ee3d 99f6 053e
00000070: 1971 073e 917f 053e 71d3 103e 6276 133e
00000080: 84aa 0f3e 7695 0e3e 48ff 0f3e a6d0 0c3e
00000090: 782c 1d3d bad1 143d 42db 0c3d 7893 4c3d
000000a0: 30c3 493d b6a9 3b3d fe31 3e3d 63f0 343d
000000b0: 7c0c 2c3d 3498 80bd 0aa1 8abd 387a 89bd
000000c0: d824 76bd 8b77 83bd c746 83bd 228d 79bd
000000d0: 61d7 86bd 12ef 83bd d145 2fbb e5cb 49bb
000000e0: ede5 9cbb f2ba 2e3c d6be 4f3c 2c00 133c
000000f0: dbe4 543c f6f8 4b3c 4d88 3f3c 8d41 bd3d
00000100: 0092 ce3d e368 c83d 0fa3 d33d 5acb eb3d
00000110: 6f5d de3d 1743 a53d 2151 b43d 7db8 b03d
00000120: 6102 293e f234 323e 9ca2 2f3e 24a3 2a3e
00000130: 0660 353e 33c1 303e 3ebd 103e 8d82 183e
00000140: e56c 163e 7430 72bd 0b7d 69bd 9dde 67bd
00000150: 386f 73bd 26ca 6abd 39fe 69bd ffad 6cbd
00000160: d031 65bd 773a 63bd 63d0 c3bc 1280 abbc
00000170: e549 abbc 2eee aebc 0f69 94bc f142 9abc
00000180: 1628 c0bc facc a9bc d23d aabc 958b 613d
00000190: aa1c 663d d224 643d ebd3 6b3d ff5d 713d
000001a0: d140 6c3d 9ee0 603d e34b 643d 503b 613d
000001b0: 0a41 e03d 3aeb e53d b631 db3d 89d5 053e
000001c0: 3019 0a3e 009d 013e 0f75 0d3e 3f76 103e
000001d0: 8121 083e 58ce 493d 90e2 413d 7f34 373d
000001e0: f127 8d3d 401a 8e3d e4bb 813d 9249 9a3d
000001f0: 632f 993d c348 8e3d 6c93 59bc 5cd9 88bc
00000200: fd6f 7bbc 1d01 0fbc 9437 2cbc d90a 34bc
00000210: d48e 08bc 69b8 2cbc 26bd 26bc 8f4d d731
00000220: 577d da31 731e d531 d75a de31 7f64 e131
00000230: cf4d dc31 5436 d931 d1fc da31 8a39 d731
00000240: 20d8 af30 f545 b930 c610 a430 2c0e 9830
00000250: 5946 9c30 b055 8c30 4585 6030 b6cd 5d30
00000260: 1f78 3e30 e772 74b0 e65d 6cb0 c583 89b0
00000270: 1e4f 9eb0 9bf4 9fb0 4437 b0b0 7e7d d0b0
00000280: ac6f d7b0 d75b e6b0 6ec2 edbc 0d7f e2bc
00000290: 9cc9 dabc 579a fabc 50ea e7bc 71f2 e9bc
000002a0: 7b7a fcbc d61c f1bc cdba ecbc 560a 2ebc
000002b0: b678 19bc 1885 efbb f6f9 36bc a0f5 12bc
000002c0: daa5 08bc 5f25 3cbc 6805 2ebc fd29 15bc
000002d0: 0899 ed3b 1935 dd3b 2448 f53b 6e7e 083c
000002e0: a521 093c f036 023c 5639 1c3c 15b2 0b3c
000002f0: 5f6d 0e3c cd8d 9bbd 8216 94bd ac1d 8fbd
00000300: 502f a4bd f6b0 97bd 652a 99bd 6d71 a5bd
00000310: 49d0 9dbd 9704 9bbd e737 dabc 0ac9 c1bc
00000320: 5a34 96bc 3e0a e7bc 7624 b9bc ec87 acbc
00000330: 5d75 eebc f2d9 dcbc bce7 bcbc de10 923c
00000340: 3a16 873c 5534 983c 0a88 a83c 5ec1 a93c
00000350: 990e a23c a271 c23c 1710 ad3c 3115 b23c
00000360: 7950 9db7 e31e 96b7 d90a 91b7 62b8 9eb7
00000370: c796 94b7 fa28 95b7 d04c 9ab7 a907 94b7
00000380: d944 91b7 2ba0 07b7 4fe9 dfb6 eb97 adb6
00000390: bf3f 0db7 0263 dfb6 1951 ceb6 4036 14b7
000003a0: 328f 06b7 b7c2 eab6 7acf f736 8d7e fb36
000003b0: ee10 0737 5cce 0437 9e04 0a37 a163 0537
000003c0: 98fe 0337 9f52 fa36 6578 fe36 8b45 f4ba
000003d0: 17fa 0dbb fc4c 64bb bd12 093c c5b2 223c
000003e0: 2e27 e83b a347 263c ee6e 1f3c 3de3 153c
000003f0: 9f13 923d e10c a03d 74ad 9b3d 16e2 a23d

module.conv1.bias f4 [16]
0.22385645 0.18064232 0.21459995 0.13417107 0.1201268 -3.3558013e-08 0.15970844 0.41504776
0.000102312755 0.1665022 0.42012438 0.10102747 0.054106247 -1.241349e-10 -3.374267e-06 0.4513735
00000000: a03a 653e 4dfa 383e 17c0 5b3e 2464 093e
00000010: 0a05 f63d 6d21 10b3 9c8a 233e 2481 d43e
00000020: be90 d638 8d7f 2a3e 8b1a d73e 7de7 ce3d
00000030: 839e 5d3d de7c 08af 7771 62b6 6d1a e73e

module.conv2.weight f4 [32, 16, 3, 3]
0.0046322444 -0.0006486581 0.00030702347 -0.000104079845 -0.0035812154 -0.0035716724 0.005763658 0.002543967
0.0038036886 0.046975978 0.045147635 0.050249837 0.040021908 0.038526576 0.04439959 0.033653375
0.03457143 0.04030449 -0.013783473 -0.02174724 -0.019510861 -0.019211527 -0.023370232 -0.022659937
-0.010731418 -0.014654932 -0.010990588 0.022597779 0.022080222 0.020580668 0.0222545 0.021516332
0.019460568 0.023469456 0.021945175 0.019980142 0.025189552 0.021985661 0.026274337 0.019283889
0.016838286 0.021587238 0.01633394 0.017352797 0.02181665 5.7094e-10 4.1897594e-10 1.1817854e-10
8.868847e-10 5.969498e-10 7.431568e-11 7.01449e-10 4.3278672e-10 -4.73269e-11 0.018145708 0.017870137
0.017368903 0.018266873 0.01808083 0.017259078 0.018786369 0.017635923 0.017268155 0.047482125
0.0468514 0.045567364 0.04791107 0.047434226 0.04533844 0.049226847 0.046243124 0.04529276
1.2059877e-05 1.1719931e-05 1.1355791e-05 1.2010158e-05 1.1886866e-05 1.13211e-05 1.2530498e-05 1.1682331e-05
1.1614231e-05 -0.01055698 -0.01672679 -0.015046218 -0.014828808 -0.018045463 -0.017525734 -0.008293758
-0.011320349 -0.008523139 0.056385692 0.05591487 0.0600906 0.05005616 0.049822234 0.05447502
0.046530165 0.04673537 0.05140861 -0.020512039 -0.02771255 -0.024647338 -0.026900131 -0.031787053
-0.028712386 -0.017394366 -0.020387001 -0.016041385 0.00452698 8.044358e-05 0.003674992 -0.0013625302
-0.004768753 -0.00072251045 -0.0019271647 -0.0018967143 0.0023878813 5.831625e-12 5.777789e-12 5.8749503e-12
6.4485643e-12 5.636133e-12 6.9767642e-12 8.5331525e-12 8.323131e-12 9.262185e-12 -6.691219e-08 -1.2258974e-07
-1.2202294e-07 -1.9064203e-07 -2.2916302e-07 -1.9654944e-07 -1.01375036e-07 -1.392301e-07 -7.874449e-08 0.059636176
0.059533615 0.059595685 0.057571627 0.057490177 0.057274565 0.05722539 0.055892345 0.056014493
-4.484569e-10 -4.4587e-10 -4.5059548e-10 -4.4658885e-10 -4.4284382e-10 -4.467389e-10 -4.4916923e-10 -4.4500648e-10
-4.4690449e-10 -6.11917e-11 -6.4069076e-11 -6.528646e-11 -6.820399e-11 -7.1614104e-11 -7.318944e-11 -7.57511e-11
-8.01511e-11 -8.1770965e-11 -4.6243462e-10 -4.5999488e-10 -4.6416712e-10 -4.6329895e-10 -4.5977624e-10 -4.628593e-10
-4.6544077e-10 -4.620068e-10 -4.6286996e-10 -2.6197555e-10 -2.5885868e-10 -2.6772823e-10 -2.5015676e-10 -2.464132e-10
-2.5525398e-10 -2.5312782e-10 -2.4971947e-10 -2.5743782e-10 -2.3163055e-10 -2.333226e-10 -2.3359834e-10 -2.4074676e-10
-2.4229674e-10 -2.4356228e-10 -2.5047975e-10 -2.5356117e-10 -2.5387567e-10 8.1020823e-10 1.9202215e-10 6.580047e-10
-2.599991e-05 -1.6262149e-10 -8.064369e-11 5.6918694e-08 -1.4844601e-08 2.8730116e-11 -2.4491767e-10 -2.4080243e-10
-2.4918867e-10 -2.3309743e-10 -2.2843048e-10 -2.368805e-10 -2.3836555e-10 -2.338115e-10 -2.4073377e-10 -3.064924e-10
-3.0200054e-10 -3.0612504e-10 -2.9896496e-10 -2.9335204e-10 -2.960383e-10 -2.964792e-10 -2.897968e-10 -2.9144157e-10
7.154033e-13 7.2400023e-13 7.109882e-13 7.58565e-13 7.7052595e-13 7.5586564e-13 7.3498445e-13 7.489443e-13
7.3781286e-13 -4.4483983e-10 -4.425987e-10 -4.466519e-10 -4.4481072e-10 -4.4134885e-10 -4.4405665e-10 -4.4732731e-10
-4.4348258e-10 -4.4392878e-10 8.696905e-12 7.746722e-12 6.5939177e-12 1.09332265e-11 9.777843e-12 8.540994e-12
1.1363584e-11 1.0351774e-11 7.7297075e-12 -4.358729e-10 -4.332276e-10 -4.362218e-10 -4.359418e-10 -4.320575e-10
-4.3339943e-10 -4.386358e-10 -4.34999e-10 -4.3457604e-10 -3.518834e-10 -3.5201675e-10 -3.5195813e-10 -3.594378e-10
00000000: 15ca 973b b50a 2aba fef7 a039 7145 dab8
00000010: d3b2 6abb b812 6abb 11dd bc3b afb8 263b
00000020: 4e47 793b e269 403d baec 383d c6d2 4d3d
00000030: 03ee 233d 0bce 1d3d 58dc 353d 1fd8 093d
00000040: c69a 0d3d 5216 253d 13d4 61bc 4527 b2bc
00000050: 3ed5 9fbc 7e61 9dbc ee72 bfbc 55a1 b9bc
00000060: d4d2 2fbc 3d1b 70bc de11 34bc fa1e b93c
00000070: 95e1 b43c ca98 a83c 124f b63c 0543 b03c
00000080: c56b 9f3c 0443 c03c 5ec6 b33c 65ad a33c
00000090: 525a ce3c 461b b43c 473d d73c 3ff9 9d3c
000000a0: 72f0 893c b8d7 b03c c1ce 853c 7427 8e3c
000000b0: d5b8 b23c 55f0 1c30 9f55 e62f 4df0 012f
000000c0: f6c8 7330 9c16 2430 026c a32e 16d0 4030
000000d0: 51ed ed2f 5a25 50ae 4fa6 943c 6564 923c
000000e0: 3b49 8e3c 69a4 953c 401e 943c e962 8d3c
000000f0: dfe5 993c 3679 903c f275 8d3c 9e7c 423d
00000100: 41e7 3f3d d8a4 3a3d 663e 443d 644a 423d
00000110: cdb4 393d 17a2 493d 6e69 3d3d e784 393d
00000120: c754 4a37 b8a0 4437 c084 3e37 3c7f 4937
00000130: b36d 4737 c1ef 3d37 143a 5237 3bff 4337
00000140: beda 4237 2ff7 2cbc 9f06 89bc 6a84 76bc
00000150: 87f4 72bc 14d4 93bc 2192 8fbc 8be2 07bc
00000160: fc78 39bc a3a4 0bbc aff4 663d fe06 653d
00000170: 9021 763d b007 4d3d 6612 4c3d 3321 5f3d
00000180: 6a96 3e3d 966d 3f3d d691 523d dd08 a8bc
00000190: 6e05 e3bc 37e9 c9bc aa5d dcbc 2433 02bd
000001a0: 3d36 ebbc a17e 8ebc a402 a7bc 3969 83bc
000001b0: 1057 943b d1b3 a838 22d8 703b ed96 b2ba
000001c0: 3343 9cbb db66 3dba eb98 fcba 2c9b f8ba
000001d0: 007e 1c3b 9c2e cd2c b249 cb2c d9b4 ce2c
000001e0: 81e3 e22c c64d c62c 1b79 f52c e71d 162d
000001f0: 0d6c 122d 2cf1 222d 5eb1 8fb3 36a1 03b4
00000200: 6905 03b4 48b3 4cb4 da0f 76b4 190b 53b4
00000210: 84b3 d9b3 477f 15b4 3e1a a9b3 1045 743d
00000220: 85d9 733d 9b1a 743d 3ad0 6b3d d27a 6b3d
00000230: bc98 6a3d 2c65 6a3d 5fef 643d 746f 653d
00000240: b38a f6af a01e f5af adb7 f7af cb83 f5af
00000250: ba74 f3af e998 f5af f3ee f6af 18a5 f4af
00000260: 37b0 f5af dd8f 86ae afe3 8cae 0291 8fae
00000270: 6ffb 95ae 287b 9dae fef1 a0ae 1494 a6ae
00000280: 0f41 b0ae f6d0 b3ae e339 feaf 86e2 fcaf
00000290: b72d ffaf 88b3 feaf c1c3 fcaf a875 feaf
000002a0: f7e0 ffaf adfd fdaf 2877 feaf c805 90af
000002b0: 1f4f 8eaf 662f 93af 6f86 89af 9377 87af
000002c0: ce53 8caf 9328 8baf e448 89af 2787 8daf
000002d0: 34ae 7eaf 3d45 80af 0b6c 80af 185a 84af
000002e0: 3c34 85af 58e6 85af e4b3 89af 9065 8baf
000002f0: d391 8baf 56b5 5e30 6e21 532f f7de 3430
00000300: 621a dab7 e1cd 32af 5d56 b1ae c476 7433
00000310: 3f07 7fb2 78b6 fc2d 19a5 86af ee61 84af
00000320: 30fe 88af 8c25 80af 7729 7baf f739 82af
00000330: f80a 83af 0b8a 80af 4458 84af f87e a8af
00000340: cc06 a6af 454b a8af 945b a4af a145 a1af
00000350: b0bf a2af bdfd a2af 4651 9faf c138 a0af
00000360: 3e5e 492b b7c9 4b2b 1920 482b 5e84 552b
00000370: 3fe2 582b dcc1 542b 36e1 4e2b 20cf 522b
00000380: 05ad 4f2b a48d f4af 3b52 f3af ab8c f5af
00000390: 8b89 f4af 54a2 f2af 6b1f f4af b9eb f5af
000003a0: a0ce f3af 6c0d f4af 61ff 182d 2248 082d
000003b0: bb00 e82c e056 402d 7d03 2c2d 3841 162d
000003c0: 08e9 472d 3f1c 362d 82fb 072d a89f efaf
000003d0: 5d2b eeaf c3d0 efaf 5ba9 efaf b086 edaf
000003e0: 8c43 eeaf 8024 f1af ab24 efaf 24e9 eeaf
000003f0: 3073 c1af f485 c1af b47d c1af 609a c5af

module.conv2.bias f4 [32]
0.12060264 -4.2325277e-10 0.027228551 0.10632308 -0.031384867 0.022046058 0.101416744 0.024598982
0.08781138 0.020854399 0.058182336 0.05410251 -4.6325355e-10 0.060502406 0.022146627 -1.2297635e-05
0.08175176 0.030304302 0.06135931 0.008637127 0.09851421 -1.5696837e-07 0.078813426 -2.9362573e-06
-3.0999423e-09 0.030038929 0.027294658 -1.0348523e-11 0.035453603 0.022813717 0.036861133 0.07963324
00000000: 84fe f63d 88af e8af 690e df3c eabf d93d
00000010: 6b8d 00bd ef99 b43c 95b3 cf3d ce83 c93c
00000020: 74d6 b33d d8d6 aa3c 9a50 6e3d 989a 5d3d
00000030: 24ad feaf 5fd1 773d d86c b53c f151 4eb7
00000040: 776d a73d ba40 f83c e653 7b3d bc82 0d3c
00000050: d1c1 c93d 238b 28b4 ef68 a13d 840c 45b6
00000060: c306 55b1 3314 f63c 0c99 df3c 9b0d 36ad
00000070: cc37 113d d5e3 ba3c b3fb 163d c116 a33d

module.conv3.weight f4 [32, 32, 3, 3]
-0.029622046 -0.027221821 -0.029421482 0.007103117 0.009144544 0.006059334 0.0072452663 0.01417847
0.010863186 3.6813268e-11 7.038808e-11 4.3296387e-11 -8.110819e-11 -3.6577543e-11 -4.3530856e-11 -6.180332e-11
1.3815635e-11 6.720392e-11 -0.02429003 -0.012626835 -0.0020242566 -0.006545224 0.0058242115 0.011115037
-0.0059948363 0.0029707574 -0.0032792138 -0.025242778 -0.024290958 -0.027222801 0.008355772 0.008951769
0.005466266 0.007825346 0.012253062 0.0087129 -0.0026248484 -0.0067340047 -0.011616935 0.007826936
0.0016254305 -0.0075482125 0.001037632 -0.010123429 -0.016767506 -0.0027143098 -0.008087299 -0.013698877
0.005005701 -0.0025031166 -0.007376566 0.006729918 -8.470361e-05 -0.0042382544 -0.04815692 -0.033582028
-0.02463288 -0.005186101 0.015951639 0.024521913 0.02760902 0.04587974 0.04512544 -0.0008733369
0.0006980494 -0.010348644 -0.00065268803 -0.0023104693 -0.005305354 0.007594928 -0.005435114 0.015550478
-0.04384057 -0.0310428 -0.020151602 -0.010596038 0.007871387 0.018254844 0.027061349 0.044046234
0.04593019 -0.0030498558 -0.0007647431 -0.009306048 -0.0015531688 -0.0019868775 -0.003590807 0.0029497966
-0.005372632 0.014109849 -0.03533977 -0.025539512 -0.017539527 -0.009218178 0.0054730363 0.01307103
0.017881675 0.030859321 0.03192351 -0.022626579 -0.015043675 -0.013932516 -0.008902918 -0.00024548033
0.005300517 -0.008288236 -0.002403993 0.011269573 1.4991164e-10 2.1135382e-10 2.0399299e-10 5.922355e-11
8.846388e-11 5.919387e-11 -7.583466e-11 -4.149965e-12 3.0302462e-11 0.027313868 0.009120491 -0.017055955
0.05320786 0.02634838 -0.0013865123 0.048381817 0.0027821597 -0.011930378 -0.0030052837 -0.0006892323
-0.009614517 -0.0013474908 -0.0016951833 -0.0033622298 0.0027540126 -0.0061616437 0.014561911 7.6685285e-07
6.347819e-08 -4.955424e-07 -2.5759066e-06 -3.0641306e-06 -3.2769933e-06 -2.9076132e-06 -3.4706914e-06 -2.7687765e-06
-0.01371108 -0.012247859 -0.012606535 0.0005990798 -0.0019077334 -0.0048901825 0.009258089 0.013448501
0.01666021 -0.015994534 -0.01154137 -0.009574813 -0.0021519633 0.004764888 0.007918807 0.007292496
0.012678012 0.011285088 -0.011523331 -0.024336664 -0.038951755 0.010475339 -0.0031109662 -0.012180495
0.0066233994 -0.0018206986 -0.003246517 -0.0007092099 0.0017018087 0.00040740226 -0.0033309334 0.00016853737
-0.00012931618 -0.000779984 -0.0024062833 0.0032265903 -0.02398862 -0.022476504 -0.024512487 0.006570114
0.007836099 0.005100511 0.006426855 0.011508986 0.008661765 7.494096e-09 5.788784e-09 2.4969689e-09
-1.05548645e-08 -7.2706183e-09 -1.8682039e-08 -1.316132e-08 -5.925291e-10 -6.7820074e-09 -0.044315297 -0.0320001
-0.026929947 -0.005856224 0.0140236 0.02339126 0.018043147 0.03360497 0.029462824 1.1669016e-07
3.0334e-07 4.952325e-07 1.5212227e-07 4.9061526e-07 6.8491795e-07 5.3340125e-07 1.0295995e-06 1.2022339e-06
1.8317161e-09 1.7131525e-09 1.5838821e-09 1.0410639e-09 8.902271e-10 6.8930633e-10 -1.1168609e-10 -1.2358693e-10
-2.0708663e-10 -0.0035634823 -0.010590062 -0.018048186 0.0065556522 -0.0032972891 -0.009696319 0.008328094
-0.0003093556 -0.0055025495 -0.004513313 -0.004075385 -0.0041453224 -0.00029838798 -0.0012209251 -0.0021002796
0.0033401465 0.004797541 0.0060225213 2.7859898e-12 2.416152e-12 2.1370859e-12 1.9021937e-12 1.4076319e-12
8.863738e-13 1.4868167e-12 9.012883e-13 5.144941e-13 -0.015506961 -0.010945915 -0.008917705 -0.004501886
00000000: efa9 f2bc 4c00 dfbc 5205 f1bc 44c1 e83b
00000010: ffd2 153c 618d c63b b369 ed3b d04c 683c
00000020: 81fb 313c 0ee8 212e f7c8 9a2e 666b 3e2e
00000030: da5b b2ae a7de 20ae 6373 3fae 2de8 87ae
00000040: 170c 732d 72c8 932e e3fb c6bc c9e0 4ebc
00000050: 64a9 04bb 5279 d6bb 07d9 be3b d81b 363c
00000060: 5570 c4bb 0ab1 423b 14e8 56bb f1c9 cebc
00000070: d5fd c6bc 5a02 dfbc a6e6 083c 71aa 123c
00000080: 5d1e b33b e135 003c 11c1 483c 8dc0 0e3c
00000090: a605 2cbb eda8 dcbb f554 3ebc 8d3c 003c
000000a0: 660c d53a ff56 f7bb 2701 883a bddc 25bc
000000b0: 025c 89bc 90e2 31bb 9780 04bc 4171 60bc
000000c0: dd06 a43b 540b 24bb 1fb7 f1bb a586 dc3b
000000d0: e8a2 b1b8 0ee1 8abb 3140 45bd 4f8d 09bd
000000e0: e5ca c9bc 2bf0 a9bb 03ad 823c 2ee2 c83c
000000f0: 502c e23c 65ec 3b3d 74d5 383d a6f0 64ba
00000100: 4dfd 363a 5c8d 29bc 2719 2bba 3e6b 17bb
00000110: 89d8 adbb e0de f83b 0a19 b2bb 6fc7 7e3c
00000120: 2b92 33bd 784d febc f914 a5bc 019b 2dbc
00000130: fdf6 003c 2f8b 953c c3af dd3c d369 343d
00000140: 4b21 3c3d 17e0 47bb 0a79 48ba 6578 18bc
00000150: b293 cbba 4636 02bb bf53 6bbb 6051 413b
00000160: e70c b0bb ff2c 673c 6fc0 10bd 3d38 d1bc
00000170: 0eaf 8fbc d707 17bc 2857 b33b e027 563c
00000180: 977c 923c b0cc fc3c 3ac2 023d 605b b9bc
00000190: bf79 76bc 3545 64bc 8bdd 11bc d0b3 80b9
000001a0: f6af ad3b 62cb 07bc 4f8c 1dbb 04a4 383c
000001b0: 60d4 242f d062 682f ec4a 602f e53b 822e
000001c0: bd88 c22e 302b 822e 1ec3 a6ae 9003 92ac
000001d0: 8a45 052e 55c1 df3c 1d6e 153c eeb8 8bbc
000001e0: 7cf0 593d 8fd8 d73c a2bb b5ba 032c 463d
000001f0: e554 363b a277 43bc 4bf4 44bb 99ad 34ba
00000200: 3586 1dbc 4a9e b0ba ea30 deba db58 5cbb
00000210: aa7c 343b 9de7 c9bb 1595 6e3c bad9 4d35
00000220: 8151 8833 6a05 05b5 bddd 2cb6 5da1 4db6
00000230: 51ea 5bb6 6a20 43b6 06ea 68b6 38cf 39b6
00000240: 70a4 60bc 3eab 48bc a48b 4ebc 910b 1d3a
00000250: e90c faba d33d a0bb 3daf 173c 1a57 5c3c
00000260: fe7a 883c f806 83bc 0418 3dbc addf 1cbc
00000270: f407 0dbb c722 9c3b e2bd 013c e4f5 ee3b
00000280: 70b7 4f3c 17e5 383c 5acc 3cbc af5d c7bc
00000290: e08b 1fbd c2a0 2b3c 5ae1 4bbb b390 47bc
000002a0: 1a09 d93b 82a4 eeba 84c3 54bb 45ea 39ba
000002b0: 390f df3a 9b98 d539 ca4b 5abb 68b9 3039
000002c0: 0c99 07b9 d777 4cba bcb2 1dbb 3475 533b
000002d0: c883 c4bc a520 b8bc 69ce c8bc 1c4a d73b
000002e0: fb62 003c 3022 a73b 5e98 d23b 3090 3c3c
000002f0: 13ea 0d3c 62bf 0032 afe6 c631 2497 2b31
00000300: c954 35b2 09d1 f9b1 3d7a a0b2 191c 62b2
00000310: 87df 22b0 2b07 e9b1 f583 35bd 8912 03bd
00000320: 319c dcbc 91e5 bfbb 3ec3 653c 079f bf3c
00000330: 39cf 933c 5da5 093d 055c f13c 1897 fa33
00000340: bbda a234 1ef0 0435 0d57 2334 d3b2 0335
00000350: 34db 3735 0e2f 0f35 c530 8a35 715c a135
00000360: c8bf fb30 3274 eb30 e6af d930 2e15 8f30
00000370: 2ab4 7430 9f79 3d30 ae99 f5ae a1e2 07af
00000380: b4b1 63af 5089 69bb f081 2dbc cad9 93bc
00000390: ccd0 d63b 5517 58bb 4fdd 1ebc 8f72 083c
000003a0: 0131 a2b9 bb4e b4bb 6ae4 93bb cf8a 85bb
000003b0: 7cd5 87bb f570 9cb9 7307 a0ba d8a4 09bb
000003c0: 5ce6 5a3b b134 9d3b 9258 c53b ee0b 442c
000003d0: 8605 2a2c 5162 162c e0da 052c 491b c62b
000003e0: f77d 792b 3840 d12b abb0 7d2b 35d1 102b
000003f0: e910 7ebc 7f56 33bc 911b 12bc 8f84 93bb

module.conv3.bias f4 [32]
0.00685646 -0.04370165 0.005761796 -0.0033432364 0.006008858 -0.018131495 -0.0040738774 0.013214359
-0.0028884588 0.054067306 0.006512649 -0.0048743645 -0.01404858 0.009740343 -0.00602746 0.060858212
0.04377164 -0.008584846 0.013521774 -0.004240266 0.0025175912 -0.012847814 0.057318162 0.035846293
0.010815723 -0.011978603 0.008009657 -0.0055456664 0.01687299 0.009192002 -0.016524358 0.014504193
00000000: 28ac e03b 8000 33bd 73cd bc3b 331a 5bbb
00000010: f4e5 c43b 8088 94bc 297e 85bb 0a81 583c
00000020: 4c4c 3dbb ae75 5d3d 0f68 d53b 22b9 9fbb
00000030: 042c 66bc f695 1f3c 0082 c5bb 7646 793d
00000040: e449 333d 74a7 0cbc 6e8a 5d3c eef1 8abb
00000050: 2cfe 243b a37f 52bc 73c6 6a3d 90d3 123d
00000060: 6e34 313c e741 44bc f03a 033c 6cb8 b5bb
00000070: 3a39 8a3c 0d9a 163c 175e 87bc ffa2 6d3c

module.conv4.weight f4 [32, 32, 3, 3]
-0.022030815 -0.03788533 -0.012414876 -0.0036386538 -0.0046857023 0.015050447 0.006387651 0.018851582
0.02939739 -0.0002331257 -0.006769678 -0.0007299757 -0.0022674275 -0.02276292 0.005145113 0.012559421
0.016300801 0.021827623 0.032389116 -0.006648715 -0.0024092968 0.0059433663 -0.017881269 -0.012820598
0.0039384863 -0.014340716 -0.0066400166 0.0068071233 0.0007595188 -0.018814199 0.022440724 0.005579767
-0.03607703 -0.006934247 -0.012657229 0.015320049 -0.019148258 -0.0082983365 -0.00019919622 -0.00076578255
0.01146265 0.010308126 -0.0033428248 0.004873015 0.0011473042 0.0024738463 -0.0060587763 -0.0083199
0.0115629565 0.0010627216 0.0012655556 0.0021433607 0.0045756297 -0.0067872712 -0.008325724 -0.023443434
-0.03335061 0.012303523 0.010597059 -0.008635172 0.013722663 0.005647125 -0.01998629 0.0015101337
-0.02131098 -0.017109916 0.021617819 0.008523268 0.0029545145 0.006497882 0.027870767 0.01742398
-0.003305182 0.014620515 0.011192323 0.009397345 0.010320127 0.010280444 -0.018411566 -0.0074707298
-0.005195097 0.0077350643 -0.008171966 -0.011108534 0.01738031 -0.0067415363 0.0035290825 0.017012613
0.031563666 0.033329383 -0.0075162975 -0.00775004 -0.020842921 0.007925997 -0.019097745 -0.014614099
0.0025296954 0.023904957 -0.005127444 -0.0074142274 -0.0018832214 -0.0011497186 0.0023262973 0.0074470676
-0.005095252 -0.0026424646 0.016647434 0.0031344423 0.018449321 -0.016424917 -0.005768016 -0.019422457
-0.016973197 0.0072022504 -0.022378268 0.003701341 0.0022781417 -0.006853921 0.0053851944 -0.007942064
-0.020062627 -0.009824072 0.007971905 -0.007982391 -0.0125331925 -0.0059686583 -0.010726869 -0.0075880256
-0.01742568 -0.014441631 -0.002843442 0.00028796616 0.008565746 0.0022003488 0.017392555 -0.000981774
-0.0024260466 -0.026795303 -0.00035308793 -0.03527945 -0.02264633 -0.0072471406 -0.028287949 -0.0012084745
-0.006018148 0.02139117 0.020036625 0.0071726665 0.057631746 0.035796013 -0.03957459 -0.00073926797
-0.019941065 -0.013561222 -0.006066429 -0.0031968213 -0.0065762755 0.0012426802 -0.010312128 -0.012967941
-0.012623083 0.0010508181 0.010013289 0.024219358 0.011341879 0.010576285 0.0059594726 -0.03030573
-0.005018037 -0.022394657 -0.027658843 -0.013212702 0.0037094268 0.0052257646 -0.0016250522 0.037421547
0.025485937 -0.02028386 -0.014795037 -0.01141032 -0.0037273215 0.014108148 -0.0077857715 -0.004984829
-0.0015951835 -0.01369529 0.020946149 -0.0044783754 -0.0056414586 0.008822856 0.00027246185 -0.0047197533
0.0031679438 -0.01027593 0.012402609 0.0023698537 -0.009022062 -0.0007825802 0.011722928 0.008227589
-0.004856108 0.001822216 -0.054319993 -0.035551388 0.0038919752 -0.02222813 -0.010782418 -0.0016401794
-0.0014679062 0.004932993 0.005464551 0.020288633 0.018591195 -0.008627806 -0.0038090835 -0.004114877
-0.004403602 -0.020915257 -0.0039112833 -0.011868589 -0.010451468 0.02320198 -0.014633206 -0.010712336
0.005087225 0.0051309597 0.007963586 0.017810965 -0.015570494 -0.00053535565 0.008291564 -0.017518248
-0.020383097 -0.008617861 0.014487491 0.008696811 0.0028325862 0.0006634817 -0.025608068 -0.01037181
0.014304359 -0.0052281613 -0.003700963 -0.021234818 0.00013571892 -0.008671256 -0.006296958 -0.008663692
-0.0059720394 -0.009556554 -0.0032729607 0.0083724 0.0049114097 -0.0013409352 -0.012477286 -0.017050164
00000000: f879 b4bc a62d 1bbd c467 4bbc 7b76 6ebb
00000010: 858a 99bb 2696 763c 804f d13b a26e 9a3c
00000020: ccd2 f03c 3473 74b9 2dd4 ddbb d75b 3fba
00000030: 1f99 14bb 4e79 babc 5698 a83b 08c6 4d3c
00000040: 4289 853c d8cf b23c 73aa 043d 77dd d9bb
00000050: 4be5 1dbb 92c0 c23b bd7b 92bc 7c0d 52bc
00000060: 6b0e 813b 53f5 6abc 7f94 d9bb 4a0e df3b
00000070: 721a 473a 3c20 9abc 9cd5 b73c 7ad6 b63b
00000080: 82c5 13bd ae38 e3bb 4460 4fbc f100 7b3c
00000090: cfdc 9cbc bff5 07bc 54df 50b9 ccbe 48ba
000000a0: d7cd 3b3c 6ae3 283c 4b13 5bbb d0ad 9f3b
000000b0: 2461 963a 4120 223b b388 c6bb 3150 08bc
000000c0: 8e72 3d3c 054b 8b3a 00e1 a53a a077 0c3b
000000d0: 2aef 953b c267 debb 9e68 08bc 720c c0bc
000000e0: a69a 08bd b794 493c 499f 2d3c 897a 0dbc
000000f0: 05d5 603c 850b b93b 4aba a3bc aeef c53a
00000100: 5d94 aebc 182a 8cbc da17 b13c 2da5 0b3c
00000110: 87a0 413b 2fec d43b 3c51 e43c bcbc 8e3c
00000120: c19b 58bb e28a 6f3c 0160 373c 52f7 193c
00000130: c015 293c 4f6f 283c dad3 96bc 06cd f4bb
00000140: a23b aabb 6c76 fd3b b6e3 05bc 9200 36bc
00000150: 2761 8e3c 1be8 dcbb 2e48 673b 095e 8b3c
00000160: e748 013d 6484 083d 464b f6bb 0cf4 fdbb
00000170: c6be aabc 0adc 013c e072 9cbc f96f 6fbc
00000180: 3fc9 253b 54d4 c33c 1e04 a8bb 0cf3 f2bb
00000190: 6dd6 f6ba 28b2 96ba cb74 183b 8806 f43b
000001a0: 12f6 a6bb 332d 2dbb 3360 883c 376b 4d3b
000001b0: 0823 973c 8c8d 86bc a001 bdbb d81b 9fbc
000001c0: 600b 8bbc db00 ec3b a152 b7bc 3392 723b
000001d0: e04c 153b db96 e0bb 4976 b03b 6e1f 02bc
000001e0: 615a a4bc 25f5 20bc 989c 023c 93c8 02bc
000001f0: 0558 4dbc bc94 c3bb c0bf 2fbc f9a4 f8bb
00000200: 4dc0 8ebc 979c 6cbc 0a59 3abb 2afa 9639
00000210: 5857 0c3c ba33 103b d57a 8e3c deae 80ba
00000220: 4ffe 1ebb d381 dbbc a91e b9b9 2f81 10bd
00000230: cc84 b9bc 6c79 edbb 21bc e7bc ad65 9eba
00000240: e233 c5bb 893c af3c d923 a43c b008 eb3b
00000250: 440f 6c3d d79e 123d f718 22bd 6fcb 41ba
00000260: 725b a3bc e32f 5ebc e5c8 c6bb c381 51bb
00000270: cc7d d7bb 6ee1 a23a 33f4 28bc 7d77 54bc
00000280: 0cd1 4ebc 9bbb 893a c70e 243c ad67 c63c
00000290: 4ad3 393c 2848 2d3c ae47 c33b b943 f8bc
000002a0: 586e a4bb 0075 b7bc cc94 e2bc 177a 58bc
000002b0: db19 733b e43c ab3b b4ff d4ba 5647 193d
000002c0: e2c7 d03c 562a a6bc e266 72bc 5af2 3abc
000002d0: 1446 74bb dd25 673c c91f ffbb c757 a3bb
000002e0: 7a15 d1ba 3662 60bc 4297 ab3c 56bf 92bb
000002f0: fcdb b8bb bd8d 103c 36d9 8e39 29a8 9abb
00000300: 479d 4f3b 605c 28bc 5034 4b3c 8c4f 1b3b
00000310: 45d1 13bc 1126 4dba 8611 403c 02cd 063c
00000320: fd1f 9fbb 6cd7 ee3a a47e 5ebd 559e 11bd
00000330: 8210 7f3b c417 b6bc bda8 30bc 4afb d6ba
00000340: c266 c0ba f2a4 a13b fa0f b33b 5934 a63c
00000350: 904c 983c a45b 0dbc d1a1 79bb 17d6 86bb
00000360: 174c 90bb 7956 abbc 392a 80bb 7874 42bc
00000370: a23c 2bbc 1412 be3c 1dc0 6fbc cb82 2fbc
00000380: bdb2 a63b 9c21 a83b b379 023c 4de8 913c
00000390: 631b 7fbc 1c57 0cba 57d9 073c 6e82 8fbc
000003a0: 74fa a6bc ee31 0dbc f15c 6d3c 127d 0e3c
000003b0: e9a2 393b 81ed 2d3a 03c8 d1bc 86ee 29bc
000003c0: d55c 6a3c ff50 abbb db8b 72bb a4f4 adbc
000003d0: c54f 0e39 e211 0ebc b656 cebb 28f2 0dbc
000003e0: 19b1 c3bb 1893 1cbc 2b7f 56bb 642c 093c
000003f0: e4ef a03b 52c2 afba 886d 4cbc c9ac 8bbc

module.conv4.bias f4 [32]
0.009673604 -0.016561806 0.03691471 0.048152324 0.016720483 0.0291562 0.03301944 0.024430694
0.021287011 0.012907837 0.020564675 0.0047139004 -0.034596696 0.021583367 0.009349393 0.045886252
0.004479064 0.011721108 0.04467584 0.047983404 0.0499563 0.07227503 0.02455479 0.030581985
0.04943576 0.021256378 0.009736247 -0.0061284974 0.0054606833 -0.009087701 0.041603602 0.03761611
00000000: 097e 1e3c a0ac 87bc e133 173d 5f3b 453d
00000010: 65f9 883c fcd8 ee3c 643f 073d e122 c83c
00000020: 1962 ae3c 647b 533c 4077 a83c 1077 9a3b
00000030: 44b5 0dbd 9acf b03c 322e 193c 39f3 3b3d
00000040: 1dc5 923b e409 403c 03fe 363d 3f8a 443d
00000050: fa9e 4c3d ee04 943d 2127 c93c 1287 fa3c
00000060: 277d 4a3d db21 ae3c c884 1f3c 90d1 c8bb
00000070: 88ef b23b 95e4 14bc 8a68 2a3d 5a13 1a3d

module.conv5.weight f4 [2, 32, 1, 1]
0.1636047 0.08202653 -0.08586587 0.14104575 -0.11557466 -0.22090448 0.074575014 -0.21622382
0.15332977 -0.28502268 0.21911961 0.22946091 0.29731315 -0.024168279 0.11842794 -0.07220259
0.1045667 0.21809645 -0.11981594 -0.20124343 -0.13435523 -0.2886718 0.2325999 -0.03764963
-0.2508525 0.11659492 0.1392225 0.27260765 0.21592633 0.22464144 -0.24383628 0.07819487
0.15681271 0.2694271 -0.20553605 -0.36943334 0.23051582 -0.003603613 0.27371147 0.030487202
-0.19063309 0.14404415 0.069179185 -0.09550781 -0.09357344 -0.23139334 0.2628654 -0.286098
-0.23650134 -0.11073732 0.25931546 -0.0635367 -0.2677256 0.014098661 0.02088768 -0.21072611
0.008461361 -0.18990028 -0.2157657 0.016628472 -0.050905418 -0.019356448 -0.11554282 0.2262974
00000000: fe87 273e 86fd a73d 72da afbd 4c6e 103e
00000010: 68b2 ecbd c934 62be c9ba 983d c769 5dbe
00000020: 7b02 1d3e 7eee 91be e460 603e cdf7 6a3e
00000030: 6e39 983e 8efc c5bc 598a f23d f4de 93bd
00000040: 1127 d63d ad54 5f3e 0f62 f5bd c212 4ebe
00000050: 6b94 09be cacc 93be ab2e 6e3e 8036 1abd
00000060: bd6f 80be 51c9 ee3d 5890 0e3e 3b93 8b3e
00000070: cb1b 5d3e 6808 663e 38b0 79be a224 a03d
00000080: 8393 203e 59f2 893e 0b78 52be 5e26 bdbe
00000090: 570c 6c3e 982a 6cbb e923 8c3e 4cc0 f93c
000000a0: 5235 43be 4f80 133e d1ad 8d3d 9999 c3bd
000000b0: 6fa3 bfbd 60f2 6cbe 4b96 863e 707b 92be
000000c0: 682d 72be 3fca e2bd ffc4 843e 881f 82bd
000000d0: 5413 89be 12fe 663c a41c ab3c 96c8 57be
000000e0: 85a1 0a3c 3875 42be aff1 5cbe 6f38 883c
000000f0: 3382 50bd 6a91 9ebc b7a1 ecbd 81ba 673e

module.conv5.bias f4 [2]
-0.093384646 -0.0027544748
00000000: 7340 bfbd 6b84 34bb

module.transconv1.weight f4 [32, 2, 1, 1]
0.17329617 0.028960405 -0.1394189 0.37858382 3.4401088e-05 -3.5862216e-05 3.9955456e-05 -6.937622e-05
-0.3665971 0.7335813 0.56069744 0.09279986 2.9367466e-05 6.81823e-05 1.2066613e-09 -1.596721e-08
1.6649337e-05 1.8654375e-05 2.9902832e-08 5.8075667e-08 0.45840704 0.076109596 -2.2346154e-05 7.509867e-05
9.525466e-10 -1.2196282e-09 1.9631175e-07 -1.8767041e-07 -0.1954676 0.42040393 -0.75614804 0.12351883
0.7440306 0.11777768 -0.104009576 -0.59096515 2.3746179e-05 -1.0762826e-05 0.29800943 0.04992425
-0.07279589 -0.4124503 -0.38519776 0.5781088 -0.45959422 0.07516514 -0.13474354 -0.7677179
-0.115425214 -0.65653235 0.6923482 0.13982858 -0.14300285 -0.8153515 -0.60446197 0.09877362
0.2429524 0.04069308 1.1173945e-08 -2.243947e-08 -0.5544445 0.090638466 -0.68315345 0.111338675
00000000: 8d74 313e 5f3e ed3c d4c3 0ebe bdd5 c13e
00000010: e349 1038 c36a 16b8 d895 2738 137e 91b8
00000020: 9db2 bbbe fccb 3b3f de89 0f3f da0d be3d
00000030: 275a f637 18fd 8e38 9fd7 a530 4428 89b2
00000040: 2eaa 8b37 f77b 9c37 836e 0033 df6e 7933
00000050: 54b4 ea3e 59df 9b3d 0074 bbb7 4b7e 9d38
00000060: c1ea 8230 da9f a7b0 c3c9 5234 7382 49b4
00000070: a928 48be 2f3f d73e eb92 41bf 71f7 fc3d
00000080: ca78 3e3f 6d35 f13d f902 d5bd 7e49 17bf
00000090: 8832 c737 fc91 34b7 b194 983e 5f7d 4c3d
000000a0: 0316 95bd b02c d3be a438 c5be f0fe 133f
000000b0: ef4f ebbe 2ef0 993d 36fa 09be 2989 44bf
000000c0: 0e64 ecbd 8112 28bf bb3d 313f 392f 0f3e
000000d0: 576f 12be e0ba 50bf 05be 1abf d349 ca3d
000000e0: 84c8 783e c9ad 263d 88f7 3f32 ebc0 c0b2
000000f0: 13f0 0dbf a9a0 b93d 25e3 2ebf 8805 e43d

module.transconv1.bias f4 [32]
0.13427596 0.27234778 -6.459229e-05 -1.2105804e-05 0.5229794 0.43437356 3.19484e-07 -6.3936922e-09
-1.3414398e-05 -2.58756e-07 0.35513836 -3.7189853e-05 -8.870987e-09 1.4597394e-07 0.30047762 0.53867394
0.5767387 0.42564902 -0.00040256753 0.23086834 0.29701537 0.40795395 0.3274068 0.55304503
0.47290397 0.5352513 0.58737445 0.4306037 0.18822543 -3.114047e-09 0.3949707 0.48668328
00000000: a37f 093e 2b71 8b3e b975 87b8 081a 4bb7
00000010: fae1 053f 3666 de3e 8c85 ab34 83af dbb1
00000020: 670e 61b7 27eb 8ab4 b2d4 b53e 4dfc 1bb8
00000030: 0367 18b2 03bd 1c34 34d8 993e 89e6 093f
00000040: 26a5 133f abee d93e b30f d3b9 c068 6c3e
00000050: 6612 983e 57df d03e dda1 a73e 5c94 0d3f
00000060: 7820 f23e 3b06 093f 2c5e 163f 1778 dc3e
00000070: 2bbe 403e e5fe 55b1 9939 ca3e 8d2e f93e

module.transconv2.weight f4 [32, 32, 4, 4]
-0.0017436071 -0.0035061433 -0.0044302023 -0.002690478 -0.002873537 -0.009544026 -0.010095091 -0.00432032
-0.004090197 -0.011011344 -0.010209146 -0.0037128236 -0.0025296803 -0.0030478628 -0.002115495 -0.0018047466
-0.001945553 -0.0035748896 -0.0045038625 -0.0028331305 -0.0033394913 -0.010273759 -0.010830381 -0.0047463207
-0.004508965 -0.011947806 -0.011064737 -0.0039052304 -0.003281512 -0.004166258 -0.0030876365 -0.0025788746
0.0065365555 0.0031464242 -0.00043259852 0.0030854875 -0.0022331877 -0.0171208 -0.020377094 -0.008957722
-0.0047446727 -0.01947111 -0.019737767 -0.0073071145 -0.00048441056 0.005408512 0.006111485 0.0014042988
-0.00014995957 -0.00025112764 -0.00024956555 -0.00019445088 -9.297723e-06 -0.00023569341 -0.00026458656 -0.00012259356
-0.000101998485 -0.00024973674 -0.00022614228 -0.00017095715 4.078422e-05 0.00011370589 0.0001267267 2.3857776e-05
-0.0045073656 -0.011124481 -0.012722889 -0.0061926763 -0.0016037499 -0.010744267 -0.012100535 -0.005501673
-0.0033228698 -0.0121817775 -0.011769567 -0.005596548 0.00037386187 0.0038896785 0.0038696304 0.00020029652
0.00029106427 -4.9987884e-05 0.0002748574 -4.0941606e-05 -0.00023381597 0.00010479365 -0.00026947755 0.00011980279
0.0002349246 -0.00022978426 0.00018246337 -9.650686e-05 -0.0002176047 3.601698e-05 -0.00021599513 5.6661265e-05
-0.0017620274 -0.0045276126 -0.0061853873 -0.0036612358 -0.0034063307 -0.012475569 -0.013492953 -0.0060273907
-0.005131548 -0.015004698 -0.014060782 -0.005011285 -0.0024167106 -0.00215226 -0.0008370495 -0.0012082551
0.0015000247 0.013627653 0.01592817 0.0021111814 0.003942165 0.008510627 0.012514439 0.009873896
-0.008173427 -0.012100296 -0.006334956 -0.0009628217 -0.007482423 -0.017314708 -0.014749358 -0.004043294
-0.0011739543 -0.0029381379 -0.003972272 -0.0023287751 -0.0021638218 -0.007916172 -0.008532316 -0.003802805
-0.003273345 -0.00948234 -0.008862965 -0.0031687862 -0.0015230698 -0.00136509 -0.0005368289 -0.0007894684
0.002159846 0.0046789716 0.0039951173 0.00017977756 -0.0008047637 -0.0039051464 -0.0030938531 0.00016902627
-0.0025548826 -0.008523357 -0.0063366843 0.000855554 0.002300668 0.001876034 0.0029475435 0.0052856114
-0.0019889902 -0.0033838833 -0.00422067 -0.0027186666 -0.0034686534 -0.0099561075 -0.010507465 -0.0046845977
-0.004398133 -0.0115426695 -0.010680453 -0.00372602 -0.0037360385 -0.0047256174 -0.0037927635 -0.002995301
-0.0024204438 -0.00502336 -0.0064015887 -0.00387781 -0.00408854 -0.013783126 -0.014615104 -0.0062327567
-0.005841792 -0.015867466 -0.0147616975 -0.0053531094 -0.0035285891 -0.00419999 -0.0028612954 -0.0024499742
-0.0022238465 -0.003801037 -0.004751448 -0.0030640452 -0.0039078216 -0.01122147 -0.01184207 -0.0052734064
-0.0049553257 -0.013008112 -0.01204453 -0.004196371 -0.004196304 -0.0053003137 -0.004241822 -0.0033517643
-0.0015287626 -0.0020161623 -0.0023290326 -0.001654649 -0.0024106984 -0.0064157066 -0.0066693546 -0.0029200946
-0.002930926 -0.0071770665 -0.0065883086 -0.0021269284 -0.0030567383 -0.0044927136 -0.0038763105 -0.0027930487
0.0054683555 0.008558693 0.009993435 0.007315402 0.010970629 0.030103952 0.030305717 0.010529863
0.016955629 0.039959576 0.03775732 0.013596113 0.0069164564 0.018340245 0.01645317 0.004166778
-7.9530205e-09 -2.4234215e-09 -8.642761e-09 3.3049866e-10 -9.000697e-09 -9.4185255e-09 -9.010813e-09 -9.607293e-09
-8.697906e-09 -3.1015925e-09 -8.421213e-09 -3.211452e-09 -6.8174844e-09 -8.280325e-09 -7.908828e-09 -8.323262e-09
00000000: bf89 e4ba 53c7 65bb 3b2b 91bb bb52 30bb
00000010: f351 3cbb 8c5e 1cbc e165 25bc 7991 8dbb
00000020: 0f07 86bb ed68 34bc 4344 27bc d852 73bb
00000030: fec8 25bb a7be 47bb 1ea4 0abb 3f8d ecba
00000040: ed01 ffba b248 6abb 2395 93bb 0bac 39bb
00000050: 5edb 5abb 4553 28bc e971 31bc 0687 9bbb
00000060: f1bf 93bb bbc0 43bc df48 35bc e5ee 7fbb
00000070: a30e 57bb 1b85 88bb f259 4abb 5602 29bb
00000080: 9a30 d63b 3d34 4e3b 64ce e2b9 e435 4a3b
00000090: ac5a 12bb ec40 8cbc dded a6bc 69c3 12bc
000000a0: 3379 9bbb e181 9fbc 19b1 a1bc 8570 efbb
000000b0: 7cf8 fdb9 e339 b13b da42 c83b 7310 b83a
000000c0: 773e 1db9 c8a9 83b9 1fd8 82b9 83e5 4bb9
000000d0: 6bfd 1bb7 7824 77b9 35b8 8ab9 758c 00b9
000000e0: 05e8 d5b8 19ef 82b9 9b20 6db9 f642 33b9
000000f0: b90f 2b38 6375 ee38 f1e1 0439 2f22 c837
00000100: 86b2 93bb 7543 36bc aa73 50bc efeb cabb
00000110: eb34 d2ba b908 30bc 5341 46bc 6147 b4bb
00000120: 81c4 59bb 1496 47bc 24d5 40bc 3f63 b7bb
00000130: e402 c439 fae9 7e3b a099 7d3b b006 5239
00000140: fc99 9839 15aa 51b8 bc1a 9039 b7b8 2bb8
00000150: 7f2c 75b9 aac4 db38 aa48 8db9 a23e fb38
00000160: 1856 7639 3ef2 70b9 a353 3f39 ba63 cab8
00000170: d12c 64b9 f010 1738 c07c 62b9 92a7 6d38
00000180: d4f3 e6ba 5e5c 94bb caae cabb 58f1 6fbb
00000190: bf3c 5fbb 5466 4cbc 8c11 5dbc 6b81 c5bb
000001a0: 8b26 a8bb 44d6 75bc 325f 66bc b535 a4bb
000001b0: ad61 1ebb ee0c 0dbb 716d 5bba 505e 9eba
000001c0: 7a9c c43a 8546 5f3c cb7b 823c bf5b 0a3b
000001d0: 472d 813b 2870 0b3c 5d09 4d3c 1fc6 213c
000001e0: d6e9 05bc 5240 46bc 7695 cfbb df65 7cba
000001f0: 1d2f f5bb 93d7 8dbc 4ba7 71bc 9c7d 84bb
00000200: 5fdf 99ba c68d 40bb d529 82bb 5d9e 18bb
00000210: e8ce 0dbb d5b2 01bc 21cb 0bbc 7b38 79bb
00000220: 9e85 56bb d15b 1bbc f835 11bc 69ab 4fbb
00000230: bea1 c7ba d2ec b2ba fab9 0cba 54f4 4eba
00000240: 348c 0d3b 0f52 993b 79e9 823b ac82 3c39
00000250: c7f6 52ba 7ced 7fbb 3ec2 4abb a53c 3139
00000260: d16f 27bb 8da5 0bbc f6a3 cfbb 4247 603a
00000270: cec6 163b 41e5 f53a 932b 413b ec32 ad3b
00000280: b859 02bb 24c4 5dbb 8c4d 8abb a82b 32bb
00000290: 5952 63bb f11e 23bc 8127 2cbc 4181 99bb
000002a0: 371e 90bb 771d 3dbc 11fd 2ebc 3e30 74bb
000002b0: 53d8 74bb 5ad9 9abb 0390 78bb d04c 44bb
000002c0: 4fa0 1ebb ff9a a4bb 6bc4 d1bb db22 7ebb
000002d0: 29f9 85bb 9fd2 61bc 3074 6fbc 273c ccbb
000002e0: 816c bfbb 7dfc 81bc 0cdb 71bc 2369 afbb
000002f0: e73f 67bb 12a0 89bb 9284 3bbb bf8f 20bb
00000300: f4bd 11bb d21a 79bb 09b2 9bbb 26ce 48bb
00000310: 2f0d 80bb 42da 37bc 3e05 42bc 8acc acbb
00000320: 4960 a2bb fa1f 55bc 6c56 45bc b681 89bb
00000330: 2681 89bb 41ae adbb fbfe 8abb 46a9 5bbb
00000340: c360 c8ba 9721 04bb afa2 18bb cfe0 d8ba
00000350: cffc 1dbb d93a d2bb 9a8a dabb 0f5f 3fbb
00000360: c714 40bb 992d ebbb bde2 d7bb f063 0bbb
00000370: 8f53 48bb 9d37 93bb b309 7ebb 950b 37bb
00000380: e42f b33b c339 0c3c 81bb 233c 0ab6 ef3b
00000390: 27be 333c 909c f63c b243 f83c 7285 2c3c
000003a0: 88e6 8a3c a7ac 233d 6ba7 1a3d 3bc2 5e3c
000003b0: 71a3 e23b 483e 963c ccc8 863c 7889 883b
000003c0: c1a1 08b2 4889 26b1 447b 14b2 8db1 b52f
000003d0: 7ca1 1ab2 1dcf 21b2 facd 1ab2 520d 25b2
000003e0: cc6d 15b2 cb23 55b1 e3ac 10b2 76b0 5cb1
000003f0: 3a3f eab1 4141 0eb2 65df 07b2 18fe 0eb2

module.transconv2.bias f4 [32]
0.0775107 0.08254212 0.19105364 0.0026246423 0.09281383 -0.0016588776 0.10484202 0.28920016
0.06689971 0.124575034 0.07826299 0.11130191 0.08822854 0.044000335 0.23667601 -6.293428e-08
0.09463194 4.4485937e-08 0.031217935 -5.1950706e-09 0.12750407 0.31417063 0.099306844 0.081136785
0.08946414 0.090737864 0.12460219 0.17915556 0.17403354 0.096888155 7.628959e-05 0.07140909
00000000: eebd 9e3d d80b a93d 91a3 433e 3102 2c3b
00000010: 2d15 be3d b26e d9ba 6ab7 d63d 0b12 943e
00000020: b702 893d 3221 ff3d 5948 a03d 41f2 e33d
00000030: 2ab1 b43d b239 343d 325b 723e 7c26 87b3
00000040: 64ce c13d ce10 3f33 c1bc ff3c 5380 b2b1
00000050: 6d90 023e f9da a03e 6361 cb3d 0b2b a63d
00000060: fa38 b73d c6d4 b93d 6f2f ff3d 8e74 373e
00000070: d935 323e 4c6d c63d a9fd 9f38 ee3e 923d

module.transconv3.weight f4 [32, 32, 4, 4]
9.219126e-09 -1.8101382e-08 1.1436317e-08 -4.015704e-09 -8.9084054e-08 4.3353445e-08 -9.124535e-08 5.6329704e-08
1.4591349e-08 -3.897791e-08 1.5174946e-08 -1.8343849e-08 -1.0379197e-07 4.32346e-08 -1.0489239e-07 5.2020887e-08
-3.92026e-09 7.8904144e-10 -3.943542e-09 7.673578e-10 -1.2320677e-09 -2.8085334e-09 -1.218046e-09 -2.6281686e-09
-3.8358343e-09 1.0027521e-09 -3.8037986e-09 9.753979e-10 -1.2985625e-09 -2.5965148e-09 -1.2825419e-09 -2.4702682e-09
-0.011064928 0.0009887272 0.00026073217 -0.011901443 0.0016733052 0.016220434 0.015018976 0.00015924912
0.0030498395 0.017526489 0.016942484 0.0015377584 -0.010367274 0.002178082 0.0018700961 -0.0117522115
-0.004598322 0.019452248 0.018716456 -0.005460263 0.018434752 0.049735364 0.048751775 0.017038161
0.018737221 0.049428206 0.04923549 0.01758967 -0.0014384742 0.023024283 0.022950219 -0.0023282024
-2.225977e-08 -2.3322572e-08 -2.2782912e-08 -2.3364409e-08 -2.124348e-08 -1.872773e-08 -2.1753513e-08 -1.9479659e-08
-2.496343e-08 -2.4679782e-08 -2.5194083e-08 -2.5189374e-08 -2.227453e-08 -1.9126432e-08 -2.2949582e-08 -1.9828393e-08
6.247449e-07 -2.1422464e-07 6.407179e-07 -2.1792515e-07 -1.8512056e-07 -1.6123674e-07 -1.5100825e-07 -1.7713013e-07
7.4046204e-07 -1.3319014e-07 7.6813365e-07 -1.3839983e-07 -2.1575015e-07 -2.1621351e-07 -1.8133072e-07 -2.394747e-07
0.0030412404 0.01693409 0.016279645 0.0029541785 0.01837246 0.03703954 0.036092523 0.017430322
0.019406103 0.03828413 0.037936408 0.019022774 0.006435944 0.020249989 0.020130761 0.0061313105
-4.1304786e-11 1.4587803e-10 -5.4913993e-11 1.4358223e-10 1.7092577e-11 -1.8527513e-10 -1.0109466e-11 -1.6383016e-10
-3.3064773e-11 1.2189215e-10 -5.84811e-11 1.3126002e-10 1.247103e-11 -1.8044913e-10 -8.452927e-12 -1.7551043e-10
-0.010027817 0.0008295455 0.0001718949 -0.010782954 0.0012834013 0.014411093 0.013288355 -3.8155722e-05
0.0027841819 0.01583547 0.015305657 0.0014309633 -0.009166223 0.0021100373 0.001868361 -0.010441705
-0.011624371 -0.012924804 -0.012589584 -0.011376781 -0.015584312 -0.016928583 -0.01660192 -0.015389834
-0.014195443 -0.015609767 -0.015430966 -0.014251496 -0.009838121 -0.01126283 -0.0110113835 -0.009849564
-1.5302258e-09 9.630085e-10 -1.5812415e-09 7.7250734e-10 -1.0221022e-09 -1.3469758e-09 -8.8618307e-10 -1.7470316e-09
-1.2411047e-09 1.3895296e-09 -1.264865e-09 1.0686476e-09 -1.2429896e-09 -1.4957052e-09 -1.1657274e-09 -1.8012093e-09
0.00021623539 0.0002872709 0.00022498197 0.00027065453 0.00032540958 2.1431126e-05 0.00034650663 1.700424e-05
0.0002632218 0.00035290245 0.00026895717 0.00033060968 0.0003214056 5.668464e-06 0.0003406176 1.1732056e-05
0.000555223 0.0056872116 0.005483495 0.00042102623 0.0045970217 0.01391295 0.013146225 0.0068271128
0.0083283605 0.014762386 0.014582087 0.0077832565 -0.005129632 0.0064733066 0.0026815985 0.0008990876
2.0075126e-05 -2.0374757e-06 1.8888992e-05 -8.583568e-06 1.6977761e-05 2.6745296e-05 1.7274446e-05 2.8343731e-05
1.9519193e-05 1.338544e-05 1.8865727e-05 4.416989e-06 1.300087e-05 2.8503886e-05 1.3071851e-05 3.1192118e-05
5.8951307e-05 6.742775e-05 5.2414205e-05 5.553353e-05 -7.2681564e-06 1.0683061e-06 1.9051563e-06 1.2291585e-05
5.8259382e-05 7.188117e-05 5.216205e-05 6.183374e-05 -2.1720396e-05 1.0175706e-05 -1.1479311e-05 1.6962174e-05
-0.0037167063 -0.0013425096 -0.0028199453 -0.0047998982 -0.0032908218 0.00019990992 -0.0013122369 -0.005237322
-0.0004087649 0.0022373653 0.0015580923 -0.0017790144 -0.0030659554 -5.969458e-05 -0.0014869305 -0.0046409
00000000: 2562 1e32 5c7d 9bb2 7479 4432 82fa 89b1
00000010: 7a4e bfb3 9e33 3a33 a9f2 c3b3 2aef 7133
00000020: 6ead 7a32 aa68 27b3 0f5a 8232 8d92 9db2
00000030: 3de4 deb3 f2b0 3933 3441 e1b3 926d 5f33
00000040: f9b2 86b1 dbe3 5830 c37f 87b1 01ee 5230
00000050: 8755 a9b0 3e00 41b1 2f68 a7b0 3b9b 34b1
00000060: 5bcc 83b1 34d1 8930 91b2 82b1 c30e 8630
00000070: 1b79 b2b0 5f6e 32b1 6e45 b0b0 6bc1 29b1
00000080: ac49 35bc 2e98 813a e1b2 8839 45fe 42bc
00000090: ce52 db3a b7e0 843c 2712 763c 1cfc 2639
000000a0: d1df 473b b693 8f3c f7ca 8a3c 9c8e c93a
000000b0: 80db 29bc 27be 0e3b 031e f53a 598c 40bc
000000c0: 85ad 96bb 525a 9f3c 4153 993c 02ec b2bb
000000d0: 7a04 973c 4fb7 4b3d f1af 473d 9d93 8b3c
000000e0: cd7e 993c 3b75 4a3d 27ab 493d 3618 903c
000000f0: 2f8b bcba 6c9d bc3c 1902 bc3c c194 18bb
00000100: c035 bfb2 e156 c8b2 27b4 c3b2 e1b2 c8b2
00000110: e87a b6b2 b7de a0b2 7bdc bab2 3954 a7b2
00000120: 2a6f d6b2 6aff d3b2 606a d8b2 0560 d8b2
00000130: 3656 bfb2 784b a4b2 aa22 c5b2 1953 aab2
00000140: 25b4 2735 9f05 66b4 ccfd 2b35 cffe 69b4
00000150: 8dc5 46b4 6b20 2db4 d524 22b4 2931 3eb4
00000160: 2ac4 4635 0703 0fb4 be31 4e35 0e9b 14b4
00000170: f3a8 67b4 5128 68b4 cfb3 42b4 2791 80b4
00000180: 8c4f 473b 5cb9 8a3c e45c 853c e49a 413b
00000190: d781 963c c6b6 173d c1d5 133d 09ca 8e3c
000001a0: 8cf9 9e3c d2cf 1c3d 3563 1b3d a6d5 9b3c
000001b0: 9ce4 d23b 4ee3 a53c 44e9 a43c 29e9 c83b
000001c0: 0ea9 35ae 0465 202f a983 71ae cede 1d2f
000001d0: 1059 962d 50b6 4baf fdd8 31ad 1722 34af
000001e0: a06b 11ae 9705 062f ef99 80ae 6952 102f
000001f0: 8764 5b2d ea67 46af 99b4 14ad cbf9 40af
00000200: b74b 24bc db75 593a b03e 3439 fdaa 30bc
00000210: cd37 a83a 811c 6c3c 67b7 593c 6509 20b8
00000220: d276 363b 63b9 813c 94c4 7a3c 298f bb3a
00000230: ed2d 16bc 8d48 0a3b cbe3 f43a af13 2bbc
00000240: 2574 3ebc 8fc2 53bc 8b44 4ebc ae65 3abc
00000250: 5855 7fbc d0ad 8abc c000 88bc a425 7cbc
00000260: 0194 68bc 1cc0 7fbc 2ad2 7cbc 1b7f 69bc
00000270: 1230 21bc bc87 38bc 1769 34bc 1160 21bc
00000280: 0950 d2b0 d95a 8430 fd52 d9b0 5f58 5430
00000290: 067a 8cb0 7f20 b9b0 9797 73b0 361c f0b0
000002a0: 7d93 aab0 baf9 be30 7bd7 adb0 b2df 9230
000002b0: cfd5 aab0 7391 cdb0 6337 a0b0 6b8e f7b0
000002c0: 3fbd 6239 d99c 9639 23e9 6b39 a3e6 8d39
000002d0: bc9b aa39 fec6 b337 55ab b539 54a4 8e37
000002e0: 0801 8a39 c405 b939 d202 8d39 ae55 ad39
000002f0: 5482 a839 bc33 be36 ec94 b239 ccd4 4437
00000300: 638c 113a ca5b ba3b e4ae b33b 2fbd dc39
00000310: 9da2 963b 24f3 633c 4463 573c f9b5 df3b
00000320: ad73 083c efdd 713c b5e9 6e3c b00a ff3b
00000330: 7916 a8bb 081e d43b c2bd 2f3b bfb0 6b3a
00000340: 0167 a837 91bb 08b6 cd73 9e37 2502 10b7
00000350: 776b 8e37 165b e037 97e8 9037 b3c3 ed37
00000360: 26bd a337 0792 6037 d741 9e37 a635 9436
00000370: 501e 5a37 a11b ef37 2c4f 5b37 48d4 0238
00000380: 7c42 7738 ff67 8d38 53d7 5b38 acec 6838
00000390: fde0 f3b6 b862 8f35 acb4 ff35 f537 4e37
000003a0: 895b 7438 e9be 9638 93c8 5a38 bdac 8138
000003b0: 3234 b6b7 53b8 2a37 4497 40b7 fe49 8e37
000003c0: fc93 73bb 26f7 afba d5ce 38bb 7748 9dbb
000003d0: d4aa 57bb e99e 5139 5dff abba d79d abbb
000003e0: 7f4f d6b9 c3a0 123b e738 cc3a d12d e9ba
000003f0: 32ee 48bb 9160 7ab8 1ce5 c2ba b112 98bb

module.transconv3.bias f4 [32]
-1.3132586e-07 -6.190712e-09 0.16318649 0.11654015 -8.385421e-08 -3.0993529e-06 0.095214605 1.0045351e-10
0.14743102 -0.07831337 -4.564844e-09 -0.0028513344 0.060030024 -7.676269e-05 -0.00025003243 0.18373992
0.01885279 -1.8187205e-08 -7.0483126e-09 0.1459813 0.2943961 0.10084071 0.34765485 0.11848706
0.026047926 0.03128686 0.15390533 0.13221885 -0.00071144616 -3.5959054e-08 0.106669106 -2.2898039e-08
00000000: 9402 0db4 14b6 d4b1 5c1a 273e 9aac ee3d
00000010: 5713 b4b3 7afe 4fb6 e0ff c23d 4ce6 dc2e
00000020: 28f8 163e c362 a0bd cbd8 9cb1 74dd 3abb
00000030: 0be2 753d a8fb a0b8 c916 83b9 5126 3c3e
00000040: 2b71 9a3c 163a 9cb2 9d2d f2b1 1f7c 153e
00000050: 16bb 963e 9385 ce3d d1ff b13e 58a9 f23d
00000060: 7662 d53c a726 003d 5c99 1d3e 6164 073e
00000070: 5880 3aba 6671 1ab3 5575 da3d 52b1 c4b2
