wentao_models/log_ConvAutoencoder_conv1x1_512_out/bionoi_autoencoder_conv.pt (torch_old, 265690 bytes, 20 tensors)

module.conv1.weight f4 [16, 3, 3, 3]
00000000: 7455 e23b 58f4 cb3b 14d0 833b d50e f93b
00000010: 894a 0f3c 1027 b63b 5093 3639 4ccc 813a
00000020: 0424 9939 d9ac b83d 8f83 be3d 192a b43d
00000030: e6ad ca3d d9ac d63d bf88 ca3d 536b b93d
00000040: 3a3e c53d 4ba3 c03d 8846 ff3d 30eb 023e
00000050: 7d15 fd3d ec3c 093e 8c7f 0e3e d7c9 093e
00000060: 9835 033e 7fa6 083e 529a 063e b86b a3bd
00000070: 4ec0 9cbd bb3a 9fbd 1173 a2bd 56be 99bd
00000080: b362 a0bd 4745 99bd c7a0 96bd 972f 99bd
00000090: abbd e1bc c932 e2bc 9324 f5bc 3696 b1bc
000000a0: f6ea a2bc 544f c1bc 280e a6bc de6d acbc
000000b0: 54d6 acbc 3295 a53c b974 9e3c 79df 9b3c
000000c0: 1eee b63c 1195 bc3c 5940 b63c d3bc b13c
000000d0: 81f2 aa3c d964 be3c 9300 843d 7b0e 853d
000000e0: dc08 853d 46d1 873d 3429 873d 444a 873d
000000f0: 8d4b 893d 8f90 883d 5c7f 863d 53d4 4d3c
00000100: 6187 4b3c 76cb 5a3c 15e1 3f3c d39f 313c
00000110: b433 3f3c 162b 3a3c bba0 2a3c 5678 203c
00000120: cb9c 33bd e58a 35bd fa31 2fbd 1df2 40bd
00000130: 9ef8 43bd 1742 3dbd 01ee 40bd 7adb 43bd
00000140: 6ccf 40bd 5962 0500 3840 0080 a512 0100
00000150: f663 0000 4bea 0080 c962 0400 757e 0180
00000160: 2274 0180 680d 0400 c420 0380 967f 0000
00000170: b8b2 0000 9277 0200 bf2a 0080 030e 0080
00000180: dd20 0100 360a 0200 96ee 0180 58af 0280
00000190: 18c2 0180 ca8f 0200 7bb3 0100 1294 0080
000001a0: 9d7d 0080 bba9 0380 f0d6 0180 0734 0200
000001b0: 4ad1 4d3e 3fd2 513e c28e 483e 43b4 563e
000001c0: e448 5e3e 2b2a 533e 285d 3f3e 8785 443e
000001d0: 3e3e 3d3e 02b6 113e 660b 153e 40b4 113e
000001e0: 9ef2 103e e1de 183e 5a23 123e 7f34 f93d
000001f0: 029b 003e 2075 fc3d 7604 383c 9f15 613c
00000200: b1bd 7d3c 58fd e63b e015 4e3c d0b4 393c
00000210: ac1c 17bb 9f43 aab9 4eb2 7d3a 6760 01bd
00000220: d317 f3bc bc3a e6bc 63fa e4bc ec30 c0bc
00000230: ff6d e4bc 9936 b8bc 486d c5bc 0798 cebc
00000240: 0054 ccbc aa2b b5bc 6537 d4bc 8d21 b1bc
00000250: 0fe8 65bc efab d2bc 657b b1bc 3008 b1bc
00000260: 45fa e4bc a5dd 83bd 0fd5 71bd a91b 84bd
00000270: a2ac 81bd f956 5cbd e6a8 82bd 45bc 89bd
00000280: 85d4 7fbd c439 8bbd bd19 71bd 9073 6cbd
00000290: de89 6ebd e110 75bd d533 74bd 1bf5 74bd
000002a0: bcbf 6bbd bff4 68bd 1d73 6abd 40ea 77bc
000002b0: 25a5 59bc d6d2 7ebc e4d9 16bc 47fc 07bc
000002c0: b17a 1ebc 8f3b 2bbc 8fb2 0fbc 6856 1fbc
000002d0: a5d9 903d 4e2c 933d 7063 903d 45ba 9b3d
000002e0: 233d 9d3d 7e0b 9c3d df2a 973d c0a6 993d
000002f0: cbf4 993d 92cb db3d 464a dd3d ec4f dc3d
00000300: 08e7 e23d 1484 e33d 59ae e13d 2182 e03d
00000310: 976e df3d 17e4 db3d 7740 f93c 0321 fc3c
00000320: 3ca0 ff3c 2a72 f43c 4544 f73c 8b3c f23c
00000330: 99ec d43c 6638 cd3c b6de be3c 9ae0 74bd
00000340: 2114 75bd 92f2 6dbd 9763 83bd 76cf 82bd
00000350: 5c59 80bd bf78 87bd ac78 88bd 957b 87bd
00000360: aa16 0480 686a 0100 cb9a 0280 507e 0180
00000370: 3213 0100 0f74 0180 9de4 0280 876d 0300
00000380: e9ad 0500 bb36 0280 3494 0080 9f04 0280
00000390: 68fc 0200 3b20 0280 65c7 0000 ea11 0180
000003a0: a91c 0080 0221 0100 4d8a 0180 548f 0080
000003b0: e8d4 0000 6831 0080 b358 0100 ad20 0000
000003c0: b3d1 0080 36ab 0380 a00f 0000 b90d 44bc
000003d0: 3f15 4fbc 3610 53bc 009a 59bc a995 4cbc
000003e0: d776 64bc 26dd 64bc 2c55 60bc be5f 60bc
000003f0: 0d2c 1c3d ee87 1e3d 91cd 143d 14dd 343d
0.0069071595 0.0062241964 0.0040226076 0.007600645 0.008745798 0.005558856 0.00017411751 0.0009902804
0.00029209268 0.09017343 0.093024366 0.08797092 0.0989645 0.10482187 0.098893635 0.090536736
0.096310094 0.09406146 0.12464625 0.1278503 0.12357614 0.13402146 0.13915843 0.13455902
0.12813413 0.13344763 0.13144806 -0.0797953 -0.07653867 -0.07774874 -0.079321034 -0.07507007
-0.078313254 -0.07483917 -0.073548846 -0.0747978 -0.027556261 -0.027612107 -0.029924667 -0.021678071
-0.019887429 -0.023597397 -0.020270422 -0.021048483 -0.021098293 0.020212743 0.019342767 0.019027459
0.02233034 0.0230203 0.02224748 0.021696484 0.020867588 0.023241447 0.06445422 0.064969026
0.064958304 0.066317126 0.06599656 0.06605962 0.06703863 0.06668197 0.065672606 0.012562829
0.012422414 0.013354173 0.011711379 0.010841328 0.011670042 0.011362812 0.010414298 0.009794315
-0.0438507 -0.044321913 -0.04277227 -0.047105897 -0.04784452 -0.046205606 -0.04710198 -0.04781673
-0.047072813 4.94458e-40 -2.3037e-41 9.8524e-41 3.5859e-41 -8.4048e-41 4.0278e-40 -1.372e-40
-1.33496e-40 3.72151e-40 -2.8726e-40 4.5769e-41 6.4112e-41 2.26565e-40 -1.5334e-41 -5.026e-42
1.03625e-40 1.87334e-40 -1.77424e-40 -2.46572e-40 -1.61463e-40 2.35253e-40 1.56221e-40 -5.3118e-41
-4.5062e-41 -3.36394e-40 -1.6894e-40 2.02335e-40 0.20099369 0.20490359 0.19585708 0.20967202
0.21707493 0.20621555 0.1868788 0.19191562 0.18480775 0.14229587 0.1455513 0.14228916
0.14155051 0.14928772 0.14271298 0.12168216 0.12559131 0.12327027 0.011231532 0.013738065
0.0154871205 0.007049244 0.012578458 0.011334613 -0.0023057861 -0.00032475308 0.00096777536 -0.031586077
-0.029674446 -0.028104179 -0.027951425 -0.023460828 -0.027884481 -0.022486972 -0.02409996 -0.025218977
-0.024942398 -0.022115547 -0.02590532 -0.021622444 -0.014032378 -0.02571675 -0.021665284 -0.02161035
-0.027951369 -0.0643876 -0.05904108 -0.06450588 -0.06331755 -0.05379388 -0.06379871 -0.06725363
-0.062458534 -0.06798127 -0.058862437 -0.057727396 -0.05823695 -0.05983055 -0.059619743 -0.059804063
-0.0575559 -0.056874033 -0.057238687 -0.015131533 -0.013284002 -0.015553197 -0.009207223 -0.008299894
-0.009672807 -0.010451212 -0.008770599 -0.009725191 0.070727624 0.07186185 0.07050216 0.076038875
0.076776765 0.076193795 0.07381224 0.07502508 0.07517394 0.10732187 0.10805182 0.107574314
0.11079222 0.11109176 0.11019582 0.1096232 0.10909765 0.10736864 0.030426247 0.03077746
0.031204335 0.029839594 0.03018392 0.029569885 0.025991725 0.025051307 0.023299556 -0.05978451
-0.05983365 -0.05809266 -0.0641548 -0.06387226 -0.06267044 -0.06614827 -0.06663641 -0.06615368
-3.75472e-40 1.30007e-40 -2.392e-40 -1.37148e-40 9.8721e-41 -1.3347e-40 -2.65682e-40 3.14797e-40
5.21565e-40 -2.03305e-40 -5.3165e-41 -1.85329e-40 2.74217e-40 -1.95233e-40 7.1529e-41 -9.8262e-41
-1.0281e-41 1.03676e-40 -1.41448e-40 -5.1416e-41 7.6376e-41 -1.7724e-41 1.23655e-40 1.1722e-41
-7.5226e-41 -3.36925e-40 5.605e-42 -0.011966162 -0.012639343 -0.012882283 -0.013281345 -0.012486854
-0.013944349 -0.0139687415 -0.013692182 -0.013694702 0.038127948 0.03870385 0.036328856 0.04415615

module.conv1.bias f4 [16]
00000000: 9890 4f3e dc9e cf3e b077 9e3d b68d 0080
00000010: 232f 433e d35f 063f 164f 683e a66d 2c3e
00000020: 748f 0000 fae8 433e e5bd aa3e 305f f03e
00000030: f095 4b3e 7ad9 e03d ddc4 753d 9d6f e93d
0.20270002 0.40550888 0.07737672 -5.0836e-41 0.1906095 0.52489966 0.22686419 0.16838703
5.1461e-41 0.19131842 0.33348003 0.46947622 0.19881415 0.1097898 0.060002197 0.11398242

module.conv2.weight f4 [32, 16, 3, 3]
00000000: adca 0100 0917 0280 6051 0080 0331 0180
00000010: 4465 0080 2607 0000 ead8 0200 5e95 0200
00000020: d1a0 0200 3e13 0180 0d66 0080 87ce 0200
00000030: 374d 0380 aa12 0100 28bd 0080 336c 0380
00000040: dd5b 0180 13fb 0180 39a5 0380 af03 0100
00000050: 6499 0480 5ca7 0180 5633 0380 b622 0680
00000060: 3082 0300 17bb 0380 ebfc 0000 1f39 1980
00000070: 0ebe 0480 fd35 ce00 08e2 8090 4113 9800
00000080: 02d3 af8b 839f 0480 0a16 2500 0d24 1c80
00000090: eaca 0080 e8e0 0280 63c6 0080 66c1 0000
000000a0: 5b28 0180 d440 0000 b26f 0200 0a18 0080
000000b0: c97a 0100 8215 0180 697c 0080 52cc 0180
000000c0: 8892 0080 8510 0380 82ab 0200 c797 0180
000000d0: a322 0380 1a9c 0080 d8d4 0180 a714 0080
000000e0: 1f62 0280 3d7a 0480 c23e 0100 287b 0480
000000f0: 5bab 0000 676b 0400 2287 0100 0703 0080
00000100: e811 0480 790b 0080 12c0 0280 fc94 0180
00000110: 3874 0280 55a2 0280 6c24 0280 67ae 0100
00000120: f6d9 0600 eaa6 1700 8a10 0500 1091 2600
00000130: 373a 0600 c243 2001 95be 0c00 4155 1d00
00000140: 9699 ea00 6d34 0200 5164 0180 dd45 0100
00000150: 4388 0280 e02a 0200 5738 0080 227d 0200
00000160: 6bee 0000 4fb2 0000 576c 0100 ded6 0100
00000170: 3edc 0280 6fcf 0080 0382 0180 690f 0180
00000180: 7287 0200 0050 0080 2a26 0080 f267 0200
00000190: 0ace 0080 a13a 0100 7456 0180 4adf 0080
000001a0: 469d 0100 69b6 0000 3940 0380 6a2d 0280
000001b0: eb11 0200 6636 0280 bbea 0000 12fd 0180
000001c0: 6c11 0280 d71e 0080 060b 0000 409f 0000
000001d0: 3c20 0380 c1ae 0480 cd52 0280 f153 0300
000001e0: 8591 0300 1eca 0400 2c78 0000 6a30 0280
000001f0: 2b8a 0280 ab25 0280 512a 0100 c6ba 0180
00000200: e276 0000 4923 0200 32f8 0000 173a 0100
00000210: 1473 0300 aaae 0380 b322 0280 e20e 0180
00000220: d4a7 0380 05fd 0480 927a 0000 7e9a 0380
00000230: 0950 0080 e8b9 0200 4baa 0280 6dbc 0480
00000240: a3a0 883b b2d9 123a e665 a6ba 62c4 293c
00000250: a539 263c 250f 333c 19d3 733c bf1c 823c
00000260: 46dc a43c 18d3 973d f9a9 963d e97e 963d
00000270: c8aa 8e3d b232 8d3d b45a 8e3d 1afe 883d
00000280: ee8e 863d a971 873d bcea 133a cb20 a3b9
00000290: 8a48 ff3a 379e 31bb 1e9c 7fbb 26a4 15bb
000002a0: c608 63ba f183 1fbb eab5 85ba 2283 0000
000002b0: f9f1 0080 8e04 0000 79bf 0380 7261 0200
000002c0: d0fa 0200 06a5 0000 955a 0080 812f 0200
000002d0: a9c3 64bd 539a 7ebd 0288 68bd f39b 58bd
000002e0: 0b8c 69bd 9516 56bd aa28 34bd 8d09 3dbd
000002f0: b52f 1fbd 6998 803d 74b6 7f3d ea71 823d
00000300: f042 613d d0f8 593d 8722 623d 46c7 5a3d
00000310: 5b1b 513d 5685 523d 0973 3c3d d8c0 393d
00000320: c980 393d 00e7 3b3d 85a9 393d 1646 3b3d
00000330: 0dda 393d 4217 383d 9994 3b3d db3d aeba
00000340: 1a4b 51bb fa7b 383a 031e b8bb 3761 00bc
00000350: cbdd a3bb 2fc0 f9ba df60 95bb 5ff3 fbba
00000360: 6843 0280 383b 0580 ccb7 0480 e29a 0300
00000370: 2568 0480 8f8c 0080 4f44 0580 f843 0280
00000380: ee36 0280 fd5f b33c ad92 a53c 2439 993c
00000390: 9459 d73c 6dec d83c 1e46 d93c 4a4b e83c
000003a0: 472d ec3c d714 003d 4739 f63b beea 023b
000003b0: dfa5 34ba 72a7 8a3c e176 883c c6b6 933c
000003c0: 8efb bc3c bf26 cb3c a62b 003d d14b 683d
000003d0: 56ff 663d 2c7a 6b3d 6fe2 4b3d bc82 453d
000003e0: eca8 4c3d 2992 453d 1216 3d3d 5842 3e3d
000003f0: f0ca 39bb f1a5 a4bb 5a74 5dba 3453 e3bb
1.64542e-40 -1.91934e-40 -2.9192e-41 -1.09418e-40 -3.6327e-41 2.564e-42 2.61485e-40 2.37254e-40
2.41361e-40 -9.8738e-41 -3.6609e-41 2.57759e-40 -3.03206e-40 9.8531e-41 -6.7856e-41 -3.14321e-40
-1.2479e-40 -1.81904e-40 -3.34777e-40 9.3157e-41 -4.22368e-40 -1.51873e-40 -2.93922e-40 -5.63465e-40
3.22209e-40 -3.42622e-40 9.073e-41 -2.316379e-39 -4.35521e-40 1.893748e-38 -5.0835354e-29 1.3965902e-38
-6.772504e-32 -4.24564e-40 3.40582e-39 -2.584326e-39 -7.2792e-41 -2.64352e-40 -7.1168e-41 6.9378e-41
-1.06312e-40 2.3256e-41 2.2374e-40 -8.624e-42 1.35883e-40 -9.9551e-41 -4.463e-41 -1.65132e-40
-5.2566e-41 -2.81433e-40 2.45196e-40 -1.46283e-40 -2.87932e-40 -5.5999e-41 -1.6819e-40 -7.409e-42
-2.1887e-40 -4.11193e-40 1.14349e-40 -4.11522e-40 6.1471e-41 4.0587e-40 1.40312e-40 -1.086e-42
-3.73766e-40 -4.116e-42 -2.52573e-40 -1.45281e-40 -2.25362e-40 -2.41905e-40 -1.96737e-40 1.54399e-40
6.29203e-40 2.172094e-39 4.6511e-40 3.541787e-39 5.71897e-40 2.9435973e-38 1.170394e-39 2.693813e-39
2.1544602e-38 2.02478e-40 -1.27822e-40 1.16898e-40 -2.32552e-40 1.99052e-40 -2.0211e-41 2.2856e-40
8.5528e-41 6.3965e-41 1.307e-40 1.68915e-40 -2.62679e-40 -7.4413e-41 -1.38475e-40 -9.7364e-41
2.3226e-40 -2.8699e-41 -1.369e-41 2.2096e-40 -7.3913e-41 1.12868e-40 -1.22849e-40 -8.0101e-41
1.48255e-40 6.5436e-41 -2.98545e-40 -1.99962e-40 1.90099e-40 -2.03185e-40 8.4205e-41 -1.8262e-40
-1.89921e-40 -1.1063e-41 3.954e-42 5.7128e-41 -2.8707e-40 -4.30032e-40 -2.13374e-40 3.05619e-40
3.27709e-40 4.39848e-40 4.311e-41 -2.01039e-40 -2.33236e-40 -1.97184e-40 1.07016e-40 -1.58837e-40
4.2647e-41 1.96329e-40 8.9036e-41 1.12674e-40 3.16789e-40 -3.38164e-40 -1.96119e-40 -9.7174e-41
-3.35712e-40 -4.58108e-40 4.397e-41 -3.30928e-40 -2.8711e-41 2.50362e-40 -2.4476e-40 -4.34936e-40
0.00416954 0.0005601897 -0.0012695163 0.010361763 0.010145579 0.010928904 0.014881873 0.015882848
0.020124566 0.0741331 0.073566385 0.07348425 0.06966168 0.06894435 0.06950894 0.06689091
0.065702304 0.06613476 0.0005642583 -0.00031114215 0.0019476574 -0.002710236 -0.0039002965 -0.0022833436
-0.000866067 -0.0024340118 -0.0010201309 4.7042e-41 -8.6803e-41 1.634e-42 -3.44194e-40 2.18628e-40
2.73646e-40 5.9199e-41 -3.2495e-41 2.00712e-40 -0.05585066 -0.062158894 -0.056770332 -0.0528831
-0.05701832 -0.05226763 -0.043984093 -0.046151686 -0.038863856 0.0627907 0.06242986 0.06369384
0.054995477 0.0532158 0.05520871 0.0534127 0.05105148 0.05139669 0.046008144 0.045349926
0.045288835 0.045874596 0.045327682 0.045721136 0.045373965 0.044944055 0.04579601 -0.0013293581
-0.0031935633 0.0007037517 -0.005618812 -0.007835678 -0.005000805 -0.0019054468 -0.004558667 -0.001922231
-2.07852e-40 -4.80421e-40 -4.33276e-40 3.31068e-40 -4.04702e-40 -5.0423e-41 -4.83682e-40 -2.08054e-40
-2.03376e-40 0.021896357 0.020211542 0.018704005 0.026287831 0.026479924 0.026522692 0.028356213
0.028830184 0.031269874 0.007514152 0.0019976343 -0.0006891172 0.016925547 0.016658248 0.01803149
0.02306917 0.024798749 0.031291626 0.05671293 0.05639585 0.05748956 0.04977649 0.04822038
0.049965784 0.048235092 0.046163626 0.04644999 -0.002834972 -0.0050246646 -0.00084478187 -0.006937409

module.conv2.bias f4 [32]
00000000: e630 0180 e279 e23d a382 023d 4815 0000
00000010: 433e 2d3d 5743 0100 7243 0200 f81d 093e
00000020: 136f f53b 68ce d83c 2f6a 613d 4507 9b3c
00000030: 3c4b 003d fbd1 e23c b77d d53d 1f24 073d
00000040: 9393 8a3d 7efb 0080 c4b5 d83c 587c 0080
00000050: 4f7f 1f3e 3d0e 0100 89dc a23c 33f3 5d3d
00000060: 9cf1 0080 9b15 0280 49d4 8dba 621b 0080
00000070: f20e 0100 06a4 973c 55ce 0000 9f14 b63d
-1.09377e-40 0.110584036 0.031862866 7.634e-42 0.042295706 1.15992e-40 2.07866e-40 0.13390338
0.0074900477 0.02646561 0.055032905 0.018924365 0.03132175 0.027688017 0.10424369 0.032993432
0.06766429 -9.0218e-41 0.02645386 -4.4606e-41 0.15575908 9.6943e-41 0.01988055 0.05418701
-8.6673e-41 -1.91422e-40 -0.0010820712 -9.823e-42 9.7197e-41 0.01851083 7.4018e-41 0.08890652

module.conv3.weight f4 [32, 32, 3, 3]
00000000: fc1a 0080 933d 0300 29a2 0080 2d1e 0300
00000010: fd53 0200 4a4f 0000 e27c 0280 112a 0280
00000020: 00cc 0200 769c 473d beab 2d3d e7ae 3f3d
00000030: 5b9b 023d af2c e63c 681a 0b3d 3546 243d
00000040: 4166 153d 1b2c 383d e2d8 c0bc f784 abbc
00000050: 0835 5abd 99a3 febb cc19 873c b028 f3bb
00000060: 4bce 79bd ae99 c1bc fc85 a6bc c3a6 0100
00000070: 315e 0200 64df 0380 0972 0000 ad84 0180
00000080: 4f2d 0000 5b6d 0000 66a6 0300 c003 0200
00000090: b502 6ebb 1d81 a1bb f66e bcbc 3dc4 b4ba
000000a0: 75e7 373c a18c f8b9 905d f2bc 2bfa 0abc
000000b0: 1b57 fcba 8703 0080 7a33 0100 04a7 0180
000000c0: 0f1a 0100 7ecf 0000 99c2 0080 1274 0080
000000d0: 2f2c 0680 12d2 0280 8454 0600 78d0 0080
000000e0: 34ff 0280 254f 0400 fe89 0080 10a3 0180
000000f0: fd18 0000 8993 0280 7258 0200 a126 703d
00000100: 0db3 503d dbe4 643d dc40 203d 675c 0c3d
00000110: 810b 283d 18c5 4a3d e0ad 363d 5c75 5f3d
00000120: c122 86bd 75b3 61bd e3c8 b2bd d749 0abd
00000130: f6ec a2bb eb3a 0ebd 30c8 b9bd 2a5c 5ebd
00000140: 8031 7ebd f385 4abb 5458 74bb 7cd9 7dbc
00000150: 8f72 8fba e25d e63b 5c01 45ba 3323 9ebc
00000160: 34ef bbbb 4567 e5ba 5114 cbbd c9a3 aebd
00000170: 42d1 e4bd 671c 4abd 7998 9dbc 4e18 4fbd
00000180: dea8 e4bd 9f70 aebd cc3e d0bd ce62 52bc
00000190: e386 35bc 82e6 edbc 0b1e 84bb 8343 183c
000001a0: 6d59 84bb 2c98 09bd c84a 53bc 1f1a 33bc
000001b0: 94f8 59bb 158e 89bb 6bbd 92bc 14d8 97ba
000001c0: f426 083c 06ae 34ba a18d b6bc 7bd8 d2bb
000001d0: aa25 deba 3622 3fbb f2c8 6ebb 09cc 80bc
000001e0: 3fb3 82ba 5ffa ef3b eb29 21ba d79f a0bc
000001f0: 649c b9bb ccab c2ba 7082 7f3c 7fb9 823c
00000200: 9b53 983c 37b7 553c 4aad 5b3c 9b13 563c
00000210: 9088 5d3c c357 213c 04d1 1b3c f7db c8bc
00000220: 1324 b3bc 823f 63bd 0690 04bc 5b8c 8c3c
00000230: 5559 fcbb 97c8 81bd 5317 c9bc 863d adbc
00000240: fa82 803c 630a 7a3c 12e4 8d3c 98bd 473c
00000250: f4b5 3e3c b839 493c 8d7a 683c a9a6 3e3c
00000260: 8662 483c d193 0380 8dda 0200 680e 0080
00000270: 8870 0100 cd69 0280 b298 0080 38d3 0180
00000280: a691 0180 6504 0080 5a6a 40bb 95d0 6abb
00000290: f18c 79bc 1827 87ba 81a2 e53b d507 31ba
000002a0: 6521 9cbc 59e4 b7bb 7a1d d4ba 1a42 0300
000002b0: ee6f 0080 3d2e 0380 6d78 0000 19e3 0380
000002c0: 035a 0000 a0b8 0380 6e76 0080 2596 0380
000002d0: 4a26 2d3d 1d61 263d 5b2d 3b3d 9e8d 033d
000002e0: 7ec4 f53c b3e0 033d 3c1a 1d3d b63e 043d
000002f0: d7e2 0c3d 82f4 0200 0c01 0300 e01e 0580
00000300: 6281 0200 44f7 0000 886e 0080 a829 0300
00000310: 3872 0280 dd03 0600 9f47 61bc c8ba 42bc
00000320: 901a febc fea4 8ebb 9481 213c 5f53 8ebb
00000330: 2dda 12bd 8210 62bc 8c4b 40bc 792b 63bd
00000340: 6e0b 42bd dcf7 6bbd 7718 dfbc d38f 58bc
00000350: b676 e5bc 8bcb 5bbd bd4d 3abd b997 69bd
00000360: 91f9 0200 651d 0080 55b7 0280 a858 0280
00000370: d7a5 0400 7ae8 0300 6625 0380 d1b2 0200
00000380: 9c13 0000 2401 0100 d6a0 0380 7461 0380
00000390: db90 0580 9ca7 0280 fd97 0680 eeaa 0580
000003a0: ff28 0180 b20e 0080 b072 f0bb 88b8 cbbb
000003b0: a4f3 44bc 04ff 77bb 49bf 7739 89fe 8dbb
000003c0: 55b5 52bc 8d23 d6bb efd9 ddbb ebb2 0180
000003d0: 180c 0300 d333 0080 eec7 0100 e5e8 0200
000003e0: f591 0500 2dbf 0280 202f 0300 db5d 0480
000003f0: 4ab5 0000 db7e 0480 22ae 0580 26df 0200
-9.68e-42 2.97595e-40 -5.8172e-41 2.86332e-40 2.138e-40 2.8444e-41 -2.2847e-40 -1.98762e-40
2.56852e-40 0.048733197 0.042400114 0.04679766 0.03188644 0.028097479 0.03396073 0.040106017
0.03647447 0.044963937 -0.023540918 -0.020937426 -0.05327323 -0.007770967 0.016491793 -0.007420622
-0.060987752 -0.02363285 -0.02032756 1.51658e-40 2.1746e-40 -3.55644e-40 4.0908e-41 -1.3943e-40
1.6254e-41 3.923e-41 3.35199e-40 1.85016e-40 -0.0036317531 -0.0049287216 -0.023002129 -0.0013791394
0.011224617 -0.00047407023 -0.02958563 -0.008482496 -0.0019252034 -1.265e-42 1.10302e-40 -1.5175e-40
1.01184e-40 7.4434e-41 -6.9808e-41 -4.1638e-41 -5.66863e-40 -2.5903e-40 5.81331e-40 -7.4784e-41
-2.7522e-40 3.95734e-40 -4.9502e-41 -1.50331e-40 8.964e-42 -2.36597e-40 2.15399e-40 0.05863059
0.050952006 0.055882316 0.039124355 0.03426781 0.041026596 0.04950437 0.044599414 0.054555282
-0.065495975 -0.055102784 -0.08729722 -0.033761825 -0.0049720956 -0.034724157 -0.09071386 -0.054287113
-0.062058926 -0.0030902594 -0.0037284093 -0.015493747 -0.0010944175 0.0070302347 -0.0007515156 -0.019303894
-0.0057353023 -0.001750209 -0.099159844 -0.08527333 -0.11172725 -0.049343493 -0.019237744 -0.050560288
-0.11165021 -0.085175745 -0.101682276 -0.01284094 -0.011079523 -0.029040579 -0.0040319017 0.00929344
-0.0040389807 -0.033592388 -0.012896247 -0.010931521 -0.0033259736 -0.0041978457 -0.017912587 -0.0011584782
0.008310068 -0.00068923866 -0.02228433 -0.006434498 -0.0016948481 -0.0029164678 -0.003643569 -0.015722292
-0.0009971632 0.0073235477 -0.0006147909 -0.019607468 -0.005664395 -0.0014852225 0.015595064 0.015957592
0.018594554 0.01304417 0.013408015 0.013066198 0.013521329 0.009847584 0.009510282 -0.02451895
-0.021867787 -0.055480488 -0.0080909785 0.01715677 -0.007701079 -0.063370876 -0.024547255 -0.0211475
0.015687454 0.015261265 0.017320666 0.012191199 0.011640061 0.012281828 0.014189375 0.011636415
0.012230521 -3.28533e-40 2.62072e-40 -5.168e-42 1.32204e-40 -2.21625e-40 -5.4777e-41 -1.67607e-40
-1.44084e-40 -1.576e-42 -0.0029360265 -0.003582989 -0.015231357 -0.0010311333 0.0070078974 -0.0006753181
-0.019058893 -0.005611938 -0.0016183101 2.99219e-40 -4.0153e-41 -2.92094e-40 4.32e-41 -3.56974e-40
3.229e-41 -3.41737e-40 -4.2485e-41 -3.29368e-40 0.042272843 0.04061996 0.04569755 0.03211748
0.030000921 0.03219671 0.038355097 0.03228637 0.03439602 2.71384e-40 2.75882e-40 -4.70253e-40
2.30085e-40 8.8702e-41 -3.9651e-41 2.9045e-40 -2.24645e-40 5.52399e-40 -0.013749986 -0.011885352
-0.031018525 -0.0043531647 0.009857554 -0.0043434347 -0.0358526 -0.013797881 -0.011736762 -0.05546138
-0.04737418 -0.057609424 -0.027233345 -0.013217884 -0.028010707 -0.05366091 -0.045484293 -0.05702946
2.73199e-40 -1.0545e-41 -2.49438e-40 -2.15475e-40 4.26834e-40 3.58903e-40 -2.88923e-40 2.47818e-40
7.035e-42 9.2245e-41 -3.33204e-40 -3.10466e-40 -5.11142e-40 -2.43798e-40 -6.05536e-40 -5.20495e-40
-1.06542e-40 -5.272e-42 -0.0073378906 -0.006217066 -0.012020979 -0.003784121 0.00023627015 -0.0043333215
-0.012860616 -0.0065349997 -0.0067703645 -1.56019e-40 2.79845e-40 -1.8591e-41 1.63557e-40 2.67218e-40
5.11537e-40 -2.52252e-40 2.92412e-40 -4.01011e-40 6.5034e-41 -4.12849e-40 -5.21645e-40 2.63722e-40

module.conv3.bias f4 [32]
00000000: 770b c53c 11a5 0b3c e24b 343c ea43 6aba
00000010: 57f9 b93c 8d29 8e3b 1034 4d3c b171 753d
00000020: 9b77 c33c c63c 973c ff43 f73b e95f 8abb
00000030: 5c07 9c3c 04ef f13c b3ae a63b 0510 37bb
00000040: 21cb f23a 469f 88bb 2147 eebb 93db 63bb
00000050: b7d5 14bc 583a ca3b 94f9 1ebb 104f 6fbb
00000060: 015e 383c d4ef 90b9 a02a 443c cc51 533d
00000070: 2bb8 503a 98f6 acbb 93f1 24b9 38f6 503c
0.024053318 0.008523242 0.01100442 -0.00089365116 0.022701902 0.0043384493 0.01252462 0.059922878
0.023860743 0.018461596 0.0075459476 -0.004222859 0.019046478 0.029532917 0.0050867437 -0.0027933132
0.0018523672 -0.0041693775 -0.007271663 -0.0034768328 -0.009084157 0.006171506 -0.0024257647 -0.003651563
0.011252881 -0.00027644506 0.011973053 0.05159168 0.00079620135 -0.0052784197 -0.00015730252 0.012754016

module.conv4.weight f4 [32, 32, 3, 3]
00000000: 7809 1bbc 06a5 e2bc 05ad e4bc 112a 59bb
00000010: 3f2b 60bc 38d7 3a3c cf6f 49bc b33b fabb
00000020: 191e 873b b81e 953b 3b5e 61bd 10cd 7dbc
00000030: 516e d93b 41bc b6bd 2b04 643c 0c33 37bc
00000040: 406b bd3c a75a f43b fb1b 9a3c 8921 9b3c
00000050: 3bdb c63c 2d78 bc3c 88e8 a4bc ebad e4ba
00000060: 1706 72bc 0181 8dba e6fa 843c 0e96 f3bb
00000070: 7e46 82bb 84c0 53bc 6a15 90bb 9a47 9dbc
00000080: 0b17 e83b 0051 533b e576 a73b faaa c9ba
00000090: 25ec e93b 3550 5e3c ae83 b2ba c4f9 823b
000000a0: c3fc b1bc 18a7 84bc 6f23 943b 2dc1 ae3b
000000b0: 58b0 2f3c b351 b43b d50e ee3c 9b62 0b3c
000000c0: 6c5e 9c3c 526a babb 2c7b 5cbc dad4 58bc
000000d0: ca1d 67bc 68e9 84bc 9a63 ef3c eb90 673c
000000e0: 9a1a 513c 87c3 afbb 5fa1 7f3c ea71 1f3d
000000f0: 65a1 08bd d576 193c 1624 6fbb 62aa afbc
00000100: 6284 9a3c 2ca5 123d 51fd 883c c0b5 133d
00000110: 7c91 353d 45d1 f8bb 9f4b 7f3b e363 b0bc
00000120: 0add 84bc fde5 203c 6bc3 a33b cc73 483c
00000130: 8a79 153d cae3 ea3c 29b9 183c e09f d03c
00000140: 0dac e1bb 3e7a 1b3b d0a8 353d 48a9 d13c
00000150: 9a96 b13c 9d43 343d d708 183d 0491 8cbc
00000160: f0eb 053c b1e8 9abc ce26 04bb 0d09 b53c
00000170: 69e1 903c 8532 3bbb d209 4e3c e43c c13c
00000180: bae6 25bc 1cfd 82bc b65f 7cbc e491 213c
00000190: 7c10 83bc d85e 95bc d87a 253a 678a 763b
000001a0: 71e3 333a 5fb5 67bc 937e 193c afb1 6c3c
000001b0: d50f 92bb 4aa5 823b 879a 7cbc 380a ab3c
000001c0: e1a7 533d b408 4a3d 8d85 2cba 34a9 f83c
000001d0: 9091 503c 7512 8b3b 666d fc3c 2830 31bc
000001e0: 995c 413d 0702 973d ef0d 073b 6d04 48ba
000001f0: d958 1f3c 281a 833c 70d5 68bb a643 e13a
00000200: f94e 0d3b 565f df3a 00d8 0b3c 9369 bb3b
00000210: f532 d238 a1bc 833a 80b3 43bb fced 673a
00000220: 8137 2ebd 88ff a6bc fbd2 9a3c d6cd fd3c
00000230: 2a18 413d 5839 813b a8d8 073d e960 fd3c
00000240: 84d1 83bb aa1e f33b f5cf eebb 56ea 9ebb
00000250: 13d7 003d 62bb 013d 4a04 debb 341e 2ebc
00000260: 59c5 a23b 2de8 fb3b 96a2 1e3d 8b1b 103d
00000270: 9e37 32bc 1b02 0bbc 602c 9b3c 0ada 90bc
00000280: 168a 94bc 5c6b a6bb 22c9 023c c7c5 bbbc
00000290: 762a 8b3c d4a0 483b 7380 08ba 3b4d 9dbc
000002a0: b495 e4bb 8a25 1c3d 3829 c53c 2fb6 40bc
000002b0: 5df0 9f3c f642 17bd a0be 813c 334e 08bb
000002c0: 3320 11bd c697 233d 0f5d f6bb c2f0 113d
000002d0: e227 23bd 5f0c 13bd 7275 f6bc 5ac0 91bd
000002e0: e1cf 83bd 9e5e 40bd cd3c 8bbc e54a d038
000002f0: bf14 513c 729d 2ebc a785 7b3c f046 9a3c
00000300: cfb5 c93b 2ec8 773c 80f0 bab9 4da9 5dbc
00000310: 6bc3 51bc 7f9c db3c 9e99 debb fa1e 11bd
00000320: e5da 0fbd fb2f 933c d891 053c c4a1 0c3c
00000330: ad64 413c 5cbf e93c 9a58 af3c e5ac e63b
00000340: 5051 adbc b81c b83b accf a2bc ebc6 553b
00000350: 1251 383c 699b ccbb 48b6 e03b 3033 4ebc
00000360: 5d11 11bb 98d5 35bc 1cef 46bb 550e 8fbc
00000370: a3cc 08bd b9b7 693b 6784 42bc d5d9 ecbb
00000380: f1c9 06bb 92a6 973c fb65 e23c 056f 983b
00000390: d85b 383c 1394 4f3d 9462 363d 1c68 4bbc
000003a0: 02cc 673c b26f f43b 5ca0 90bc 9a5b 9d3b
000003b0: 02bb cbbb 39ca 8d3b 70a4 e23c 41c1 933c
000003c0: 8296 53ba 4de8 633c 8470 23bc 3ad7 13bd
000003d0: eda2 1f3d dad8 b23c c080 2d3c 245e c03d
000003e0: b455 a93d 8780 cfbc e3d5 e33c 3e1e 933c
000003f0: 8fd1 173c ebf7 8d3c a641 333c 835d 42bc
-0.009462707 -0.02766658 -0.027914533 -0.0033136646 -0.013682186 0.011403851 -0.012294724 -0.007636511
0.004123461 0.004550781 -0.055021506 -0.015490785 0.006635465 -0.08922625 0.013917009 -0.011181604
0.02312243 0.0074570957 0.01881217 0.01893689 0.02427446 0.023006523 -0.02013041 -0.0017446851
-0.01477196 -0.0010795892 0.016232919 -0.0074336594 -0.0039756885 -0.012924317 -0.004397084 -0.019199181
0.007082825 0.0032244325 0.005110609 -0.0015386038 0.0071387463 0.0135689275 -0.0013619566 0.0039970595
-0.021726971 -0.016192958 0.0045208256 0.005333087 0.010723196 0.0055029034 0.029059807 0.008507396
0.019087993 -0.005688944 -0.013457101 -0.0132343415 -0.014106223 -0.016224578 0.029222298 0.014133672
0.01276269 -0.005363885 0.015602439 0.038926996 -0.033357043 0.009366711 -0.0036490015 -0.02144355
0.018861953 0.03580205 0.016722353 0.036062002 0.044328198 -0.0075933062 0.0038954986 -0.021532005
-0.01621868 0.0098204585 0.004997661 0.012234639 0.03649286 0.028673071 0.009321489 0.02546686
-0.006886965 0.0023723985 0.044350445 0.025593415 0.021678258 0.044009794 0.037117805 -0.017158993
0.008173928 -0.018909784 -0.002016473 0.022099042 0.017685609 -0.0028564048 0.0125755835 0.023588605
-0.01012581 -0.015989833 -0.015403679 0.009861443 -0.015999071 -0.018233702 0.00063125556 0.0037619115
0.00068621995 -0.014142363 0.009368557 0.01444666 -0.0044574537 0.003986989 -0.015417702 0.020878896
0.051673774 0.049324706 -0.000658118 0.03035412 0.012730017 0.0042441436 0.030813884 -0.010814704
0.04720745 0.073734336 0.002060767 -0.0007630054 0.009725773 0.016003683 -0.003552761 0.0017186299
0.0021561964 0.0017041962 0.008535385 0.0057193725 0.00010023072 0.0010050723 -0.002986163 0.0008847413
-0.0425334 -0.020385519 0.018899431 0.03098194 0.047142185 0.0039436035 0.033165604 0.03093
-0.004022779 0.007419427 -0.007287974 -0.0048497124 0.03145511 0.031672843 -0.0067754136 -0.010627318
0.0049673733 0.0076875896 0.038729273 0.035182517 -0.010877518 -0.008484389 0.018942058 -0.017682094
-0.01813225 -0.005078716 0.007982524 -0.022921456 0.01698802 0.003061344 -0.00052071287 -0.019201865
-0.006975854 0.038121738 0.024067506 -0.011762186 0.019523794 -0.036929093 0.015837967 -0.0020798563
-0.0354311 0.039939664 -0.0075184177 0.035629995 -0.039832957 -0.03590047 -0.0300853 -0.07116766
-0.06436134 -0.046965234 -0.016996766 9.932163e-05 0.012761294 -0.010657655 0.015351689 0.018832654
0.0061557065 0.01512341 -0.0003565587 -0.013529134 -0.012802939 0.026808022 -0.006793215 -0.035429932
-0.035120863 0.017967215 0.008152448 0.00858349 0.011803788 0.02853363 0.021404553 0.0070396536
-0.021156937 0.005618658 -0.019874416 0.0032619785 0.011249797 -0.0062441123 0.006857667 -0.012585446
-0.0022135593 -0.011098288 -0.0030354923 -0.017462889 -0.03339828 0.0035662486 -0.0118723875 -0.007228116
-0.0020567144 0.018512044 0.027636519 0.0046519064 0.011252366 0.050678324 0.044527605 -0.012414958
0.01414776 0.007459604 -0.01765459 0.0048021795 -0.0062173614 0.0043270853 0.0276663 0.018036487
-0.00080714386 0.013910365 -0.009975556 -0.036093928 0.038973738 0.021831919 0.010589778 0.09392956
0.082683 -0.025329841 0.02781195 0.017958757 0.009266271 0.01733013 0.010940945 -0.011863115

module.conv4.bias f4 [32]
00000000: 0aa3 fe3c c85e a53c fd38 94bb 2a5a 2a3d
00000010: 94a2 993b 95f4 9a3c d1cf 9d3c 03ac b63c
00000020: cba7 973c 4a81 483c 59d5 ba3a 4069 b23c
00000030: b874 263c ce2e e43b 6207 3c3c ef8c 96bc
00000040: cf46 8c3b 4cc6 48bc 9134 443c 1499 86bb
00000050: 173e 0e3b 8c3f 9a3c a70c 293d ec62 2c3c
00000060: 945b 833c f40f 153d 2756 c33c b0f0 923d
00000070: 6d24 563c 60ac 993c b3ac 853c 948a b53c
0.031083602 0.020186797 -0.004523395 0.041589893 0.0046885703 0.018915454 0.019264134 0.022298818
0.018512627 0.012237856 0.0014254256 0.021778703 0.010159664 0.0069635874 0.01147637 -0.01837775
0.004280902 -0.012254309 0.011975423 -0.004107604 0.002170449 0.01882913 0.04127183 0.010521632
0.016034879 0.036392167 0.023844792 0.07174814 0.013070208 0.018758953 0.016317701 0.022160806

module.conv5.weight f4 [2, 32, 1, 1]
00000000: c8e7 a13e 6051 753e 4aeb 343d 320c 733e
00000010: 9379 87be d92e 83bd 2193 253e 4d93 7a3d
00000020: ee94 15be b88d 76be d297 b73d 9a58 b63d
00000030: 95c2 203e be11 a4be 7ad9 323e 279d 9dbe
00000040: 9c99 2bbc a05c bfbe 25e5 16be 7b83 80be
00000050: a94a e83c 3dc5 863e 9e06 3c3e bc40 52be
00000060: 475e 8dbe 9304 a43e c7ab 4e3d df66 0bbd
00000070: eef9 753e c1c8 173e 469d 8dbe 8285 90bc
00000080: 00a9 a9bd 130c d33d 905e 90be 5075 823e
00000090: 6ef2 93bd 0de7 94be b98f 023e bee6 cdbe
000000a0: 7e39 ec3e 28e6 cd3d 295a 6bbe e59a aabe
000000b0: e699 a63e 635e f83c e5c1 c03d dcb0 10ba
000000c0: 6348 86be e5bc 553d 0884 3abe 1f63 c1bc
000000d0: 7b20 99be 09ea 25be ce82 263e d982 bf3c
000000e0: e44f 0bbd 35af 7fbd edf8 883e 7a5f b33e
000000f0: 97cb 7abe 921b 733e 93c0 10bc bf54 753e
0.31622148 0.23956823 0.0441697 0.23735121 -0.2645994 -0.0640542 0.16169406 0.061175633
-0.14607593 -0.24077499 0.08964504 0.08903618 0.15699227 -0.32044786 0.17465773 -0.3078396
-0.010473635 -0.37375355 -0.14735849 -0.25100312 0.028355913 0.26322356 0.183619 -0.20532507
-0.2761099 0.3203474 0.05045679 -0.034033652 0.24021122 0.14822675 -0.27659053 -0.017641786
-0.08284187 0.10305037 -0.28197145 0.25480127 -0.07223974 -0.29082528 0.12750138 -0.40215105
0.46137613 0.100536644 -0.22983612 -0.333213 0.3253929 0.030318445 0.094119824 -0.0005519518
-0.26227102 0.052182097 -0.18214428 -0.023606835 -0.29907593 -0.16202559 0.16260836 0.023377823
-0.034011737 -0.06242295 0.26752415 0.3503378 -0.24491726 0.23740986 -0.008834976 0.2395811

module.conv5.bias f4 [2]
00000000: 840d ceb9 4d60 ba3c
-0.00039301452 0.022750998

module.transconv1.weight f4 [32, 2, 1, 1]
00000000: 8b64 0080 8870 0180 2faf 0080 0eba 0100
00000010: e69f c33e 3d6c 093f fc4b 723f e8b5 04bd
00000020: aba5 1cbf 8732 063f 54ea b83e a9ee 3e3f
00000030: 4a69 b13e bba7 2abe 366f af3e 66a8 5ebe
00000040: 011e 0100 1531 0000 e694 2a3f 7527 483e
00000050: da1f 0080 b034 0180 749b 033f c4f0 8dbe
00000060: 5731 323f ceb3 4dbf 495f 0180 9add 0000
00000070: ebdc 0300 f806 0100 2ea4 5d3f 6d79 52be
00000080: beda 92be a007 a43e b988 0000 50de 0000
00000090: 9552 a73e b7c3 7d3f dd47 0100 edaf 0280
000000a0: 5312 0000 0032 0080 97a5 37bd b24b 73be
000000b0: 1c25 0280 e9bc 0100 fc7c 23bf 933d 943e
000000c0: 6659 20bf 8f14 933c f051 ca3e 0568 a53e
000000d0: b970 0100 ece9 0100 070f e03e 279c 6a3d
000000e0: 3f0b 6f3e 38fb 883f 28ed d23d dd3e 6e3f
000000f0: bc87 1c3e 6807 4d3f 5a03 0000 e19f 0080
-3.6068e-41 -1.32204e-40 -6.2844e-41 1.5858e-40 0.3820793 0.53680784 0.9464719 -0.03240004
-0.6119029 0.5242085 0.36116278 0.74582916 0.34650642 -0.16665547 0.34264535 -0.21743926
1.02599e-40 1.7607e-41 0.6663345 0.19546302 -1.1426e-41 -1.10736e-40 0.5140908 -0.27722752
0.69606537 -0.80352485 -1.26017e-40 7.9496e-41 3.54757e-40 9.4335e-41 0.86578643 -0.20554133
-0.28682512 0.32037067 4.9047e-41 7.975e-41 0.32680193 0.9912676 1.17615e-40 -2.46781e-40
6.573e-42 -1.7937e-41 -0.044835653 -0.23759344 -1.96983e-40 1.59604e-40 -0.63862586 0.28953227
-0.6263641 0.017954139 0.39515638 0.32305923 1.32273e-40 1.75751e-40 0.43761465 0.057277825
0.23344134 1.0701666 0.1029914 0.9306467 0.15286154 0.80089426 1.202e-42 -5.7354e-41

module.transconv1.bias f4 [32]
00000000: 678a 0d80 840f 0480 6e69 bfbd 56fb 26bd
00000010: 1f97 c13e 0c90 e8bd 3941 e03d 9a4e 1c3e
00000020: 385a 0080 6754 58bd f05a 0380 8e0d 403e
00000030: 461d 203f b949 1580 63a3 0680 139c ce3d
00000040: 51a1 243e eb8e 1700 38ec 08be 84b7 0400
00000050: ef19 0a00 28eb 903e 5427 0200 d921 f53e
00000060: 1555 143f 5bf9 90bd 76f4 0600 4182 673d
00000070: 52dd 00be 9079 b2bd 3e20 b8bd d058 0300
-1.243511e-39 -3.72908e-40 -0.09346281 -0.040767036 0.3781061 -0.113556 0.1094994 0.15264359
-3.2364e-41 -0.052814867 -3.08129e-40 0.1875517 0.6254467 -1.954992e-39 -6.09625e-40 0.100883625
0.16077162 2.163486e-39 -0.1337136 4.33175e-40 9.27658e-40 0.2830441 1.97779e-40 0.47877386
0.57942325 -0.07078811 6.38709e-40 0.056520704 -0.12584427 -0.087145925 -0.08990525 3.07366e-40

module.transconv2.weight f4 [32, 32, 4, 4]
00000000: 79c9 0580 5553 0600 176d 0000 3949 0580
00000010: ca65 0800 350a 0680 b33d 0000 7583 0c00
00000020: 1762 0900 af60 0900 0962 0880 8da8 0680
00000030: c915 0400 3dfa 0380 285d 0680 7d09 0700
00000040: a852 0600 b3b3 0400 7136 0700 0e33 0580
00000050: 4007 0800 3bc6 0400 4054 0080 bf01 0380
00000060: 31ca 0080 c169 0000 428d 0900 cec3 0480
00000070: 9adf 0380 c61f 0900 6b40 0080 e35c 0280
00000080: bf5e 0880 c6b4 0480 6697 0580 b317 0d00
00000090: f4b3 0780 bb39 0c80 fee4 0080 3a1c 0400
000000a0: 7789 0900 dcdb 0780 21c3 0600 632c 0200
000000b0: 2d2b 0300 b4d3 0280 8786 0880 4db6 0700
000000c0: 7945 0a80 fbda 0300 feb1 0100 09fb 0680
000000d0: 0b13 0500 c64c 0400 e6fe 0280 b2f3 0380
000000e0: afef 0380 ecf6 0200 9372 0800 419e 0380
000000f0: 72fa 0300 0e5b 0300 f07a 0080 6abb 0600
00000100: 08df 0280 f940 0080 8782 0080 729e 0200
00000110: df40 0800 c33e 0480 65a7 0580 3fb8 0380
00000120: 2bb8 0100 ac13 0580 f615 0200 7e1c 0000
00000130: 4199 0380 6cfb 0600 c043 0600 f937 0600
00000140: febf 0680 4108 0380 dc47 0680 c66f 0000
00000150: ad85 0700 8e8e 0300 b390 0400 c66e 0300
00000160: a58e 0680 187a 0280 a1bb 0580 1cec 0480
00000170: 1bdb 0180 818e 0600 e69b 0500 f2f4 0680
00000180: 86cb 0600 0395 0b80 1f2f 0480 4d47 0080
00000190: 4683 0200 efa4 0500 5a21 0380 6b8b 0900
000001a0: f14c 0580 63c5 0800 fc6f 0600 6b02 0380
000001b0: 3d8e 0880 4351 0980 bc2c 0780 54e9 0080
000001c0: e894 0100 b558 0280 4c6d 0a80 4b12 0680
000001d0: 4626 0a00 be47 0300 ced0 0380 87cc 0580
000001e0: 6f02 0680 4596 0280 ae89 0000 fe02 0000
000001f0: 6e65 0480 f1ab 0600 babc 0500 40c4 0500
00000200: 22ba 0a80 159e 0780 6729 0000 922f 0b80
00000210: ca04 0300 853d 0780 5126 0380 e1a5 0380
00000220: 2335 0280 6d09 0380 477b 0300 181f 0600
00000230: 5e93 0080 4a0f 0480 49e5 0480 af72 0200
00000240: 09fb 0200 205e 0200 e40f 0480 8597 0880
00000250: 488b 0380 edf4 0480 55b8 0080 9eba 0200
00000260: 1d92 0380 ccc7 0480 02db 0300 a065 0900
00000270: e2f1 0880 ec61 0780 c8a3 0380 f126 0300
00000280: ea38 0080 32de 0680 3687 0680 5561 0080
00000290: f689 0780 b99d 0080 cbb6 0a00 b9b4 0480
000002a0: 6203 0300 1de0 0a80 3f68 0180 836a 0480
000002b0: e180 0600 a934 0980 e3e2 0480 bc3a 0600
000002c0: d924 0700 dd93 0100 e884 0500 d7ce 0800
000002d0: 6c7a 0200 91c1 0300 1528 0400 c9db 0600
000002e0: 847d 0600 de83 0a00 4323 0500 bc24 0200
000002f0: fb70 0000 9362 0000 1c5b 0000 9df5 0680
00000300: 2e26 0700 e90f 0380 de02 0500 7c08 0580
00000310: ca92 0180 405d 0000 33fb 0080 6ee7 0600
00000320: 4e4b 0500 1e19 0500 b8de 0600 a9fc 0600
00000330: 5445 0180 9708 0780 e010 0080 5043 0100
00000340: 7b8c 0680 7cad 0580 e59f 0580 2c15 0400
00000350: 1e7f 0100 0472 0700 3490 0300 88c7 0600
00000360: 8428 0180 f93a 0300 f8b5 0200 ee88 0600
00000370: be1b 0300 8cd0 0600 58eb 0680 9ed6 0680
00000380: 2e8d 0880 7eef 0480 151b 0300 ea88 0780
00000390: d852 0000 1dd2 0400 4503 0580 77c5 0080
000003a0: 7e6c 0c00 d37b 0680 efbc 0580 e9c6 0600
000003b0: 9452 0300 d89d 0800 545f 0300 b8f6 0480
000003c0: 9123 0380 0e7b 0300 d797 0600 3a11 0180
000003d0: 4dd5 0400 9d3d 0600 bd5d 0000 39b3 0600
000003e0: cae8 0600 32f8 0200 0932 0600 0b4d 0780
000003f0: 535c 0300 aa80 0080 eae5 0100 eff5 0080
-5.31452e-40 5.80907e-40 3.9134e-41 -4.85445e-40 7.71199e-40 -5.54675e-40 2.2134e-41 1.149184e-39
8.61707e-40 8.61203e-40 -7.69852e-40 -6.11478e-40 3.75157e-40 -3.65275e-40 -5.84431e-40 6.46252e-40
5.80664e-40 4.31806e-40 6.62378e-40 -4.77492e-40 7.37285e-40 4.38454e-40 -3.0223e-41 -2.76133e-40
-7.2533e-41 3.7937e-41 8.77193e-40 -4.37583e-40 -3.5572e-40 8.37918e-40 -2.3109e-41 -2.16992e-40
-7.68672e-40 -4.32191e-40 -5.13489e-40 1.202363e-39 -7.07403e-40 -1.122736e-39 -8.2147e-41 3.77468e-40
8.75833e-40 -7.21719e-40 6.21012e-40 1.99594e-40 2.90995e-40 -2.59616e-40 -7.82943e-40 7.08246e-40
-9.43277e-40 3.54062e-40 1.55687e-40 -6.41067e-40 4.66009e-40 3.94883e-40 -2.75111e-40 -3.62928e-40
-3.61489e-40 2.7225e-40 7.75785e-40 -3.32277e-40 3.6535e-40 3.08171e-40 -4.4102e-41 6.18244e-40
-2.6368e-40 -2.3308e-41 -4.6824e-41 2.4051e-40 7.57955e-40 -3.89857e-40 -5.19227e-40 -3.41602e-40
1.57903e-40 -4.66234e-40 1.91549e-40 1.0221e-41 -3.30484e-40 6.41206e-40 5.75317e-40 5.71092e-40
-6.19887e-40 -2.78467e-40 -5.76791e-40 4.0097e-41 6.90802e-40 3.26645e-40 4.1925e-40 3.15245e-40
-6.02184e-40 -2.2747e-40 -5.26486e-40 -4.52042e-40 -1.70436e-40 6.02134e-40 5.15103e-40 -6.38883e-40
6.24023e-40 -1.063646e-39 -3.84246e-40 -2.5578e-41 2.30763e-40 5.18345e-40 -2.87471e-40 8.76533e-40
-4.86779e-40 8.05493e-40 5.91185e-40 -2.76374e-40 -7.8571e-40 -8.5567e-40 -6.58896e-40 -8.3702e-41
1.45253e-40 -2.15493e-40 -9.57563e-40 -5.57575e-40 9.32085e-40 3.01243e-40 -3.50411e-40 -5.32548e-40
-5.51886e-40 -2.37578e-40 4.939e-41 1.073e-42 -4.03728e-40 6.12694e-40 5.2688e-40 5.29579e-40
-9.85127e-40 -6.99558e-40 1.4852e-41 -1.027255e-39 2.77224e-40 -6.64918e-40 -2.89252e-40 -3.35013e-40
-2.02733e-40 -2.78888e-40 3.1973e-40 5.62167e-40 -5.2865e-41 -3.72827e-40 -4.49594e-40 2.24812e-40
2.73725e-40 2.17437e-40 -3.73042e-40 -7.89039e-40 -3.25471e-40 -4.55205e-40 -6.6126e-41 2.50617e-40
-3.27922e-40 -4.39016e-40 3.54072e-40 8.62976e-40 -8.21455e-40 -6.77976e-40 -3.3426e-40 2.89476e-40
-2.0417e-41 -6.30722e-40 -5.99518e-40 -3.4916e-41 -6.9234e-40 -5.658e-41 9.83929e-40 -4.32173e-40
2.7672e-40 -9.98752e-40 -1.29232e-40 -4.05551e-40 5.97246e-40 -8.4541e-40 -4.48734e-40 5.72083e-40
6.56067e-40 1.44879e-40 5.06855e-40 8.08884e-40 2.27588e-40 3.44945e-40 3.81721e-40 6.29857e-40
5.9604e-40 9.6566e-40 4.71827e-40 1.96849e-40 4.053e-41 3.5362e-41 3.2684e-41 -6.39122e-40
6.56545e-40 -2.81214e-40 4.60206e-40 -4.62221e-40 -1.44493e-40 3.3452e-41 -9.0113e-41 6.34034e-40
4.86192e-40 4.68188e-40 6.3091e-40 6.4165e-40 -1.16706e-40 -6.4593e-40 -6.054e-42 1.15983e-40
-6.01408e-40 -5.21412e-40 -5.16537e-40 3.74937e-40 1.37437e-40 6.8375e-40 3.27237e-40 6.22591e-40
-1.0637e-40 2.96662e-40 2.48949e-40 6.00134e-40 2.85459e-40 6.25825e-40 -6.35438e-40 -6.28003e-40
-7.8533e-40 -4.53256e-40 2.85222e-40 -6.91964e-40 2.9719e-41 4.42716e-40 -4.6035e-40 -7.0837e-41
1.140946e-39 -5.95433e-40 -5.26954e-40 6.22368e-40 3.0513e-40 7.91308e-40 3.09704e-40 -4.55848e-40
-2.88265e-40 3.1965e-40 6.05483e-40 -9.8015e-41 4.4386e-40 5.73116e-40 3.3627e-41 6.15306e-40
6.34522e-40 2.72707e-40 5.68962e-40 -6.70486e-40 3.08626e-40 -4.6156e-41 1.74313e-40 -8.8224e-41

module.transconv2.bias f4 [32]
00000000: b184 15bc 9332 143c e318 7a3e 677e b83c
00000010: bb09 973e c48e bbbb 4715 0d3c 1b54 10bc
00000020: b8a6 a73c 0cd8 66bb e35b bd3d fc6e 17bc
00000030: 914b f9bb 12c1 553d 1aea 63bb 7f4d e3bb
00000040: ec8c a1bb f783 233d 427c a43c e3a2 e6bb
00000050: 2e06 333e 03b6 dfbb 56b4 b73e 392b 893e
00000060: a810 f9bb 92e2 56bb 61aa 073f d0bd 293e
00000070: e92e 95bb b5a1 7d3e 36bf d4bb 7078 003d
-0.009125874 0.009045261 0.24423556 0.02252121 0.2949961 -0.005723806 0.00861103 -0.008809115
0.02046524 -0.0035223989 0.092460416 -0.009242769 -0.007607885 0.05218608 -0.0034776987 -0.0069367285
-0.0049301293 0.039920773 0.020078782 -0.0070384606 0.17482826 -0.0068271174 0.35879773 0.2679079
-0.0076008625 -0.0032788855 0.5299435 0.16576314 -0.0045527113 0.24768718 -0.0064925207 0.03136486

module.transconv3.weight f4 [32, 32, 4, 4]
00000000: eeea 2c3b c06e 433c 733c 533c 0ce3 9c3b
00000010: 019e 5c3c 0574 d53c 249d d43c 4243 6b3c
00000020: 6cd7 643c fa63 d33c 040f ce3c 14d6 573c
00000030: 546b 833b 26f8 483c 5ee8 393c 2767 223b
00000040: f774 8d39 6afa 8b3b 1e7e 943b 21b3 8d3a
00000050: 6c08 8b3b 7b0e 1f3c 835c 1d3c 458d 993b
00000060: 4600 993b 7927 203c f676 163c 6b45 843b
00000070: 4d99 503a d112 8f3b 1bf4 773b 9d22 a838
00000080: 2b21 dc39 8dba de3b db59 ec3b 9b14 e13a
00000090: b56a de3b 2300 7e3c db45 7b3c e372 f53b
000000a0: 43b8 f43b 4cba 7f3c 9752 703c 007f d33b
000000b0: 5bab a73a ed89 e43b 77f3 c53b a1fc 0c39
000000c0: 9e11 0800 4448 0300 1d8f 0380 d4d5 0580
000000d0: 8648 0980 74b8 0080 8c4c 0200 9b4c 0400
000000e0: 7161 0100 4e64 0000 33e9 0300 6831 0780
000000f0: ce66 0500 554c 0100 37bc 0180 3857 0500
00000100: 6d97 8539 dc05 42bc 19a4 1dbc d5b6 c1bb
00000110: a539 9cbc 2665 f7bc c747 f8bc 3eb6 9ebc
00000120: 3619 83bc d655 02bd fd20 eebc 4c8a a3bc
00000130: e77d dbbb 22ca 4abc 91c3 48bc 3613 bcbb
00000140: a722 0500 1482 0300 1de4 0200 9b01 0500
00000150: eb39 0180 1923 0300 b829 0100 1a14 0880
00000160: 624e 0280 76c3 0480 f85c 0300 9cb2 0480
00000170: 4137 0580 64c5 0000 81c7 0400 5ad3 0280
00000180: 183d 0780 f17b 0700 f905 0280 0e8b 0200
00000190: 0fb7 0200 b597 0080 c015 0100 be7f 0580
000001a0: de29 0900 7b80 0480 a9cd 0280 a4ad 0680
000001b0: 1dcb 0600 f57c 0000 7302 0180 142f 0300
000001c0: ec4c 70bc e64b cc3b 207f de3b f536 89bc
000001d0: b5b8 b23b 76fd 063d fdb1 0e3d b73a b93b
000001e0: fd32 4a3b f71f 023d bdff f23c 281d 6a3b
000001f0: 8ed1 a9bc 948f 363b a06f 273b 2040 92bc
00000200: 3142 0180 0d24 0200 f521 0280 6182 0200
00000210: 7e15 0280 27bd 0780 b310 0880 c3b5 0780
00000220: 1fd5 0500 0c93 0100 d22c 0580 d1d4 0280
00000230: a721 0680 4dc7 0480 ab31 0300 3604 0380
00000240: 4815 b63b 0ec0 7a3c 6466 6d3c 1a9f 7b3b
00000250: cb16 833c 5069 de3c c04d dc3c 736b 773c
00000260: 571e 6d3c 4ff1 d43c 2ab7 d73c 57fc 773c
00000270: 0cd4 7a3b 4081 693c 127a 753c e977 a83b
00000280: 1e30 3f3c 5d61 013d ac7a f43c f44b 053c
00000290: 1972 053d 86a5 623d 111b 603d 039b fb3c
000002a0: bf95 f23c 9187 593d 3c0a 5c3d f78f fd3c
000002b0: 778a fa3b aa01 ed3c a68b f83c 690b 293c
000002c0: 2392 0000 bc2f 0380 54d4 0200 63c8 0300
000002d0: 29a9 0080 80ee 0280 45e9 0280 c1d5 0480
000002e0: c74d 0500 a11d 0200 99d5 0200 3836 0200
000002f0: 7096 0180 1b80 0500 304d 0180 72bd 0180
00000300: 202d 143a 3157 f33b 7d66 003c d5b0 033b
00000310: 867b 493b 3a93 883c 2a9b 813c 6ec4 053c
00000320: ff76 f23b a1ef 833c 146c 753c 8d00 d43b
00000330: 7539 17bc 5db8 d83b 2195 4a3a 5622 09ba
00000340: 3f4d 833b 8b8b 1f3c 825b 223c e54d a33b
00000350: cdb8 333c e512 993c 5e40 983c 36aa 383c
00000360: 6294 293c c36d 913c 882d 8d3c 6f36 1e3c
00000370: 16db b03b 0cc1 293c 2586 203c 7557 903b
00000380: 7cfe 6c3b a1c6 853c 6ca2 903c 9bcd d63b
00000390: 9a72 973c 8760 123d 35cf 113d 3c63 a13c
000003a0: a507 9d3c 04ee 103d 6349 0d3d e607 943c
000003b0: a3d3 b43b b2e1 893c 2d0e 7f3c 4386 5f3b
000003c0: c86e 5abc cd1f f23a c287 153b 89b6 7ebc
000003d0: 070f 393c 6f50 b63c fe61 dc3c 7565 0d3b
000003e0: a14b a63b 949a d93c 5cf0 cc3c 90a1 a13b
000003f0: 5c6f 373b 9e61 aa3b 072e 3d3c 33d1 29bc
0.0026385146 0.01192826 0.01289283 0.0047878083 0.013465405 0.026056299 0.025953837 0.014359297
0.013967376 0.025804508 0.025153644 0.013173599 0.0040105972 0.012266194 0.011346905 0.0024780722
0.0002698076 0.004271795 0.004531636 0.0010810831 0.0042429473 0.009708042 0.009604576 0.00468603
0.004669222 0.009775036 0.009183636 0.0040365956 0.0007957414 0.0043662568 0.0037834707 8.0173115e-05
0.00041986382 0.006797141 0.00721286 0.0017172279 0.006787623 0.015502962 0.015336479 0.007490502
0.007468255 0.0156083815 0.014668128 0.0064543486 0.0012792157 0.00697445 0.006040986 0.00013445552
7.41004e-40 3.0143e-40 -3.26846e-40 -5.35885e-40 -8.52536e-40 -6.617e-41 2.11131e-40 3.94823e-40
1.26791e-40 3.5983e-41 3.59163e-40 -6.60572e-40 4.96057e-40 1.19218e-40 -1.59354e-40 4.90466e-40
0.00025480558 -0.011842217 -0.009621643 -0.005911688 -0.019070456 -0.030199599 -0.030307664 -0.01937401
-0.016003232 -0.03182014 -0.029068464 -0.019963406 -0.0066983583 -0.012377294 -0.012253658 -0.005739595
4.71608e-40 3.2217e-40 2.65503e-40 4.59753e-40 -1.12613e-40 2.88097e-40 1.06801e-40 -7.41895e-40
-2.1179e-40 -4.3746e-40 3.08857e-40 -4.31415e-40 -4.78999e-40 7.081e-41 4.3891e-40 -2.5949e-40
-6.64765e-40 6.8731e-40 -1.85814e-40 2.33554e-40 2.4934e-40 -5.4422e-41 9.9638e-41 -5.05003e-40
8.41539e-40 -4.13432e-40 -2.57448e-40 -6.13303e-40 6.23876e-40 4.4826e-41 -9.2714e-41 2.92395e-40
-0.014666777 0.0062346337 0.006790057 -0.016749838 0.0054541477 0.032956563 0.03483771 0.0056527513
0.0030853145 0.031768765 0.029662961 0.0035722945 -0.020729806 0.0027856575 0.0025548711 -0.017852843
-1.1558e-40 1.96604e-40 -1.95852e-40 2.30442e-40 -1.91381e-40 -7.10704e-40 -7.40675e-40 -7.08052e-40
5.35631e-40 1.44586e-40 -4.75256e-40 -2.60015e-40 -5.63085e-40 -4.38838e-40 2.93324e-40 -2.77017e-40
0.005556736 0.0153045785 0.014489744 0.0038394392 0.01600208 0.027149826 0.026892543 0.0151013015
0.014472566 0.025993971 0.026332457 0.015135846 0.0038273362 0.014252007 0.014982717 0.0051412475
0.011669187 0.031586993 0.02984365 0.008135784 0.032579515 0.055333637 0.054713313 0.030713564
0.02961242 0.0531078 0.053720698 0.030952437 0.007645901 0.028931458 0.030340027 0.010317662
5.2424e-41 -2.9263e-40 2.5984e-40 3.47392e-40 -6.0683e-41 -2.69229e-40 -2.67352e-40 -4.44022e-40
4.87079e-40 1.943e-40 2.60295e-40 2.03121e-40 -1.45802e-40 5.05133e-40 -1.19525e-40 -1.59796e-40
0.0005652476 0.0074261655 0.007836935 0.0020094414 0.0030743792 0.016671766 0.015821058 0.008164508
0.0073994393 0.016105475 0.014979381 0.006469792 -0.009230007 0.0066137747 0.00077279104 -0.00052312517
0.004007011 0.0097378595 0.0099095125 0.004983651 0.010969353 0.018685767 0.01858538 0.01127105
0.010350319 0.017752534 0.017233625 0.009656533 0.005397211 0.010360967 0.009797608 0.004404957
0.0036162427 0.016330065 0.017655574 0.006555272 0.018487263 0.035736587 0.035598 0.019700639
0.019168684 0.03538324 0.034493815 0.018070173 0.005518393 0.016831253 0.015567345 0.0034107126
-0.013332076 0.0018472612 0.0022816514 -0.015546449 0.011295087 0.02225515 0.026902195 0.0021575366
0.0050749336 0.026562966 0.025016956 0.00493259 0.002798996 0.005199625 0.011546618 -0.010364818

module.transconv3.bias f4 [32]
00000000: f961 c83b 19ef cf3c ede6 253d 32dc 0180
00000010: 7438 263e 18da 0280 e8e2 0180 24dc eb3d
00000020: 9d11 0280 ef20 413e d594 c53e 1162 0180
00000030: 46d1 353d b8dd 8b3c 2fa5 0f3c 804b b83d
00000040: 291d b13e f6e9 aa3c 6540 a63d 15e4 063d
00000050: aa7d 523e f1c0 0100 fc62 9a3d 0f0f 0780
00000060: 04ed 833d b372 6a3e c886 753e 131a cdb8
00000070: 46fd 193e 8d51 5c3b 1a85 0000 deeb 283d
0.006115195 0.025382565 0.04050343 -1.70827e-40 0.16232473 -2.61908e-40 -1.73234e-40 0.11516598
-1.8999e-40 0.1886022 0.38590112 -1.27015e-40 0.04438903 0.017073497 0.00876741 0.089987755
0.3459256 0.020863514 0.08117751 0.03293236 0.2055575 1.6105e-40 0.07538411 -6.4825e-40
0.064416915 0.22895317 0.23977196 -9.7800184e-05 0.15038022 0.0033617944 4.7748e-41 0.041240565
