wentao_models/log_ConvAutoencoder/bionoi_autoencoder_conv.pt (torch_old, 199857 bytes, 16 tensors)

module.conv1.weight f4 [16, 3, 3, 3]
-0.07064649 -0.079925336 -0.07850969 -0.08160033 -0.085862204 -0.08644781 -0.067487545 -0.07212027
-0.06864934 -0.011380457 -0.023635468 -0.020820094 -0.020303262 -0.024080731 -0.024619423 -0.010415869
-0.016420906 -0.00850164 -0.02421518 -0.024511676 -0.024719369 -0.02038031 -0.016464574 -0.019101454
-0.021860192 -0.018659845 -0.015680447 0.17638144 0.1718043 0.17749558 0.16461703 0.15928586
0.16297884 0.16959071 0.16206327 0.16687042 -0.007039204 -0.010934117 -0.0069266306 -0.031897288
-0.03938258 -0.033469114 -0.016035622 -0.022039538 -0.01707281 -0.18423672 -0.18736634 -0.18546799
-0.20516977 -0.21117336 -0.20572059 -0.18894361 -0.19135647 -0.18734337 -0.026984472 -0.03679294
-0.03077774 -0.045910724 -0.05282028 -0.04601589 -0.009610732 -0.019197445 -0.014330687 -0.040795352
-0.047110803 -0.04059242 -0.0652035 -0.07090101 -0.07770652 -0.014439412 -0.017486056 -0.017522724
-0.072511286 -0.053471114 -0.07126388 -0.06405538 -0.04904833 -0.060109213 -0.060054 -0.043859344
-0.05429322 0.10483253 0.10764539 0.072118066 0.045537066 0.028496807 0.0014093325 -0.041836657
-0.06124762 -0.082478 0.015470343 0.0051201945 -0.034237448 -0.039985552 -0.071589015 -0.108823635
-0.1523403 -0.1880155 -0.21766694 0.049541287 0.035998024 0.015885152 0.018868221 -0.004484961
-0.024566764 -0.040008344 -0.0639813 -0.07689195 -0.045911983 -0.04554265 -0.047575124 -0.04663327
-0.04744106 -0.047429293 -0.041227613 -0.040474653 -0.04313569 0.0016932859 -0.003139714 -0.0015350556
0.0013718364 -0.0032644316 -0.0008365429 0.0017294446 -0.0019841087 -3.9923554e-05 0.03862512 0.037854336
0.03886211 0.047971662 0.048374116 0.04888439 0.03879455 0.039337777 0.040804632 -0.020529058
-0.02768415 -0.024888732 -0.027221428 -0.029535023 -0.02855526 -0.01963876 -0.023905331 -0.019405603
-0.019180214 -0.024442852 -0.025902225 -0.028978413 -0.027557062 -0.030109033 -0.019727772 -0.021686612
-0.018324569 -0.03780488 -0.03159726 -0.03835531 -0.034227725 -0.02497085 -0.03279462 -0.03535927
-0.027289493 -0.031652834 0.19398205 0.18869096 0.1949956 0.18118975 0.1751251 0.17912205
0.18783589 0.17939335 0.1846533 -0.0088121155 -0.013190645 -0.009005837 -0.036382567 -0.04461221
-0.0384491 -0.017575966 -0.024116496 -0.018909497 -0.19991374 -0.20300129 -0.20138231 -0.2227514
-0.22916727 -0.22362556 -0.20464726 -0.20686619 -0.20295571 0.01926963 0.013817621 0.015504433
0.022043126 0.016408863 0.017683426 0.020331562 0.013314229 0.01366712 0.17042217 0.1651972
0.16495678 0.17262179 0.16803983 0.16855215 0.16141507 0.15495943 0.15443592 0.39458376
0.3943223 0.38896534 0.41364482 0.41475448 0.40867856 0.3960378 0.39482197 0.39036837
-0.078891516 -0.08547937 -0.08559194 -0.090738796 -0.09292579 -0.09296298 -0.07439718 -0.07737557
-0.0760267 -0.018217746 -0.031757437 -0.025792236 -0.034638185 -0.03999446 -0.035827592 -0.012179114
-0.01961691 -0.010464761 0.013796511 0.010182834 0.014080313 0.014062058 0.014536618 0.017362881
0.017336695 0.01626919 0.022894297 -0.007033818 -0.034927756 0.0039140563 -0.009142685 -0.049062587
-0.0014606371 0.14690481 0.13680178 0.15161738 -0.22825459 -0.2849735 -0.2169992 -0.30161485
00000000: 1baf 90bd e5af a3bd b0c9 a0bd 131e a7bd
00000010: 86d8 afbd 8d0b b1bd e936 8abd cbb3 93bd
00000020: 0698 8cbd 1975 3abc 2b9f c1bc e78e aabc
00000030: 0753 a6bc f444 c5bc acae c9bc 52a7 2abc
00000040: 2385 86bc 764a 0bbc ea5e c6bc b6cc c8bc
00000050: 4680 cabc 9cf4 a6bc b7e0 86bc a77a 9cbc
00000060: 2514 b3bc 88dc 98bc 4874 80bc 569d 343e
00000070: 77ed 2f3e 67c1 353e 5e91 283e d51b 233e
00000080: ede3 263e 30a9 2d3e eaf3 253e 14e0 2a3e
00000090: 1fa9 e6bb 0325 33bc caf8 e2bb bba6 02bd
000000a0: a14f 21bd e916 09bd 235d 83bc 438c b4bc
000000b0: 47dc 8bbc 8da8 3cbe f6dc 3fbe 52eb 3dbe
000000c0: 0618 52be d43d 58be 6ba8 52be 6f7a 41be
000000d0: f3f2 43be f1d6 3fbe 8a0e ddbc 32b4 16bd
000000e0: 9921 fcbc e20c 3cbd 145a 58bd 287b 3cbd
000000f0: 5576 1dbc f643 9dbc 42cb 6abc 0719 27bd
00000100: 42f7 40bd 3d44 26bd 6a89 85bd 8c34 91bd
00000110: 9924 9fbd 4993 6cbc eb3e 8fbc d18b 8fbc
00000120: cc80 94bd 8704 5bbd ccf2 91bd 782f 83bd
00000130: e7e6 48bd 1435 76bd 2ffb 75bd dba5 33bd
00000140: 9162 5ebd 70b2 d63d 3075 dc3d a3b2 933d
00000150: 1385 3a3d 2372 e93c 5ab9 b83a ea5c 2bbd
00000160: c9de 7abd 3aea a8bd 5277 7d3c 4ec7 a73b
00000170: 913c 0cbd e4c7 23bd 439d 92bd edde debd
00000180: 18ff 1bbe 2387 40be 15e4 5ebe ceeb 4a3d
00000190: aa72 133d 9421 823c 8791 9a3c 94f6 92bb
000001a0: 3d40 c9bc cadf 23bd a108 83bd 8779 9dbd
000001b0: 340e 3cbd ee8a 3abd 22de 42bd 8702 3fbd
000001c0: 8f51 42bd 3845 42bd 49de 28bd c0c8 25bd
000001d0: 0daf 30bd 3ff1 dd3a a9c3 4dbb eb33 c9ba
000001e0: 31cf b33a 13f0 55bb 724b 5bba 88ae e23a
000001f0: d207 02bb 9773 27b8 6035 1e3d 260d 1b3d
00000200: e02d 1f3d ef7d 443d f023 463d 003b 483d
00000210: 09e7 1e3d a620 213d c222 273d 8e2c a8bc
00000220: dfc9 e2bc 74e3 cbbc 79ff debc 6ff3 f1bc
00000230: b8ec e9bc 77e1 a0bc 1dd5 c3bc 80f8 9ebc
00000240: d31f 9dbc 603c c8bc e730 d4bc 2364 edbc
00000250: 59bf e1bc 38a7 f6bc 239c a1bc 1fa8 b1bc
00000260: 681d 96bc 4ad9 1abd 216c 01bd 751a 1dbd
00000270: 5f32 0cbd ab8f ccbc a753 06bd e2d4 10bd
00000280: 378e dfbc 67a6 01bd 3ba3 463e 3438 413e
00000290: edac 473e ce89 393e ff53 333e c56b 373e
000002a0: 0d58 403e e4b2 373e c115 3d3e b160 10bc
000002b0: 931d 58bc 388d 13bc e305 15bd 4bbb 36bd
000002c0: ce7c 1dbd 79fb 8fbc f58f c5bc 17e8 9abc
000002d0: 30b6 4cbe 92df 4fbe 2a37 4ebe f118 64be
000002e0: d3aa 6abe 19fe 64be 0d8f 51be bbd4 53be
000002f0: 9fd3 4fbe 58db 9d3c 4e63 623c 4e06 7e3c
00000300: c993 b43c e16b 863c d5dc 903c 608e a63c
00000310: ed23 5a3c 0eec 5f3c 2683 2e3e 7429 293e
00000320: 6eea 283e c4c3 303e a212 2c3e ef98 2c3e
00000330: fe49 253e afad 1e3e 7324 1e3e e206 ca3e
00000340: 9de4 c93e 7726 c73e 41c9 d33e b35a d43e
00000350: 513e d13e 77c5 ca3e 1b26 ca3e 5dde c73e
00000360: e091 a1bd cf0f afbd d44a afbd 43d5 b9bd
00000370: e04f bebd 6063 bebd 8c5d 98bd 1577 9ebd
00000380: e3b3 9bbd 623d 95bc 1614 02bd 3d4a d3bc
00000390: c5e0 0dbd 3bd1 23bd f4bf 12bd e88a 47bc
000003a0: a4b3 a0bc 6474 2bbc c30a 623c e7d5 263c
000003b0: 1db1 663c 8c64 663c ff2a 6e3c 9a3c 8e3c
000003c0: af05 8e3c f746 853c d28c bb3c f17b e6bb
000003d0: 6810 0fbd 7c41 803b 33cb 15bc daf5 48bd
000003e0: d972 bfba 376e 163e c415 0c3e 9641 1b3e
000003f0: 92bb 69be 0ce8 91be 0a35 5ebe 436d 9abe

module.conv1.bias f4 [16]
0.56076026 0.46575105 0.8093703 -0.107788146 0.43776867 0.4757769 0.5083109 0.6523416
0.47767204 -0.26864868 0.24170528 1.0716695 0.64026064 0.30661225 0.6265764 0.56677175
00000000: fc8d 0f3f ec76 ee3e e432 4f3f 08c0 dcbd
00000010: 3723 e03e 0899 f33e aa20 023f dcff 263f
00000020: 6e91 f43e 528c 89be 9781 773e 772c 893f
00000030: 1fe8 233f 48fc 9c3e 5067 203f f417 113f

module.conv2.weight f4 [32, 16, 3, 3]
0.04247551 0.04592208 0.045448303 0.04390059 0.045535814 0.04676049 0.034834083 0.03642069
0.037185304 0.062265385 0.052415654 0.06253355 0.064908385 0.052457817 0.066708155 0.06745715
0.058110375 0.06807279 0.080451794 0.08521414 0.0836736 0.0896633 0.09648489 0.09346056
0.0762108 0.07792084 0.077538714 -0.0417347 -0.043536987 -0.039935224 -0.033802453 -0.036699425
-0.032593723 -0.027212445 -0.029712413 -0.022890594 0.032962844 0.03427251 0.034220245 0.028454961
0.028864851 0.029531572 0.02713385 0.027807571 0.028544651 0.043107975 0.046363518 0.045182243
0.046571486 0.049601313 0.04862722 0.038209092 0.03940248 0.039255407 0.06874667 0.0584769
0.06916881 0.07246593 0.058574624 0.074095346 0.075026184 0.06489937 0.075571544 0.011992984
0.010278225 0.005309164 -0.012392773 -0.030150061 -0.020364817 0.04015282 0.041456264 0.040350717
0.036300763 0.039552674 0.038481876 0.036233667 0.038117483 0.038357325 0.028708741 0.030610938
0.030636264 -0.06346253 -0.08104002 -0.06521973 -0.07061477 -0.07973975 -0.06989273 -0.03632504
-0.048101664 -0.03416295 0.007257068 -0.01782742 -0.0011739121 0.0019275554 -0.033950914 -0.0062335185
0.052278142 0.042417068 0.049850352 0.08915764 0.09089837 0.09140793 0.07868624 0.07814475
0.08100044 0.074662805 0.07591979 0.07845515 0.06372208 0.06785149 0.066420436 0.07057632
0.07621005 0.073541105 0.059318658 0.060693815 0.06018681 -0.06252979 -0.07642046 -0.0741982
-0.084087044 -0.11530358 -0.09668719 0.0040111397 0.0041463613 0.00347462 0.052105416 0.057511628
0.053957757 0.040095456 0.046160247 0.040335864 0.030987471 0.034789898 0.03279622 0.04292303
0.044569276 0.04451388 0.03683893 0.03731074 0.03827926 0.035052422 0.03595723 0.03697361
0.0005298548 -0.0025287822 0.000555124 0.0026079924 0.001433298 0.002442149 0.015801473 0.014617486
0.015934424 0.06566426 0.07453852 0.06882398 0.10014516 0.114591576 0.108061366 0.09205223
0.106244855 0.101049416 0.014721516 0.0139032025 0.016358217 0.026260432 0.028929882 0.028625509
0.038466234 0.04065111 0.041301463 0.008155971 0.00903492 0.008769792 0.013788966 0.013877693
0.01257002 0.0150609985 0.015048175 0.014325 0.0033638007 0.0007470346 0.0025041255 -0.005891195
-0.009416651 -0.0077967704 -0.00016568459 -0.0039118896 -0.0023452924 0.007465159 0.006924267 0.008262791
0.013446709 0.014489312 0.014573408 0.0218291 0.022901049 0.023237206 0.072365515 0.08215329
0.075762995 0.110028215 0.1259012 0.11860601 0.10070841 0.11627738 0.11048762 0.056659263
0.053551704 0.047259014 -0.029060958 -0.053951353 -0.052077252 -0.06623404 -0.103655174 -0.09118488
-0.002545556 -0.0066561513 -0.003276363 -0.0048636855 -0.0073214807 -0.0059587075 0.007673698 0.0050897254
0.0067350944 0.018790387 0.01864639 0.016055895 0.023771368 0.024103982 0.021209635 0.013674955
0.01170138 0.010381679 0.08701538 0.09833843 0.087626286 0.08175961 0.082696795 0.08133283
0.05629601 0.05276249 0.052164268 0.010070636 0.004514843 0.008548802 -0.008469503 -0.01578871
-0.012044561 0.0053747296 -0.0022766183 0.0012983731 0.012503038 0.012185113 0.01380348 0.021861538
00000000: cdfa 2d3d ca18 3c3d 0028 3a3d 1bd1 333d
00000010: c383 3a3d ed87 3f3d 2fae 0e3d dd2d 153d
00000020: 9e4f 183d fd09 7f3d ccb1 563d 9711 803d
00000030: b0ee 843d 02de 563d 499e 883d f926 8a3d
00000040: 2505 6e3d bf69 8b3d e9c3 a43d c084 ae3d
00000050: 105d ab3d 64a1 b73d df99 c53d 4068 bf3d
00000060: 6814 9c3d f694 9f3d 9ecc 9e3d 01f2 2abd
00000070: d753 32bd 1e93 23bd 7174 0abd 2352 16bd
00000080: ff80 05bd a2ec debc 7267 f3bc 0e85 bbbc
00000090: 0c04 073d 5561 0c3d 872a 0c3d 611a e93c
000000a0: fb75 ec3c 32ec f13c cf47 de3c b4cc e33c
000000b0: 79d6 e93c fd91 303d ace7 3d3d 0411 393d
000000c0: bec1 3e3d bf2a 4b3d 562d 473d 2381 1c3d
000000d0: 7f64 213d 47ca 203d 0ecb 8c3d 7985 6f3d
000000e0: 61a8 8d3d 0469 943d f2eb 6f3d 4dbf 973d
000000f0: 54a7 993d f6e9 843d 41c5 9a3d 397e 443c
00000100: 0066 283c 7ff8 ad3b 0f0b 4bbc 43fd f6bc
00000110: 1ed4 a6bc 4977 243d 0bce 293d cb46 253d
00000120: 1cb0 143d fc01 223d 2c9f 1d3d c169 143d
00000130: 1421 1c3d 921c 1d3d 982e eb3c cac3 fa3c
00000140: e7f8 fa3c a5f8 81bd 4ff8 a5bd ec91 85bd
00000150: 7a9e 90bd 984e a3bd eb23 8fbd 91c9 14bd
00000160: 4006 45bd 73ee 0bbd b3cc ed3b cf0a 92bc
00000170: f4dd 99ba 07a6 fc3a 1d10 0bbd 8b42 ccbb
00000180: 9b21 563d 85bd 2d3d e22f 4c3d 4898 b63d
00000190: ed28 ba3d 1534 bb3d 4026 a13d 5b0a a03d
000001a0: 8fe3 a53d d0e8 983d d67b 9b3d 18ad a03d
000001b0: b980 823d b9f5 8a3d 7007 883d 518a 903d
000001c0: 0414 9c3d b89c 963d 1ff8 723d 149a 783d
000001d0: 7286 763d 9e0f 80bd 5582 9cbd 3af5 97bd
000001e0: d435 acbd 4924 ecbd ef03 c6bd e16f 833b
000001f0: 33de 873b 73b6 633b 7d6c 553d 5091 6b3d
00000200: cf02 5d3d 223b 243d 8712 3d3d 3837 253d
00000210: 70d9 fd3c da7f 0e3d 5455 063d 0fd0 2f3d
00000220: 468e 363d 3054 363d 6be4 163d 26d3 183d
00000230: b7ca 1c3d 2193 0f3d e347 133d a471 173d
00000240: f4e5 0a3a edb9 25bb be85 113a daea 2a3b
00000250: 80dd bb3a 760c 203b 1772 813c 2e7e 6f3c
00000260: e988 823c fc7a 863d a7a7 983d 96f3 8c3d
00000270: e818 cd3d fdae ea3d 474f dd3d e185 bc3d
00000280: e796 d93d fff2 ce3d 8332 713c 42ca 633c
00000290: ab01 863c 1e20 d73c 5cfe ec3c 0b80 ea3c
000002a0: c58e 1d3d c781 263d b92b 293d 9fa0 053c
000002b0: 3307 143c 2caf 0f3c 1eeb 613c 435f 633c
000002c0: 7cf2 4d3c 68c2 763c 9f8c 763c 68b3 6a3c
000002d0: 3673 5c3b a5d4 433a 411c 243b ed0a c1bb
000002e0: 4c48 1abc 0d7c ffbb 9ebb 2db9 4f2f 80bb
000002f0: 7ab3 19bb 4b9e f43b f6e4 e23b a860 073c
00000300: 964f 5c3c 9464 6d3c 4ec5 6e3c f1d2 b23c
00000310: fb9a bb3c f45b be3c 5f34 943d fc3f a83d
00000320: a129 9b3d 7956 e13d 3fec 003e b5e7 f23d
00000330: 3640 ce3d d622 ee3d 5547 e23d 8b13 683d
00000340: 0859 5b3d ab92 413d 3f11 eebc 18fc 5cbd
00000350: f54e 55bd b6a5 87bd 2a49 d4bd 23bf babd
00000360: 58d3 26bb d81b dabb 40b8 56bb 8d5f 9fbb
00000370: 08e9 efbb 4341 c3bb a573 fb3b b6c7 a63b
00000380: 11b2 dc3b 4cee 993c 50c0 983c a787 833c
00000390: 2cbc c23c b775 c53c d4bf ad3c eb0c 603c
000003a0: 25b7 3f3c eb17 2a3c 1f35 b23d a965 c93d
000003b0: 6975 b33d 9571 a73d f05c a93d d491 a63d
000003c0: a596 663d 7b1d 583d 33aa 553d 4fff 243c
000003d0: 40f1 933b 4610 0c3c acc3 0abc 5357 81bc
000003e0: 8d56 45bc 801e b03b 5133 15bb 2c2e aa3a
000003f0: 8bd9 4c3c 11a4 473c fe27 623c f816 b33c

module.conv2.bias f4 [32]
0.11006613 0.02201493 -7.35181e-40 0.104049094 -1.71369e-40 0.05232671 0.15108939 0.085486494
7.35435e-40 0.08396129 0.11406311 0.114788435 -9.67704e-40 0.066462755 0.09623475 0.12425163
0.15169272 -3.1658406e-20 0.061321806 2.9381904e-23 6.20924e-40 0.12772822 0.1298384 0.05306134
5.13682e-40 0.10171421 0.028817212 -4.6700352e-11 0.04158107 -0.01623426 0.14151187 2.911366e-09
00000000: 5a6a e13d a858 b43c 6301 0880 b117 d53d
00000010: b5dd 0180 8854 563d 2db7 1a3e 8b13 af3d
00000020: 1802 0800 e6f3 ab3d eb99 e93d 3316 eb3d
00000030: 9189 0a80 a01d 883d b916 c53d a377 fe3d
00000040: 5655 1b3e aa80 159f 932c 7b3d 0915 0e1a
00000050: e2c2 0600 30cb 023e 5cf4 043e d956 593d
00000060: f097 0500 8a4f d03d 1312 ec3c ec63 4dae
00000070: e950 2a3d b6fd 84bc 7de8 103e 4b11 4831

module.conv3.weight f4 [32, 32, 3, 3]
-0.013845228 -0.0067273513 -0.015758364 0.06345101 0.07218223 0.014225222 0.07525247 0.072567984
0.0073069995 0.03774326 0.009550326 0.00031519684 -0.056552634 -0.051252276 -0.023189347 0.00047755573
0.00832034 0.04842938 7.50272e-40 -6.71443e-40 -5.09715e-40 4.41008e-40 1.63305e-40 -9.59e-41
-8.19635e-40 -5.72669e-40 -2.51595e-40 -0.004569304 0.033219468 -0.009890063 0.14288834 0.19525906
0.078533374 0.07274007 0.08933182 -0.02045828 -3.50559e-40 7.94861e-40 2.55705e-40 -1.33464e-40
7.39541e-40 1.10614e-40 7.30563e-40 -7.94781e-40 -7.50898e-40 0.0014357924 0.0047680773 0.0068655303
-0.02105808 0.02641925 0.0644434 -0.000960563 0.0076552634 1.3194618e-05 -0.011752617 -0.013173333
-0.035266258 0.035674747 0.037944198 0.008869861 0.028148571 0.024135843 -0.0032725558 -0.042853102
-0.023147406 -0.02592628 0.06720197 0.10295038 0.054457318 0.06181675 0.0680358 -0.0039950255
4.35704e-40 6.67363e-40 7.37464e-40 5.43911e-40 -1.6848e-41 3.78552e-40 -3.23287e-40 5.26443e-40
5.8906e-41 -0.044069257 -0.049628563 -0.037069026 -0.08457509 -0.07411431 -0.032753 -0.036945634
-0.021050068 0.020432958 -0.004396091 0.03778123 -0.021412697 0.1644756 0.23437202 0.10756109
0.075665265 0.10042836 -0.01025023 0.01098427 0.050061785 -0.0018978752 0.17675775 0.21650454
0.07232182 0.08202526 0.089179404 -0.042037666 4.08675e-40 -1.06675e-40 5.99219e-40 7.96247e-40
-7.71332e-40 9.41581e-40 -8.01176e-40 -1.60579e-40 -6.92932e-40 0.026693305 -0.0055891904 0.029411249
-0.14517014 -0.10923017 0.07169089 -0.030371465 -0.026862117 0.08710924 -0.008376865 -0.012007807
-0.0064705233 0.060383715 0.06175315 -0.00076970115 0.083948545 0.08295085 0.006471913 -0.06537319
-0.06292209 -0.06348941 -0.032498024 -0.030851612 -0.03801792 -0.01946766 -0.02021542 -0.023507163
-0.0039437753 -0.0010794221 -0.01689231 0.0621619 0.065905675 0.004529213 0.059756227 0.05370788
-0.008021156 8.8217236e-20 6.798356e-20 1.2373681e-20 1.5896662e-20 1.4011394e-20 3.8344979e-22 -1.9400537e-20
-2.9938135e-20 -2.880175e-20 -0.013267643 0.004281419 -0.01615448 0.017717084 0.061335254 0.03482435
-0.018809475 -0.00905392 -0.049963146 -9.3509224e-23 -8.4417634e-23 -9.349701e-23 8.826961e-24 2.3077897e-23
-3.1335922e-23 1.5979499e-24 -1.8776297e-23 -5.596646e-23 1.65603e-40 -8.35565e-40 -6.47711e-40 3.29413e-40
-7.90484e-40 7.1415e-40 4.0756e-40 4.59182e-40 6.8958e-40 -0.006072394 0.0440646 0.003722854
0.17430386 0.23787946 0.095225126 0.09861256 0.11784305 -0.027736442 0.012247558 0.013461269
-0.02809358 0.0629092 0.06419054 0.00630385 0.030632628 0.020708242 -0.016020274 0.040229984
0.035469204 0.007790014 0.011673055 0.008240402 -0.011758919 -0.015703628 -0.018775994 -0.02493502
2.66677e-40 -4.64794e-40 1.3877e-41 4.7497e-41 -4.07328e-40 -5.7335e-40 -8.8702e-41 9.1353e-41
1.59762e-40 0.0024539058 0.004375299 -0.020693207 0.04075365 0.042551477 -0.00064600306 0.03145778
0.022729054 -0.009416501 0.022494243 0.013039649 0.015014732 -0.040679716 -0.044303514 -0.021695234
-0.028716374 -0.01820012 0.0067833783 1.9204136e-10 1.4662326e-10 3.0041605e-11 -9.283556e-12 -1.504786e-11
-1.4359365e-11 -8.358535e-11 -9.73134e-11 -7.79303e-11 0.013434326 -0.0017590217 0.013134471 -0.07768858
00000000: 18d7 62bc 1d71 dcbb af17 81bc 9af2 813d
00000010: 47d4 933d e810 693c f81d 9a3d 869e 943d
00000020: 8e6f ef3b ad98 1a3d f878 1c3c 0141 a539
00000030: bca3 67bd e8ed 51bd 96f7 bdbc 7260 fa39
00000040: 0952 083c e35d 463d 742b 0800 b64f 0780
00000050: e18c 0580 5acd 0400 3ac7 0100 550b 0180
00000060: cfec 0880 5e3c 0680 58bd 0280 1aba 95bb
00000070: 2311 083d ee09 22bc 5251 123e fef1 473e
00000080: 1bd6 a03d bff8 943d 9af3 b63d 1f98 a7bc
00000090: 37d1 0380 c0a7 0800 cdc8 0200 0b74 0180
000000a0: 8a0d 0800 5934 0100 83f4 0700 87a7 0880
000000b0: 332d 0880 3331 bc3a 883d 9c3b 3ef8 e03b
000000c0: ff81 acbc 2f6d d83c e7fa 833d 4bce 7bba
000000d0: 01d9 fa3b 745e 5d37 0c8e 40bc f7d4 57bc
000000e0: 5a73 10bd af1f 123d 606b 1b3d e552 113c
000000f0: d597 e63c 88b8 c53c 6078 56bb bc86 2fbd
00000100: a19f bdbc 5a63 d4bc 30a1 893d a6d7 d23d
00000110: a30e 5f3d 8f33 7d3d 5a56 8b3d b4e8 82bb
00000120: 91be 0400 5644 0700 c007 0800 34ec 0500
00000130: f72e 0080 401f 0400 3185 0380 82bb 0500
00000140: 35a4 0000 f781 34bd 5247 4bbd b1d5 17bd
00000150: b435 adbd 3ec9 97bd 0228 06bd 4e54 17bd
00000160: 3171 acbc 0563 a73c 160d 90bb 7ec0 1a3d
00000170: ae69 afbc 4b6c 283e 38ff 6f3e fd48 dc3d
00000180: 64f6 9a3d 62ad cd3d 95f0 27bc 5ef7 333c
00000190: 960d 4d3d 20c2 f8ba fcff 343e 5eb3 5d3e
000001a0: 761d 943d dcfc a73d b1a3 b63d b02f 2cbd
000001b0: 3873 0400 5e29 0180 6186 0600 9dab 0800
000001c0: 2966 0880 bf40 0a00 5ab9 0880 a1bf 0180
000001d0: 9d8b 0780 ebab da3c 8725 b7bb dcef f03c
000001e0: 7ba7 14be 11b4 dfbd acd2 923d 94cd f8bc
000001f0: f10d dcbc 5466 b23d 1e3f 09bc 65bc 44bc
00000200: af06 d4bb ea54 773d dff0 7c3d c5c5 49ba
00000210: 37ed ab3d 23e2 a93d 5712 d43b 61e2 85bd
00000220: 4cdd 80bd bc06 82bd a61c 05bd 85bc fcbc
00000230: aeb8 1bbd a47a 9fbc cf9a a5bc 1892 c0bc
00000240: c93a 81bb 657b 8dba be61 8abc 7a9d 7e3d
00000250: 8ef9 863d cb69 943b f2c2 743d cbfc 5b3d
00000260: 2b6b 03bc 0c4c d01f 8a85 a01f 73bb 691e
00000270: c523 961e 7955 841e fbc7 e71b 9f3b b79e
00000280: fc60 0d9f 2e03 089f 8760 59bc 254b 8c3b
00000290: 6656 84bc 6b23 913c ad3a 7b3d faa3 0e3d
000002a0: 5416 9abc e556 14bc 28a6 4cbd 6817 e29a
000002b0: fc1b cc9a d90f e29a febc 2a19 1b32 df19
000002c0: fe87 179a 5145 f717 dc97 b599 9051 879a
000002d0: a2cd 0100 3719 0980 8e0d 0780 4596 0300
000002e0: 8c9b 0880 c2c6 0700 1d70 0400 0300 0500
000002f0: 4582 0700 effa c6bb 157d 343d 20fb 733b
00000300: b67c 323e ac96 733e 6405 c33d 62f5 c93d
00000310: b257 f13d 8937 e3bc fba9 483c a88c 5c3c
00000320: 8224 e6bc 8ad6 803d 5476 833d 8790 ce3b
00000330: 47f1 fa3c 55a4 a93c f33c 83bc 32c8 243d
00000340: 2848 113d 6043 ff3b 5740 3f3c c002 073c
00000350: 7ba8 40bc e5a4 80bc 1dd0 99bc 8744 ccbc
00000360: 63e7 0200 a80f 0580 af26 0000 6784 0000
00000370: 776f 0480 443e 0680 44f7 0080 a8fe 0000
00000380: 5abd 0100 b5d1 203b ab5e 8f3b cd84 a9bc
00000390: 4ded 263d 754a 2e3d 8858 29ba e0d9 003d
000003a0: 4832 ba3c ab47 1abc d945 b83c 41a4 553c
000003b0: 5a00 763c c69f 26bd 9a77 35bd 34ba b1bc
000003c0: 9a3e ebbc 6b18 95bc 1a47 de3b d626 532f
000003d0: c736 212f d71f 042e 6b51 23ad c55c 84ad
000003e0: d59c 7cad 5ece b7ae 93fe d5ae dc5e abae
000003f0: a61b 5c3c f98e e6ba f731 573c 311b 9fbd

module.conv3.bias f4 [32]
-0.00018373005 -0.0101460265 -0.009523002 0.07270966 -0.008996389 -0.0178752 -0.009583526 0.0067644683
-0.003067623 0.02381033 -0.0037369374 0.0070856605 -0.0073486925 0.0050687 -0.0033395374 0.012950897
0.005328065 -0.001227623 0.008253865 -0.0026145077 0.0051348545 0.011336901 -0.00500242 -0.0048881704
-0.0025580996 -0.003501905 -0.003812733 -0.010172393 -0.0032816667 -0.0035880466 -0.001585833 0.009588427
00000000: a9a7 40b9 853b 26bc 5e06 1cbc cde8 943d
00000010: 9765 13bc 036f 92bc 3904 1dbc 79a8 dd3b
00000020: 2c0a 49bb e20d c33c 68e7 74bb d42e e83b
00000030: 4dcd f0bb 5617 a63b 24dc 5abb 0030 543c
00000040: 0c97 ae3b 31e8 a0ba 383b 073c 2958 2bbb
00000050: 4842 a83b 69be 393c 57eb a3bb f22c a0bb
00000060: caa5 27bb 3780 65bb 0cdf 79bb 1caa 26bc
00000070: 3b11 57bb 6f25 6bbb badb cfba c718 1d3c

module.conv4.weight f4 [16, 32, 3, 3]
0.11031613 0.015374123 -0.0281856 -0.19493616 -0.14853081 0.042201944 -0.051692512 -0.02242611
-0.005121556 -0.25246072 -0.13911441 0.013156719 0.1286307 -0.027439563 -0.01725195 0.019098986
-0.01911344 -0.009245966 -0.009693975 -0.011968673 0.0012114695 -0.014911743 -0.059099168 -0.036545604
-0.006545984 -0.01705015 -0.023993142 0.08223129 0.028119504 0.0075111045 0.34910643 0.13824168
0.067000285 0.0711815 0.0038525225 -0.0073917694 -0.09013708 -0.015126242 0.024054212 0.0400992
0.08606063 0.008923719 -0.008550569 0.0051894146 -0.009113845 -0.065557584 -0.03837632 -0.05802973
-0.059155416 -0.1451344 -0.004273081 -0.060582347 -0.042392027 -0.029012699 -0.045158684 -0.004521611
0.018365024 -0.20399901 -0.1151588 -0.03143484 0.001485335 0.009854274 0.032366578 0.071833625
0.013696557 -0.023221487 -0.05847339 -0.17499627 0.038229395 0.050158996 0.03148668 -0.015901515
0.03853588 0.040763013 0.0070476024 -0.08150031 -0.033761628 -0.014961738 0.059951883 0.052426625
0.030792871 0.017392369 0.0034516659 0.0052339407 0.08379304 0.010582005 0.05023152 0.021166828
0.0013026318 -0.033371683 -0.03761226 -0.0016361714 -0.025194082 -0.02064993 0.0057698106 0.004870006
-0.011041881 0.00886422 -0.017261406 -0.039262436 -0.014763695 -0.006749132 0.09067461 0.0808921
0.012265882 -0.014860509 0.0032855992 0.028349739 -0.03194451 -0.042431343 0.004340269 -0.054842174
-0.07021717 0.0058862465 -0.009718995 0.0006514103 0.013664494 -0.091258004 0.023970116 -0.0030568815
-0.21866469 0.06429326 0.014616308 0.003385188 -0.01586905 0.030185588 0.09623159 0.03252149
-0.050712314 -0.25834653 -0.15285984 -0.0017723587 0.024547622 0.030860431 0.014136746 0.026460556
0.047059167 -0.01133866 -0.006148352 0.0782788 -0.01577379 -0.001286109 0.0041839504 0.0043486664
-0.0448613 -0.02633722 -0.042146955 0.020214716 -0.017167853 -0.016227294 -0.00097757 -0.006811444
-0.0053043086 -0.02831552 -0.02719658 -0.034501914 0.018555984 -0.017055662 0.008383229 0.020324392
0.0092401365 0.02877215 0.05367119 0.0025082226 -0.034491133 -0.010509458 -0.20046613 0.0674255
0.00923553 -0.030743469 -0.02512777 0.050128672 0.053666376 -0.030648282 0.063526124 0.083753966
0.0017067578 -0.02178315 0.005348621 0.014731124 0.02964206 -0.025322743 0.02268956 -0.08829825
0.028235381 0.011774482 -0.013428829 -0.025711028 -0.003929284 0.012711228 0.004579442 -0.013549771
-0.013515695 0.01505904 0.01147949 -0.004190063 0.005304138 -0.03062792 -0.055088304 -0.00052271737
-0.026514508 -0.15425454 0.021452237 -0.023140842 -0.0050374316 -0.0015731246 0.0035496824 0.006189826
-0.0010412054 0.0031028353 -0.06810676 -0.056870908 -0.029807955 0.008010154 -0.01815964 0.014825629
0.06753859 0.026335577 -0.014764915 -0.35269526 0.050327517 -0.025472475 0.044394597 0.00084310444
0.00015828728 -0.01204271 -0.002296251 -0.024436599 -0.014843704 -0.0003738964 -0.007311266 -0.034795966
-0.01670847 -0.0113200825 -0.009530402 -0.017848583 -0.0052633556 0.010339942 0.022812264 0.022054544
0.023498256 0.0054314923 -0.014067593 -0.010283347 0.016843949 0.036452077 0.061088502 0.08861124
0.028505072 -0.02096063 0.026057703 -0.012427739 0.01672404 -0.021081833 -0.026486149 -0.092382155
00000000: 6ced e13d bfe3 7b3c 7de5 e6bc 589d 47be
00000010: 7618 18be f2db 2c3d 87bb 53bd f6b6 b7bc
00000020: bad2 a7bb 8842 81be 0274 0ebe 478f 573c
00000030: c4b7 033e efc8 e0bc f653 8dbc 7a75 9c3c
00000040: ca93 9cbc 647c 17bc 7ad3 1ebc 4118 44bc
00000050: 2cca 9e3a 6250 74bc f811 72bd d8b0 15bd
00000060: b27f d6bb c2ac 8bbc 448d c4bc e168 a83d
00000070: e05a e63c b61f f63b 14be b23e 3a8f 0d3e
00000080: 7237 893d 9bc7 913d 9a7a 7c3b a836 f2bb
00000090: ca99 b8bd 0fd4 77bc 570d c53c 0f3f 243d
000000a0: 8e40 b03d ca34 123c b017 0cbc f70b aa3b
000000b0: 3d52 15bc 0e43 86bd 7d30 1dbd 95b0 6dbd
000000c0: f34c 72bd 1d9e 14be 3405 8cbb 3225 78bd
000000d0: 43a3 2dbd 0aac edbc 50f8 38bd 062a 94bb
000000e0: 3f72 963c 1ee5 50be 60d8 ebbd d2c1 00bd
000000f0: 92af c23a d273 213c d192 043d 821d 933d
00000100: 8667 603c fd3a bebc cb81 6fbd 3932 33be
00000110: 6d96 1c3d 8573 4d3d 2df8 003d e543 82bc
00000120: cdd7 1d3d 1ef7 263d 93ef e63b a2e9 a6bd
00000130: a249 0abd 1422 75bc 1b90 753d 4dbd 563d
00000140: 5541 fc3c 717a 8e3c 5835 623b 7a81 ab3b
00000150: af9b ab3d 2560 2d3c 91bf 4d3d 0e66 ad3c
00000160: 12bd aa3a bfb0 08bd 500f 1abd cd74 d6ba
00000170: d263 cebc 0b2a a9bc ae10 bd3b 9294 9f3b
00000180: 01e9 34bc 3c3b 113c cb67 8dbc a6d1 20bd
00000190: 6de3 71bc d327 ddbb 9cb3 b93d c2aa a53d
000001a0: d7f6 483c 7e79 73bc 3553 573b b63d e83c
000001b0: 3fd8 02bd 7dcc 2dbd d138 8e3b 30a2 60bd
000001c0: 05ce 8fbd 6ae1 c03b 6b3c 1fbc 68c3 2a3a
000001d0: 0be1 5f3c 7ae5 babd fa5c c43c f655 48bb
000001e0: a3e9 5fbe 2fac 833d 3d79 6f3c 08da 5d3b
000001f0: cfff 81bc c447 f73c 1115 c53d 4135 053d
00000200: b7b7 4fbd ff45 84be 4a87 1cbe 7d4e e8ba
00000210: 1818 c93c 04cf fc3c cf9d 673c cfc3 d83c
00000220: 1dc1 403d c9c5 39bc 1d78 c9bb a350 a03d
00000230: 0938 81bc a892 a8ba 8519 893b 427f 8e3b
00000240: 7cc0 37bd 27c1 d7bc 49a2 2cbd 5599 a53c
00000250: 99a3 8cbc 1aef 84bc ce21 80ba 8932 dfbb
00000260: c4cf adbb f3f5 e7bc 5dcb debc e151 0dbd
00000270: b802 983c 51b8 8bbc d059 093c 577f a63c
00000280: f163 173c 92b3 eb3c 52d6 5b3d fe60 243b
00000290: 9346 0dbd dd2f 2cbc fe46 4dbe 6116 8a3d
000002a0: 9f50 173c bad9 fbbc c1d8 cdbc b953 4d3d
000002b0: 46d1 5b3d 1b12 fbbc fc19 823d 3387 ab3d
000002c0: 4ab5 df3a 9472 b2bc 7c43 af3b d05a 713c
000002d0: e8d3 f23c a471 cfbc 75df b93c b7d5 b4bd
000002e0: e34d e73c c2e9 403c 9704 5cbc ef9f d2bc
000002f0: 39c1 80bb c142 503c 250f 963b dcff 5dbc
00000300: ef70 5dbc 31ba 763c 7914 3c3c cc4c 89bb
00000310: 56ce ad3b 67e7 fabc 46a4 61bd f806 09ba
00000320: f434 d9bc e7f4 1dbe 9abc af3c dd91 bdbc
00000330: 0a11 a5bb 4d31 ceba caa1 683b 06d4 ca3b
00000340: 0e79 88ba f058 4b3b 8f7b 8bbd 78f1 68bd
00000350: d02f f4bc 053d 033c 86c3 94bc 32e7 723c
00000360: ac51 8a3d b5bd d73c 8be8 71bc 7994 b4be
00000370: 3a24 4e3d a7ab d0bc 1cd7 353d c803 5d3a
00000380: ebf9 2539 c94e 45bc b37c 16bb 432f c8bc
00000390: 0233 73bc 8607 c4b9 5893 efbb 3786 0ebd
000003a0: 34e0 88bc de77 39bc 6725 1cbc 3137 92bc
000003b0: 3a78 acbb dc68 293c c9e0 ba3c bbab b43c
000003c0: 6a7f c03c a9fa b13b c37b 66bc 7c7b 28bc
000003d0: 52fc 893c c64e 153d f037 7a3d cf79 b53d
000003e0: 7883 e93c a1b5 abbc f776 d53c b79d 4bbc
000003f0: db00 893c cfb3 acbc 7bf9 d8bc db32 bdbd

module.conv4.bias f4 [16]
0.006052507 0.016778354 0.008611941 0.008341726 0.0050056106 0.0038373712 0.007747258 0.009620965
0.0098758135 0.0077209347 0.008801592 0.008791791 0.005476981 0.009892398 0.011412788 0.008819995
00000000: 1c54 c63b c272 893c 1919 0d3c bcab 083c
00000010: 1b06 a43b 687c 7b3b b6dc fd3b 41a1 1d3c
00000020: 2ace 213c e5ff fc3b 8d34 103c 720b 103c
00000030: 3f78 b33b b913 223c b4fc 3a3c be81 103c

module.transconv1.weight f4 [16, 16, 4, 4]
-0.0127680255 0.047812376 0.0092485715 -0.005334234 0.035341587 -0.015056018 0.08522225 0.004127956
0.057389036 -0.04030457 0.06606825 0.008000221 0.00024878213 -0.016034834 0.005535795 0.0032194713
-0.043775715 -0.03388679 0.035571136 -0.0018925257 0.022159437 0.052172195 -0.03981122 -0.009189764
-0.04260717 0.095814936 -0.049414944 6.621049e-05 -0.009654981 0.004498344 -0.010272324 0.014999751
0.0076403343 0.00079879665 -0.0026170395 0.005531579 -0.07631347 -0.19321239 -0.013897241 -0.023195192
-0.03774779 -0.124570966 0.003106931 -0.019071253 -0.0018579643 -0.0026163433 0.006430499 -0.011335801
0.03911922 -0.033611234 0.029534759 -0.017116386 -0.16500546 0.07309472 -0.001803518 -0.046011925
-0.02003831 0.24388254 -0.09229111 -0.038471885 -0.0005822728 -0.024318233 -0.0077663353 0.0069988924
0.014804093 -0.01851651 0.02385106 0.021024467 -0.10576966 0.13109231 0.008979149 0.023704253
-0.009223077 0.28676093 -0.034042057 0.033557512 0.029585164 -0.018230358 0.030500866 0.05752239
0.011292252 0.02529485 -0.027969265 -0.009707067 -0.036536265 -0.18521953 0.06780317 0.011019313
0.06661681 0.0515993 0.056848094 -0.010554951 -0.016252397 0.013384606 -0.005142423 0.006548668
0.02088466 -0.0038779199 -0.008655306 -0.009559081 0.087806664 0.14486946 -0.059621453 -0.0051202965
-0.11966935 0.044934604 -0.033442844 -0.008418887 0.0046568625 -0.008253517 0.012252805 0.0028429301
0.010772092 -0.010768049 -0.016356524 -0.018770568 -0.14270908 0.019798359 0.047985762 -0.032030016
-0.12904452 0.008700803 0.09157435 -0.013312635 0.012190405 -0.03470862 -0.01572524 -0.010188936
-0.03599216 -0.003830493 0.010039278 0.0034831346 0.12864716 0.1932812 -0.0024777756 0.030546796
-0.042288758 -0.121110745 0.08649534 0.006371577 0.02383425 0.01910955 0.025605917 -0.004105225
0.029388461 0.03084951 0.010985641 0.011532659 -0.22148624 -0.33173338 0.047351867 -0.0010878231
0.06129718 0.0067041866 0.06905847 -0.0027248545 0.050054718 0.028258812 -0.0003805953 -0.0064003463
0.019373314 0.051928792 0.03630312 0.017792974 -0.05298848 -0.07597294 0.0824026 0.01230653
0.029641654 0.06358735 0.041243505 0.02220927 0.016310565 0.011089334 0.021244878 0.0030812146
0.023114285 -0.024788214 -0.042896785 0.042697564 0.22238566 0.32468337 -0.08998636 0.016918547
-0.05832232 -0.013744263 -0.0315465 0.0083398 0.031223685 0.017412089 0.0232143 -0.012830629
0.086939886 0.058855128 0.059548214 -0.0011439001 -0.12316425 -0.16268037 0.11710547 0.01679093
0.05823623 0.0992446 0.040819082 -0.0079370905 -0.004389238 0.0041970033 -0.02560109 -0.0058751106
0.005025054 0.013231539 -0.008724143 -0.005548386 -0.026589967 -0.144248 -0.024839478 -0.027441945
-0.015320277 -0.05392832 -0.028814124 -0.045258164 -0.00082977273 0.0033818972 -0.017812183 -0.003503741
0.02231338 -0.052539535 -0.025643053 0.014672048 -0.074047685 -0.2005624 0.04160001 -0.020186063
0.117510855 -0.12836261 -0.010414383 -0.030656295 0.018287305 -0.027112626 -0.026681807 0.024429375
0.002104153 0.0044994317 0.006756264 -0.00097641215 -0.002393409 0.0017078457 -0.0044154474 -0.0062429523
-0.025273366 0.018434126 0.021367338 0.0002071557 0.002116242 0.00049386255 0.00036277852 0.00020038655
00000000: fb30 51bc e9d6 433d 5287 173c ccca aebb
00000010: 57c2 103d 84ad 76bc 0189 ae3d ce43 873b
00000020: c410 6b3d 6816 25bd ca4e 873d 5c13 033c
00000030: f96e 8239 7c5b 83bc 9d65 b53b c4fd 523b
00000040: 2a4e 33bd e0cc 0abd 0ab3 113d a00e f8ba
00000050: b587 b53c 83b2 553d 1711 23bd aa90 16bc
00000060: db84 2ebd 9f3a c43d 5367 4abd 7cda 8a38
00000070: ed2f 1ebc d866 933b 404d 28bc 84c1 753c
00000080: c55b fa3b 5666 513a a382 2bbb 3f42 b53b
00000090: 3d4a 9cbd 78d9 45be 41b1 63bc d803 bebc
000000a0: 6d9d 1abd 101f ffbd a79d 4b3b 513b 9cbc
000000b0: f086 f3ba f576 2bbb efb6 d23b ccb9 39bc
000000c0: 7a3b 203d efab 09bd e1f2 f13c aa37 8cbc
000000d0: 31f7 28be afb2 953d 0664 ecba 0077 3cbd
000000e0: 6227 a4bc 58bc 793e 1f03 bdbd b294 1dbd
000000f0: aba3 18ba 0837 c7bc be7c febb f756 e53b
00000100: de8c 723c f0af 97bc 4c63 c33c 813b ac3c
00000110: c39d d8bd 103d 063e 481d 133c 6c2f c23c
00000120: 641c 17bc 54d2 923e af6f 0bbd 9a73 093d
00000130: 965c f23c d557 95bc f4dc f93c 999c 6b3d
00000140: 2303 393c 2537 cf3c cd1f e5bc 640a 1fbc
00000150: 0da7 15bd 30aa 3dbe 63dc 8a3d 598a 343c
00000160: 656e 883d ca59 533d 8cd9 683d acee 2cbc
00000170: bf23 85bc 1b4b 5b3c c581 a8bb 3596 d63b
00000180: 4e16 ab3c b324 7ebb fcce 0dbc b19d 1cbc
00000190: fbd3 b33d a958 143e a035 74bd 29c8 a7bb
000001a0: 3415 f5bd 590d 383d 5dfb 08bd 5fef 09bc
000001b0: 9898 983b c239 07bc fdbf 483c 7450 3a3b
000001c0: 6e7d 303c 796c 30bc 1efe 85bc bcc4 99bc
000001d0: 5422 12be 2b30 a23c b88c 443d e831 03bd
000001e0: 3f24 04be d08d 0e3c 558b bb3d 3d1d 5abc
000001f0: 44ba 473c a02a 0ebd 38d2 80bc 7fef 26bc
00000200: 846c 13bd 0209 7bbb c97b 243c 4d45 643b
00000210: 15bc 033e 82eb 453e 2d62 22bb 463d fa3c
00000220: fa36 2dbd e908 f8bd 7824 b13d a9c8 d03b
00000230: 0c40 c33c a28b 9c3c 80c3 d13c 2085 86bb
00000240: 12c0 f03c 1db8 fc3c 1efd 333c 7af3 3c3c
00000250: 4acd 62be f5d8 a9be 08f4 413d 4995 8eba
00000260: c012 7b3d cbae db3b 876e 8d3d 7993 32bb
00000270: 2d06 4d3d 067f e73c a38a c7b9 ffb9 d1bb
00000280: c9b4 9e3c 49b3 543d 95b2 143d 92c2 913c
00000290: 730a 59bd b397 9bbd b2c2 a83d 54a1 493c
000002a0: 0ed3 f23c 163a 823d f3ee 283d 37f0 b53c
000002b0: bc9d 853c 0ab0 353c bd09 ae3c 34ee 493b
000002c0: 2b5a bd3c a710 cbbc 8ab4 2fbd a4e3 2e3d
000002d0: 11b9 633e e63c a63e c54a b8bd c498 8a3c
000002e0: 63e3 6ebd 9e2f 61bc e736 01bd a8a3 083c
000002f0: d0c8 ff3c cca3 8e3c ea2b be3c 8f37 52bc
00000300: 8a0d b23d 1312 713d d4e8 733d ebee 95ba
00000310: 8a3d fcbd af95 26be fed4 ef3d 228d 893c
00000320: 1d89 6e3d c140 cb3d e931 273d 920a 02bc
00000330: 99d3 8fbb 0487 893b 61b9 d1bc 0084 c0bb
00000340: 35a9 a43b 19c9 583c b5ef 0ebc 3ccf b5bb
00000350: 34d3 d9bc bfb5 13be 297c cbbc eecd e0bc
00000360: e601 7bbc f1e3 5cbd 990b ecbc a060 39bd
00000370: 1b85 59ba d2a2 5d3b dbea 91bc 059f 65bb
00000380: 8dca b63c b233 57bd 6111 d2bc 0863 703c
00000390: 50a6 97bd 3b60 4dbe c664 2a3d 3e5d a5bc
000003a0: 88a9 f03d 7d71 03be 17a1 2abc e922 fbbc
000003b0: 42cf 953c 4c1b debc ce93 dabc 1d20 c83c
000003c0: d4e5 093b f86f 933b a663 dd3b e9f5 7fba
000003d0: bdda 1cbb cbd9 df3a 75af 90bb ae91 ccbb
000003e0: 170a cfbc 2a03 973c 8e0a af3c ef37 5939
000003f0: a6b0 0a3b 8e76 013a 4f33 be39 db1e 5239

module.transconv1.bias f4 [16]
0.0035806089 -0.008183306 0.008183572 0.0034195066 -0.008309568 0.009280505 0.004102956 0.0068598557
0.0055534565 0.007418341 0.024873925 -0.001822712 0.021369377 0.012990321 0.01292872 0.0026712704
00000000: a6a8 6a3b 4613 06bc 6414 063c cd19 603b
00000010: db24 08bc 420d 183c 1772 863b a4c8 e03b
00000020: c5f9 b53b 8e15 f33b 67c4 cb3c 11e8 eeba
00000030: d50e af3c 5bd5 543c fbd2 533c 7b10 2f3b

module.transconv2.weight f4 [16, 32, 4, 4]
-0.005316391 -0.020086396 -0.040431734 -0.052878566 0.07736646 0.109316215 0.041142568 -0.022131031
0.048823662 0.11105274 0.056305375 -0.010813586 -0.008831451 0.017172959 0.014940143 -0.020515103
-0.03131568 -0.009066934 -0.02594126 -0.020058567 -0.033773273 -0.055010058 0.037164696 0.011220205
-0.04395275 -0.011952549 0.033201065 -0.022449717 -0.028596478 0.04799007 -0.004948783 0.018487088
0.0004872071 -0.00653245 0.014749639 -0.03797212 0.039309826 0.08976772 0.064203665 0.03357697
0.032740436 0.05896535 0.04239676 -0.0058290297 -0.011203187 0.0014298081 0.00070031127 -0.023465274
0.026927967 0.050883252 0.040436648 0.06066206 0.0671332 0.1752115 0.15569898 0.068318896
0.061082374 0.13511933 0.12518136 0.043567907 0.039542846 -0.0035592802 -0.007511429 0.001817647
0.05439751 0.11335006 0.124975346 0.044900496 0.03651374 -0.030948421 0.0065192054 -0.0049100267
-0.033383403 -0.15347834 -0.14340599 -0.05681067 -0.04877244 -0.035488077 -0.061121825 0.0030025505
-0.060966842 -0.03457986 -0.089146905 -0.038327005 -0.026518384 -0.15705916 -0.06718527 -0.0888759
-0.038356144 -0.033525094 -0.10666975 -0.039840538 0.020456085 -0.042809416 -0.0056525194 -0.047554776
0.011580431 0.03215593 0.016758572 -0.0034313346 0.02168095 0.002687527 0.013453697 0.01801318
0.003580004 0.011617907 0.056146048 0.032721225 -0.0034565048 0.038377143 0.05840104 0.027141223
0.031043278 0.034047563 -0.03467653 0.019853503 0.020820988 0.06376212 0.06291481 0.025877766
0.048318595 0.058858532 0.011516895 0.0372337 -0.037883326 0.0057012155 -0.028193517 -0.012206967
-0.00671492 -0.009387346 0.018146925 -0.007971319 0.016231623 0.0013189834 0.035728257 -0.027762845
0.04517408 0.0552043 0.03965898 0.0040215575 -0.024292124 0.0024219688 0.0057605547 -0.027033871
-0.025386997 0.023943055 0.09293041 0.031681582 -0.019729301 0.034810804 0.081994794 0.025294185
-0.051689755 0.05825969 -0.041836157 0.042028278 -0.03079028 0.0007955702 0.024959564 0.0015966495
0.02434521 -0.014098221 0.00263491 -0.016692672 0.0717918 -0.006739259 -0.04943009 -0.00066905824
-0.010812574 -0.025690688 -0.023876855 -0.019731112 0.028424792 -0.0059316256 -0.0041491054 -0.0049566776
-0.100474544 -0.014428617 -0.095601186 -0.011798518 -0.046843916 0.08415221 -0.10237742 -0.10527372
-0.041569732 -0.023365244 0.017181268 -0.012972631 0.008144318 0.007691655 0.039632235 -0.0075131766
-0.023223834 -0.028464915 0.013265501 -0.018280024 -0.004980311 0.017156726 0.028546207 -0.013623524
-0.033620227 0.04054663 0.058959685 -0.023389515 -0.015330752 -0.010419467 -0.015898267 -0.02730906
0.020325983 0.0071734 -0.0056986623 0.008079548 0.08028976 0.08722705 0.06362218 0.04671776
0.008923075 0.029619737 0.028096095 -0.0021633992 0.008874878 -0.009404723 -0.009190675 -0.008462147
0.03854931 -0.12921083 0.032125205 -0.07697702 -0.038138956 -0.15396032 -0.105567195 -0.005635047
0.022243233 0.07194444 -0.09821124 0.09706634 0.045361895 -0.0033199394 0.12280004 0.023643034
-0.0046893395 0.047465574 0.05348018 0.03512535 0.0477506 0.19533639 0.22958927 0.09550542
0.066530794 0.1741154 0.17301404 0.08683947 -0.015484093 0.0057038506 -0.019251531 -0.021247866
00000000: 1f35 aebb 3a8c a4bc bf9b 25bd 3297 58bd
00000010: 4e72 9e3d 2ee1 df3d 1c85 283d 234c b5bc
00000020: 52fb 473d 9e6f e33d 77a0 663d 782b 31bc
00000030: cab1 10bc 4eae 8c3c 80c7 743c 4a0f a8bc
00000040: df44 00bd 7a8d 14bc c482 d4bc dd51 a4bc
00000050: d855 0abd 3a52 61bd 023a 183d f3d4 373c
00000060: cc07 34bd a0d4 43bc d7fd 073d 78e8 b7bc
00000070: 2943 eabc 3c91 443d 6729 a2bb 3c72 973c
00000080: d46f ff39 2a0e d6bb 78a8 713c a788 1bbd
00000090: 5703 213d 23d8 b73d 367d 833d 0188 093d
000000a0: d61a 063d a785 713d 3aa8 2d3d 7201 bfbb
000000b0: 928d 37bc 6668 bb3a 1895 373a 3f3a c0bc
000000c0: 0a98 dc3c f56a 503d e6a0 253d c878 783d
000000d0: 227d 893d a56a 333e 8e6f 1f3e c7ea 8b3d
000000e0: 8331 7a3d b95c 0a3e 8b2f 003e 4374 323d
000000f0: aef7 213d d042 69bb 6f22 f6bb 1d3e ee3a
00000100: eccf 5e3d 1424 e83d 13f3 ff3d 95e9 373d
00000110: 6e8f 153d 8b87 fdbc 0f9f d53b 4ae4 a0bb
00000120: 09bd 08bd 6d29 1dbe 05d9 12be 4eb2 68bd
00000130: 9cc5 47bd f25b 11bd e15a 7abd 70c6 443b
00000140: 5eb8 79bd 9ca3 0dbd a792 b6bd c7fc 1cbd
00000150: 153d d9bc 1ed4 20be 6e98 89bd 9104 b6bd
00000160: 551b 1dbd 9c51 09bd ab75 dabd d52f 23bd
00000170: 8593 a73c ed58 2fbd c538 b9bb ccc8 42bd
00000180: d9bb 3d3c f0b5 033d 4649 893c 3ee0 60bb
00000190: 3f9c b13c 3921 303b e56c 5c3c 6090 933c
000001a0: 809e 6a3b 0959 3e3c 66f9 653d b106 063d
000001b0: 8786 62bb 5a31 1d3d ee35 6f3d 4557 de3c
000001c0: 794e fe3c 7575 0b3d fa08 0ebd d0a3 a23c
000001d0: c790 aa3c b795 823d 7bd9 803d 9cfd d33c
000001e0: b8e9 453d a515 713d 5cb1 3c3c 5d82 183d
000001f0: 8c2b 1bbd 43d1 ba3b 17f6 e6bc bbff 47bc
00000200: d508 dcbb 62cd 19bc dca8 943c 239a 02bc
00000210: 2ef8 843c bde1 ac3a cb57 123d e86e e3bc
00000220: 7508 393d e71d 623d 7471 223d 45c7 833b
00000230: 4700 c7bc e5b9 1e3b 09c3 bc3b 2376 ddbc
00000240: 64f8 cfbc 3a24 c43c 4c52 be3d 8cc4 013d
00000250: 589f a1bc c695 0e3d e3ec a73d c035 cf3c
00000260: a3b8 53bd b6a1 6e3d 645c 2bbd d825 2c3d
00000270: e63b fcbc d08d 503a 0078 cc3c ab46 d13a
00000280: 9b6f c73c 3afc 66bc 74ae 2c3b 12bf 88bc
00000290: 9407 933d 01d5 dcbb 3577 4abd bd63 2fba
000002a0: 3927 31bc 4775 d2bc 6599 c3bc 24a3 a1bc
000002b0: 1cdb e83c 155e c2bb 38f5 87bb a06b a2bb
000002c0: 99c5 cdbd 0266 6cbc 8eca c3bd 924e 41bc
000002d0: 68df 3fbd fe57 ac3d 41ab d1bd c099 d7bd
000002e0: 0645 2abd 7868 bfbc bbbf 8c3c 288b 54bc
000002f0: bf6f 053c 470a fc3b 6955 223d 1831 f6bb
00000300: e93f bebc 412f e9bc 8b57 593c fdbf 95bc
00000310: e031 a3bb 438c 8c3c bcd9 e93c 3435 5fbc
00000320: 5db5 09bd 3914 263d b67f 713d 5e9b bfbc
00000330: d62d 7bbc 6ab6 2abc 153d 82bc 40b7 dfbc
00000340: ad82 a63c d70e eb3b d8bb babb 1560 043c
00000350: f56e a43d 18a4 b23d 584c 823d 1f5b 3f3d
00000360: 1732 123c 17a5 f23c c829 e63c d1c7 0dbb
00000370: f067 113c 4416 1abc 7c94 16bc d1a4 0abc
00000380: e2e5 1d3d d84f 04be b895 033d 21a6 9dbd
00000390: 9837 1cbd c6a7 1dbe 9d33 d8bd 33a6 b8bb
000003a0: 7137 b63c 9b57 933d f922 c9bd b8ca c63d
000003b0: 65cd 393d 5793 59bb 967e fb3d 09af c13c
000003c0: 08a9 99bb 436b 423d 090e 5b3d 99df 0f3d
000003d0: 2296 433d 4306 483e 7319 6b3e 5898 c33d
000003e0: 4c41 883d 4f4b 323e 982a 313e e4d8 b13d
000003f0: feb0 7dbc 5ee7 ba3b 63b5 9dbc 0110 aebc

module.transconv2.bias f4 [32]
-0.005623616 -0.0038015777 0.024922349 -0.0014342191 0.0055217054 -0.008395346 0.035079055 0.0130721135
0.0007885321 0.001510705 0.000647828 -0.0032324903 0.025482533 0.0122490795 0.002953837 -0.008285788
-0.007937883 0.008634083 0.0068554627 -0.016722426 -0.0019498228 0.008635554 0.004640732 0.004539275
0.017098008 0.007838091 -0.0027131087 -0.009287143 0.015171955 0.0076498915 -0.011475611 0.0011782892
00000000: 4f46 b8bb e423 79bb f429 cc3c 68fc bbba
00000010: 6cef b43b a28c 09bc 0eaf 0f3d 6b2c 563c
00000020: 7eb5 4e3a d902 c63a 00d3 293a 30d8 53bb
00000030: bfc0 d03c 5db0 483c 2995 413b 1dc1 07bc
00000040: e50d 02bc f875 0d3c caa3 e03b 78fd 88bc
00000050: 3291 ffba 247c 0d3c 4811 983b 33be 943b
00000060: 1f11 8c3c 566b 003c 69ce 31bb 1a29 18bc
00000070: cb93 783c f1ab fa3b 3304 3cbc d370 9a3a

module.transconv3.weight f4 [32, 32, 4, 4]
0.01193967 0.021795895 0.0075010294 -0.0046619317 0.02627485 0.044455677 0.0136373835 0.0047806012
0.022553332 0.043357775 0.024056332 0.0066217333 -0.0058773053 0.018406937 0.00800044 0.016920596
0.012805122 0.035016783 0.028184243 0.009584342 0.039137475 0.04059852 0.010507012 0.00032730174
0.024821235 0.046232253 0.014163642 -0.00092703133 0.012101928 0.02083164 0.0107009355 0.00080664176
0.005223298 -0.00405668 -0.0033423447 -0.0028540702 0.009451802 -0.020247336 -0.021934077 -0.013445525
0.014947754 0.004690303 -0.016596967 -0.020256154 0.014263108 0.010433738 0.024078295 0.013124726
0.01701217 -0.00052665314 -0.0047168178 -0.0046578855 -0.0133540295 0.025569595 0.003282636 -0.0035826555
0.016989708 0.034362372 0.013115245 0.028418876 -0.016562453 0.0008994306 -0.011988032 0.010587102
0.009136808 -0.015497111 0.03313717 0.0018469476 0.04287352 -0.010868415 -0.008896851 0.028867023
0.027095024 -0.034689832 0.04163892 -0.004311024 0.0009594395 -0.05712111 0.0220756 -0.015321947
0.0077621094 0.0015603292 -0.010092156 0.00054515805 -0.016775103 -0.0073932875 0.0004594876 -0.023176247
-0.004868058 -0.03338408 -0.0046944097 -0.014984791 -0.0114517035 0.0025616465 0.02172804 0.009036935
0.0033001613 0.01860521 0.014676252 0.0018870516 -0.005338612 0.021311378 0.0026660345 0.0026225904
0.015902173 0.032218315 0.023788713 0.010785707 0.006918368 0.01802264 0.0077717872 0.0054173376
0.0024967864 0.028264364 0.021452967 0.010517543 0.026060747 0.03963133 0.025934575 0.012697573
0.013522508 0.05356111 0.03485837 0.026752053 0.0012511676 0.029318707 0.034792297 0.02677946
0.026279388 -0.0070267622 -0.058778882 -0.06693951 0.023352996 -0.02361102 -0.03582451 -0.10084028
0.037105814 0.021602252 0.030671295 0.02347191 0.014193869 0.02468649 0.018037338 0.022799186
0.011712082 0.000556217 -0.010850354 -0.00059380167 0.0027183753 -0.026175678 -0.0036481037 -0.0069156
0.018031187 0.0035663925 -0.011001166 0.0042293756 0.0054117767 -0.012496127 0.008273906 -0.0041440753
0.0033469694 -0.012005975 -0.0049748044 -0.0058517177 0.002701757 -0.026711944 -0.016420644 -0.009195339
0.025575219 -0.01804486 -0.0021009345 -0.009381515 0.010626578 -0.0007910697 -0.00248187 -0.013281678
-0.005118115 0.012549752 -0.0045345924 -0.0072745415 -0.0011094601 -0.011054313 0.00944255 -0.02645198
0.010805502 0.013117375 0.02278726 -0.019713942 0.00026079087 0.015040945 0.0029288598 0.021858647
0.048407186 0.05878787 0.029547779 0.034881443 0.05867538 0.062364005 0.057688218 0.013691103
0.056089975 0.1020408 0.06824675 0.061720647 0.033151038 0.062280428 0.029307716 0.0492549
0.0020588597 -0.022551263 -0.0010318843 -0.015760753 -0.023610903 -0.016385242 0.0037230754 -0.0010233647
0.005280059 -0.024014859 -0.010328043 -0.008775455 -0.050382424 0.005104338 -0.04028618 -0.0120882
0.007922987 0.0053779255 0.009443892 -0.013069225 0.006423138 0.02357823 0.00060061854 0.0020112877
0.0072984104 0.01704395 0.010386825 -0.008470018 0.005227527 0.029338477 0.018536896 0.025723282
-0.024288686 -0.02842377 -0.021739256 0.027573694 -0.042198125 -0.07716676 -0.051273327 -0.049857233
-0.019383041 -0.09319781 -0.039953873 -0.042910468 0.010968235 -0.046141863 -0.024428423 -0.0634873
00000000: 9b9e 433c 4e8d b23c 32cb f53b 1ec3 98bb
00000010: 5b3e d73c 2817 363d 556f 5f3c 97a6 9c3b
00000020: c4c1 b83c ec97 313d c911 c53c 20fb d83b
00000030: 6996 c0bb 25ca 963c 4714 033c 109d 8a3c
00000040: 93cc 513c c26d 0f3d a4e2 e63c a507 1d3c
00000050: 9e4e 203d a24a 263d 9a25 2c3c b299 ab39
00000060: e755 cb3c 085e 3d3d 9f0e 683c 0504 73ba
00000070: 2a47 463c 1ea7 aa3c fa52 2f3c d074 533a
00000080: 3328 ab3b e6ed 84bb 3d0b 5bbb 5a0b 3bbb
00000090: bbdb 1a3c bedd a5bc 18af b3bc 9f4a 5cbc
000000a0: 6de7 743c 1db1 993b 5df6 87bc 3cf0 a5bc
000000b0: d0af 693c 45f2 2a3c d83f c53c 1709 573c
000000c0: 1b5d 8b3c 180f 0aba 898f 9abb 2da1 98bb
000000d0: dcca 5abc 5477 d13c 7e21 573b fcca 6abb
000000e0: 002e 8b3c 8fbf 0c3d 53e1 563c b4ce e83c
000000f0: fbad 87bc c4c7 6b3a 7369 44bc 8675 2d3c
00000100: 8db2 153c 98e7 7dbc d7ba 073d 4715 f23a
00000110: 259c 2f3d 7011 32bc 19c4 11bc 897a ec3c
00000120: 62f6 dd3c ed16 0ebd 928d 2a3d 7e43 8dbb
00000130: e582 7b3a d3f7 69bd e4d7 b43c e708 7bbc
00000140: 4b59 fe3b f683 cc3a 9259 25bc f0e8 0e3a
00000150: f16b 89bc 6443 f2bb 62e7 f039 1ddc bdbc
00000160: 3b84 9fbb bfbd 08bd 90d3 99bb c582 75bc
00000170: ed9f 3bbc 4ce1 273b 01ff b13c a70f 143c
00000180: 8547 583b f469 983c aa74 703c f256 f73a
00000190: 86ef aebb 3395 ae3c a3b8 2e3b c4df 2b3b
000001a0: 4645 823c 5af7 033d 8ce0 c23c 89b6 303c
000001b0: 7ab3 e23b 37a4 933c 7aaa fe3b ec83 b13b
000001c0: 20a1 233b ab8a e73c 22be af3c c651 2c3c
000001d0: 597d d53c 7654 223d bf74 d43c 7b09 503c
000001e0: 828d 5d3c e562 5b3d a6c7 0e3d 1f27 db3c
000001f0: 38fe a33a c92d f03c 5e82 0e3d 9960 db3c
00000200: df47 d73c c140 e6bb 20c2 70bd 9517 89bd
00000210: c84e bf3c e66b c1bc b9bc 12bd 5985 cebd
00000220: 44fc 173d 35f7 b03c 5e42 fb3c 2a48 c03c
00000230: 678d 683c 523b ca3c 0ac3 933c 5cc5 ba3c
00000240: 08e4 3f3c 17cf 113a afc5 31bc 5ba9 1bba
00000250: c526 323b 606e d6bc 0615 6fbb 429c e2bb
00000260: 24b6 933c 23ba 693b 3c3e 34bc 9396 8a3b
00000270: 4655 b13b 8ebc 4cbc 478f 073c 06cb 87bb
00000280: d458 5b3b b5b4 44bc af03 a3bb c4bf bfbb
00000290: f60f 313b 02d3 dabc 9684 86bc 0ca8 16bc
000002a0: 1f83 d13c d0d2 93bc d5af 09bb edb4 19bc
000002b0: 191b 2e3c ca5f 4fba dea6 22bb 659b 59bc
000002c0: dcb5 a7bb 7a9d 4d3c eb96 94bb 475f eebb
000002d0: 4e6b 91ba 261d 35bc edb4 1a3c d3b1 d8bc
000002e0: 8f09 313c 42ea 563c 59ac ba3c 227f a1bc
000002f0: c2ba 8839 4c6e 763c 1df2 3f3b e810 b33c
00000300: 9d46 463d 8dcb 703d 2f0e f23c d8df 0e3d
00000310: 9855 703d 6671 7f3d 7b4a 6c3d a650 603c
00000320: 9abe 653d c4fa d03d f4c4 8b3d cace 7c3d
00000330: 62c9 073d c319 7f3d bc16 f03c 82bf 493d
00000340: efed 063b 6dbd b8bc 4b40 87ba b21c 81bc
00000350: a76b c1bc 583a 86bc d7fe 733b 6c22 86ba
00000360: 5804 ad3b cfba c4bc f436 29bc edc6 0fbc
00000370: cd5d 4ebd 4a42 a73b 1f03 25bd 960d 46bc
00000380: 6bcf 013c 4f39 b03b 8eba 1a3c 4d20 56bc
00000390: 3079 d23b 2227 c13c d472 1d3a cfcf 033b
000003a0: 8127 ef3b c19f 8b3c 802d 2a3c d5c5 0abc
000003b0: ad4b ab3b 3f57 f03c b0da 973c a2b9 d23c
000003c0: 11f9 c6bc f7d8 e8bc 8616 b2bc 3ae2 e13c
000003d0: f1d7 2cbd 9b09 9ebd fb03 52bd 1937 4cbd
000003e0: 2fc9 9ebc 7ede bebd aca6 23bd e3c2 2fbd
000003f0: 1db4 333c 40ff 3cbd 1e1e c8bc a105 82bd

module.transconv3.bias f4 [32]
0.026703307 0.037327956 0.007374486 0.11256621 0.14770125 8.810575e-05 -0.027601631 0.015297105
0.0474086 0.052115154 0.037470967 -0.066384174 0.0140867 0.012985488 0.023392357 -0.03160461
0.03674055 -0.041069075 0.08845037 -0.039374556 0.04856194 0.026667586 0.10532545 0.0743826
0.0011017718 0.041642893 0.059563957 0.08322898 0.022891525 -0.036019858 0.06250029 -0.044078
00000000: e5c0 da3c 33e5 183d aca5 f13b 1d89 e63d
00000010: ff3e 173e 6ac5 b838 d11c e2bc b5a0 7a3c
00000020: 852f 423d b376 553d 287b 193d 6df4 87bd
00000030: e7cb 663c 16c1 543c 54a1 bf3c d673 01bd
00000040: 427d 163d 0c38 28bd 7825 b53d 3747 21bd
00000050: e3e8 463d fb75 da3c dfb4 d73d e855 983d
00000060: 5469 903a bd91 2a3d 56f9 733d f573 aa3d
00000070: 0287 bb3c 8f89 13bd 2700 803d 228b 34bd
